2023-09-05_15-27-30_checkpoint.pth (torch, 428187 bytes, 39 tensors)

lstm.weight_ih_l0 f4 [128, 309]
000000 e6 db 91 3d 31 a2 06 be 4e 4e 93 3d 24 ea 0f be
       0.071220204 -0.13147809 0.0719267 -0.14054161
000010 24 d2 87 3d 3c ef 3b 3d 24 0d 71 bd b3 c5 f9 bd
       0.06631878 0.04588245 -0.058850423 -0.12195911
000020 dc 51 47 bd 9e b9 9b bd 70 74 37 bd a0 ff 87 bb
       -0.04866205 -0.07603763 -0.044788778 -0.004150346
000030 38 77 07 be 44 11 58 3d e0 de da bc 96 4e 7f bd
       -0.13229072 0.05275084 -0.026717603 -0.062330805
000040 a5 68 00 3e 40 b6 69 3c 5c 46 09 be 64 66 16 3d
       0.12539919 0.014264643 -0.13405746 0.03671874
000050 2a 15 bd 3d a0 a5 c4 bb 78 92 f0 bd 35 e1 0b 3e
       0.09232552 -0.0060011894 -0.11746687 0.13660128
000060 b8 44 0b be 62 23 e5 3d a0 a4 9b bc 36 65 f6 3d
       -0.13600433 0.11188389 -0.018999398 0.12031023
000070 ec 9c 21 be 80 3c 8b bb b5 15 0a 3e e4 dc 81 3d
       -0.15782517 -0.0042491555 0.13484843 0.0634096
000080 29 ba 15 be 0a eb d4 3d 66 33 b3 bd a0 4a 11 bc
       -0.14621796 0.10396393 -0.08750038 -0.00886789
000090 c3 6b c9 bd 10 e3 cc bc 74 dd 52 3d 0b 7e 01 3e
       -0.09835007 -0.025010616 0.051480725 0.12645738
0000a0 ac ce 03 3d d2 b3 de bd 66 83 61 bd 6a 04 f4 3d
       0.03217952 -0.10874142 -0.055056952 0.119149044
0000b0 20 15 0a bc dd 40 32 3e d6 5c c5 3d 57 6a 11 3e
       -0.008427888 0.17407556 0.09636848 0.14200722
0000c0 9d 01 1a 3e 8a 17 09 be fe 29 e4 bd 03 48 d7 bd
       0.15039678 -0.13387886 -0.11140822 -0.10511782
0000d0 ac 9b 52 3d e6 e8 b8 bd e4 67 22 be 5f e6 1e 3e
       0.05141799 -0.09028797 -0.15859944 0.15517567
0000e0 a8 28 ee 3c e0 02 aa bd 25 5a 19 3e 16 f3 f3 3d
       0.02907212 -0.083013296 0.14975794 0.11911599
0000f0 90 15 bd 3c 92 92 b0 3d e0 39 85 3c a7 ae 9e bd
       0.02308157 0.08621706 0.016262949 -0.07748156
000100 4d 0c 2e 3e f2 b9 ee 3d 99 53 25 be 74 cb 2f 3d
       0.1699688 0.1165656 -0.16145171 0.042918637
000110 2b e1 f2 bd e4 68 03 3d 5c 65 21 be d6 42 82 bd
       -0.11859354 0.032082453 -0.15761322 -0.06360404
000120 51 1f 27 3e 60 69 a7 bb a0 bc ad 3c 8e d9 2d be
       0.1632054 -0.005108997 0.021208107 -0.16977522
000130 55 e5 ad bd a0 2b 2f 3d e0 a8 2c 3d 37 21 18 be
       -0.08491007 0.042766213 0.04215324 -0.1485642
000140 3e 11 a7 3d 46 c0 b5 3d cc 65 48 bd 78 03 02 bd
       0.081575856 0.08874564 -0.048925206 -0.03174159
000150 10 6a ec 3c 86 9a 8d bd 94 a7 7a 3d d9 b3 0f 3e
       0.028859168 -0.06914239 0.06119497 0.1403345
000160 a6 9a 19 be 50 85 18 be 17 26 29 3e 0e da f7 3d
       -0.150004 -0.14894605 0.16518436 0.121021375
000170 ca 81 e1 bd 80 97 c7 3c b3 5c 1d 3e f7 9e ff bd
       -0.110110834 0.024364233 0.15367393 -0.12481492
000180 4b 22 2a be eb 6a a8 bd 00 34 01 39 60 7d f4 bb
       -0.16614644 -0.08223518 0.0001232177 -0.007461235
000190 b6 09 c9 3d 00 13 01 bc 68 f5 ff bc a7 27 10 be
       0.09816305 -0.007878065 -0.031244949 -0.14077626
0001a0 bc 05 62 3d 28 cd 27 be 8f bb 0f 3e 5b 14 29 3e
       0.05518125 -0.16386855 0.14036392 0.16511671
0001b0 f4 c7 00 be e5 16 80 bd a4 de 0e be 50 92 0f be
       -0.12576276 -0.06254367 -0.13952118 -0.14020658
0001c0 cd 33 9f bd 9d 27 03 3e 80 58 87 3c e2 df 8c bd
       -0.07773552 0.1280808 0.016521692 -0.0687864
0001d0 00 f8 4c 3b 09 41 2f be 94 cb d3 bd 51 91 d3 bd
       0.003127575 -0.17114653 -0.10341564 -0.10330451
0001e0 54 05 35 bd 2f c4 1c 3e 78 c4 f6 3c cf 68 31 be
       -0.044194534 0.15309213 0.03012298 -0.17325138
0001f0 3f 72 34 be b0 b0 25 3d 76 02 d9 3d 8a 38 5c bd
       -0.17621706 0.040451705 0.105961725 -0.053764857
000200 a8 a1 3a bd a5 7c 07 3e e0 06 0a be e0 72 66 3c
       -0.045564324 0.13231142 -0.13479185 0.014065474
000210 00 c8 98 b8 5c e8 6a 3d 55 39 25 be 72 3c c3 3d
       -7.285178e-05 0.0573505 -0.16135152 0.095330134
000220 f2 ec b8 3d a0 54 e9 bb 3a 2b 14 be 0c 03 45 3d
       0.09029569 -0.007120684 -0.14469615 0.04809861
000230 59 5b b7 bd aa d1 9d 3d c3 5c 14 3e f2 4d c5 3d
       -0.0895297 0.07706006 0.14488511 0.096340075
000240 dc 65 2d be 77 97 0c be d3 17 d6 bd 48 ad ac 3c
       -0.16933388 -0.13729654 -0.10453763 0.02107872
000250 5b 40 e6 bd 68 90 89 3c 50 dc 07 3c d8 b2 3c bd
       -0.112427436 0.016792491 0.008292273 -0.046068996
000260 d8 ac bd bd bf b6 30 3e 23 b2 34 3e 43 f4 13 3e
       -0.09261483 0.17257212 0.17646079 0.14448647
000270 89 79 1c 3e 50 ca 33 bd 00 91 93 bb 78 bd f1 3c
       0.15280737 -0.043894112 -0.0045033693 0.029509291
000280 7f ea 1b be 80 54 08 bc e2 3c 05 be 68 4c 1b be
       -0.15226172 -0.008320928 -0.13011506 -0.15165865
000290 20 bb ff 3c 16 a2 f8 3d aa d1 ca 3d be dc ff 3d
       0.031217158 0.121402904 0.099032715 0.12493275
0002a0 5a 69 c2 3d d1 5e 30 be a0 78 c4 bc 4c 20 ae bd
       0.094927505 -0.1722367 -0.0239833 -0.08502254
0002b0 3c 75 85 bd e0 c3 e0 bb c1 2b 2f be c0 dd c0 3b
       -0.06516501 -0.0068592876 -0.17106535 0.0058858097
0002c0 05 22 2c 3e fa 8a 03 be c0 81 e7 bb 48 af a8 bc
       0.16809852 -0.12845984 -0.007065028 -0.020591393
0002d0 ee ec 0d be ec 9b 1b 3d d6 4d ec bd 39 84 01 3e
       -0.13859913 0.037990496 -0.115382835 0.12648095
0002e0 ce 17 14 be 00 fa 31 bb 3a 8a d3 3d c2 40 f7 3d
       -0.14462206 -0.0027157068 0.10329099 0.120728984
0002f0 f2 ac ea 3d 14 a4 26 be 24 ea 42 bd 60 07 03 3d
       0.11458768 -0.16273528 -0.047586575 0.031989455
000300 ff a3 0e 3e e6 2c e9 3d 00 d0 87 3d 64 78 7b bd
       0.13929747 0.11385517 0.0663147 -0.06139411
000310 70 57 8b 3d 70 8a d9 bc a8 6e 8e 3c 7b a3 0c be
       0.06803787 -0.02655527 0.01738675 -0.13734238
000320 60 c7 c8 bb 10 e2 cd 3c f5 7b b0 bd 90 ca 8e bc
       -0.006127283 0.025132209 -0.08617393 -0.017430574
000330 ab a4 2f 3e 60 a2 02 bd d0 3b 96 bd 00 35 23 bc
       0.1715266 -0.031893134 -0.07335627 -0.009961367
000340 df d1 88 bd 9a 0e af 3d 55 68 1c 3e 28 57 d8 bd
       -0.06680655 0.08547707 0.15274175 -0.10563499
000350 ea 29 a4 3d 6d 9d 2e 3e 18 19 14 3d 9c 16 23 be
       0.08015807 0.1705224 0.036156744 -0.15926594
000360 ba 5a 6c bd ec 67 22 be 3d c0 f3 bd b8 ba 8d 3d
       -0.05770371 -0.15859956 -0.11901901 0.069203794
000370 69 70 21 3e 5d 6e 0e 3e 00 b2 89 3b f9 a5 26 3e
       0.15765537 0.13909288 0.0042021275 0.16274251
000380 d4 16 42 bd e0 51 8d bb 0a 9d 58 bd e7 24 16 3e
       -0.04738505 -0.004312739 -0.05288414 0.14662515
000390 c6 8b c9 3d 5e 36 8b bd e0 54 9a bb fc 77 00 be
       0.09841113 -0.06797479 -0.004709825 -0.1254577
0003a0 f0 a9 ba 3c 10 6d c3 bd 0d b4 2f 3e de c1 b8 3d
       0.02278611 -0.095422864 0.17158528 0.09021352
0003b0 f0 6f 54 3d b3 8a 10 be 30 cc ef bc cb db 21 3e
       0.051864564 -0.1411541 -0.029272169 0.158065
0003c0 9f f3 34 3e 26 bd 8b 3d 38 7c 29 be e8 81 20 bd
       0.17671059 0.068231866 -0.16551292 -0.03918639
0003d0 bb 07 e0 bd 1a 32 a9 3d cb 2d b1 bd f7 21 1c 3e
       -0.109389745 0.08261509 -0.086513124 0.15247332
0003e0 13 0d 01 3e 66 57 fc bd 32 f1 20 be 80 22 d6 3c
       0.12602644 -0.123213574 -0.15717009 0.026139498
0003f0 c1 57 31 3e 98 7d e4 3c f0 5c 89 bc 00 f4 c8 3c
       0.17318632 0.027891919 -0.016767949 0.02453041

lstm.weight_hh_l0 f4 [128, 32]
000000 c5 43 bc bd 28 9b fb 3c da 8c 92 3d 29 fe 1e 3e
       -0.091926135 0.030713633 0.071557716 0.15526642
000010 12 ab ce 3d 50 09 87 bc f0 73 8e 3c fd cc 22 3e
       0.10091223 -0.016483933 0.017389268 0.1589851
000020 dc 68 8e 3d 60 26 08 3c 3c 98 01 be a0 ae 88 bd
       0.06953594 0.008309931 -0.12655729 -0.06673932
000030 d4 a3 1f 3d 55 b1 32 3e ae 54 e8 3d c2 9d a4 3d
       0.038974598 0.1745046 0.11344276 0.080379024
000040 f0 e7 4c bc 47 b1 b0 bd 00 b7 63 bb fd 3e 17 3e
       -0.01250647 -0.08627563 -0.0034746528 0.14770122
000050 4a eb f4 3d 1d 98 08 3e c0 52 61 3c fa 19 db 3d
       0.1195894 0.13339277 0.013752639 0.10698314
000060 22 a6 83 bd c2 f5 b3 3d e6 02 15 be 36 93 cc bd
       -0.06428172 0.08787109 -0.14551887 -0.09989016
000070 ee 3d c4 3d b0 c9 b1 bc 9a ef aa bd 04 1d 52 3d
       0.09582125 -0.021702617 -0.083464816 0.051297203
000080 44 fa 83 3d f3 a5 80 bd a0 93 88 bc 39 48 a2 bd
       0.06444219 -0.06281652 -0.016671956 -0.07923932
000090 58 c7 f1 bc 7a d8 b9 3c 68 3c e8 3c e9 08 62 3c
       -0.029514 0.022686232 0.028349116 0.01379607
0000a0 32 d5 a5 3d 97 98 16 3e 4d f2 62 3e 48 93 44 3c
       0.080973044 0.14706646 0.22162743 0.011998005
0000b0 ae 15 ae bd 38 59 4b bc 1b fa 9c bd 92 79 ae bd
       -0.08500229 -0.012411408 -0.07664891 -0.085192814
0000c0 76 f0 dc bd e6 91 9e be 31 95 48 3a 42 15 05 be
       -0.10788052 -0.30970687 0.0007651626 -0.1299639
0000d0 ac cc ae bc c6 f6 0a 3e f4 cd 6b bc dc fc 78 bd
       -0.02133783 0.13570699 -0.014392365 -0.06078802
0000e0 28 35 bb bd fb 85 13 be 77 f1 2d be d5 b0 f5 bd
       -0.09140998 -0.14406578 -0.16986643 -0.11996619
0000f0 9c d2 09 3d 8e dc db 3d e6 53 00 3e 7d c9 45 3e
       0.03364812 0.10735427 0.12532005 0.19315143
000100 25 e1 a7 bd 6c a0 ab 3c 8c 2f ee bd 1b 36 19 bc
       -0.0819724 0.020950519 -0.116301626 -0.009351279
000110 81 3c 25 be 29 4a bf bb 8e de d5 3d e8 1f 2e bd
       -0.16136362 -0.005837698 0.104428396 -0.042510897
000120 88 74 3c bd c4 f1 5a 3d 3d 6e e2 3d 46 a6 0d be
       -0.04600957 0.053453222 0.110561825 -0.1383296
000130 33 5d 01 3e 05 e8 2b 3e 30 7c 6f bc 63 47 d2 bd
       0.12633209 0.16787727 -0.014617011 -0.10267522
000140 e0 bd 2c be 48 4e a8 3d c7 df ce bd 60 8f 10 be
       -0.16869307 0.08218056 -0.10101276 -0.14117193
000150 85 b9 2d be 45 bf 28 3c 85 88 16 3e 75 11 a2 bd
       -0.16965301 0.010299508 0.14700516 -0.07913486
000160 26 7e 03 3e a6 af b1 3d 79 0f 8e 3d f2 47 97 3d
       0.1284109 0.086760804 0.06936545 0.07386769
000170 58 f1 24 3e 30 f5 91 bc 10 5c ba bd c9 df fe 3d
       0.1610769 -0.01781711 -0.09099591 0.124450274
000180 a5 32 c6 bd 40 1e 4e 3d 0c e0 fa bd b4 3d 1a 3d
       -0.096776284 0.050321817 -0.12249765 0.0376565
000190 ea a4 d4 bd 92 31 a9 3d 79 7e 30 3e 06 98 d5 bd
       -0.10383017 0.08261408 0.17235745 -0.10429387
0001a0 ca a4 c0 3d fe 44 a7 3d 9a 6b 1e be f7 15 0b 3e
       0.09406431 0.08167456 -0.15470734 0.13582598
0001b0 8b 8c dc bd 6d 45 c0 bd 8e 03 aa 3d 5a 7f e7 3d
       -0.10768994 -0.09388242 0.08301459 0.11303587
0001c0 30 8d 67 3c 2a 66 f9 bd 12 80 27 be e0 a8 46 3c
       0.014132783 -0.121776894 -0.16357449 0.012125224
0001d0 03 f9 22 3e b4 a8 2f be dc 8f 25 be c6 dd c0 bd
       0.15915303 -0.17154199 -0.16168159 -0.094173
0001e0 a8 3f 81 3c ee ac ea bd d1 fd ab bd ec d9 4a 3d
       0.015777424 -0.11458765 -0.08398021 0.049524233
0001f0 90 d0 32 3c d0 8b 28 3c 75 47 24 3e 48 c1 08 bd
       0.010913983 0.01028724 0.16042884 -0.033387452
000200 d8 22 e5 bc d2 10 c6 3d 84 73 aa bd 1a 07 15 be
       -0.027970716 0.09671177 -0.08322814 -0.1455349
000210 ba 02 83 bd 21 0e 03 be 50 98 47 bc ea c9 12 be
       -0.063970044 -0.12798359 -0.01218231 -0.14334837
000220 aa 2d d1 3d e1 44 15 be e8 ad 8a 3d d8 7b 94 bc
       0.10213788 -0.14577056 0.06771451 -0.01812546
000230 b0 e3 12 bc 00 06 09 3a 3c f0 8c 3d 64 6e 5c 3d
       -0.008965418 0.00052270293 0.068817586 0.053816214
000240 8d 92 93 bd a8 1d 1c be 40 28 ee 3c b4 f4 07 be
       -0.07205687 -0.15245688 0.029071927 -0.1327694
000250 f0 37 b6 bc d8 75 8d 3c c6 b9 03 be c0 a1 63 bd
       -0.02224347 0.017268106 -0.12863836 -0.05557418
000260 68 5a 8c 3d 58 fa 97 bc 32 8e 8b bd 47 ef 0d 3e
       0.06853181 -0.01855199 -0.06814231 0.13860808
000270 e0 6d 1e bd a8 b0 a4 3c ef 55 04 be c0 2c 03 3c
       -0.038679004 0.020103768 -0.12923406 0.008006275
000280 a0 3a d2 bb a6 1c 2c bd 78 3d 2e be 65 76 af bd
       -0.00641568 -0.04201951 -0.17015636 -0.08567504
000290 87 08 19 3e 96 e0 2e 3e 85 df 32 3e 67 4e 30 3e
       0.14944659 0.1707786 0.17468078 0.17217408
0002a0 ca 0d b9 3d a0 47 f5 bd 30 bf b7 3c 67 11 29 3e
       0.09035833 -0.11976552 0.022430032 0.16510545
0002b0 9d 09 82 bd cf 12 22 be e5 b3 2a 3e 8a b4 12 be
       -0.0634949 -0.15827487 0.16670187 -0.14326683
0002c0 28 04 31 3d 39 dc 83 bd 37 59 0f 3e 7e 0f 1a be
       0.043216854 -0.064384885 0.13998877 -0.15044972
0002d0 15 29 8d 3d 24 3d cf 3c 12 62 c5 bd e8 d4 85 3d
       0.068926014 0.025297709 -0.09637846 0.06534749
0002e0 fb 6a 38 3c a2 84 c9 3d 39 a6 47 3d fb ea 72 bd
       0.011255975 0.09839751 0.048742507 -0.059306126
0002f0 3c b6 56 bd 00 90 1b bb 21 0b 1d be 02 73 8a bd
       -0.052419886 -0.0023736954 -0.15336277 -0.06760217
000300 44 35 55 bd d8 1f a7 bd 97 97 8b bd 19 2c f7 bd
       -0.05205275 -0.081603706 -0.06816023 -0.12068958
000310 5d b8 23 be 73 c0 31 be c7 a2 0f 3e 60 35 ad bc
       -0.15988298 -0.1735857 0.14026938 -0.021143615
000320 30 b4 1f 3d 80 97 9a 3a ac f0 e6 3d 09 fe 6f bb
       0.0389902 0.0011794418 0.11276373 -0.0036619923
000330 48 f3 9f bc 40 b3 d2 bc fb 7a 0f 3e fb c4 cd bd
       -0.019525185 -0.025720239 0.14011757 -0.10047337
000340 16 6c 9a bc 34 3c 88 bd da fe 53 bd 14 c5 d2 3d
       -0.018850368 -0.06652108 -0.051756717 0.10291496
000350 43 b5 42 3b ea d4 0f bd ce 82 31 be 06 5d 58 bd
       0.0029710091 -0.03511516 -0.17335054 -0.05282309
000360 84 90 23 3d cc 76 1e 3d ff cb 97 3d 81 4e 33 be
       0.039932743 0.038687512 0.07411956 -0.17510416
000370 97 ef 93 3d db e4 83 bd 26 e1 6b bd 5e 75 d9 3d
       0.072234325 -0.06440135 -0.057587765 0.10618089
000380 ca 0c f3 3d 8b db 0b 3e b8 52 eb 3c 92 49 9e bd
       0.11867674 0.13657968 0.028725967 -0.07728876
000390 19 78 15 3e 68 d5 a3 bb 30 c9 a6 3c 6e c1 a2 3d
       0.14596595 -0.0049998052 0.020359606 0.0794705
0003a0 ec 90 36 3d ab 21 2d be fe 1f eb 3d 01 0d 0c 3c
       0.044571802 -0.16907375 0.114807114 0.008548022
0003b0 05 9e 1d 3e a1 0c 23 3e ba 54 cc 3d 3a dc f2 3d
       0.15392311 0.15922786 0.09977098 0.11858411
0003c0 75 cc 01 3e ea e4 14 3e 28 ab 0a be 10 3d 56 bc
       0.1267565 0.14540449 -0.13541853 -0.013076082
0003d0 4e 56 33 be 1d e2 f5 bb ba d8 14 be 29 28 0b be
       -0.17513391 -0.0075037614 -0.145358 -0.13589539
0003e0 35 64 2d 3e 02 34 f4 3d cc 6e c3 bd 98 19 2b bd
       0.16932757 0.11923982 -0.09542617 -0.041772455
0003f0 10 cb 8e bc 3e 19 a4 3d fe 72 db bd 9d a6 15 be
       -0.017430812 0.08012627 -0.107152924 -0.14614339

lstm.bias_ih_l0 f4 [128]
000000 fe 72 a0 bd 1a cd 27 3e 15 06 cb 3b 8a 9a d1 3d
       -0.07834433 0.16386834 0.0061957934 0.10234554
000010 d4 62 32 bd 27 30 2b be b8 c0 53 bd 53 88 1c 3d
       -0.04355128 -0.16717587 -0.051697463 0.038215946
000020 18 5c 95 3c bb 21 d6 3d b7 e1 14 3e fc c8 0c be
       0.01823239 0.10455652 0.14539228 -0.13748544
000030 53 07 1c 3e 63 b8 e6 bd c4 6a 81 3d 3a 89 9e 3d
       0.15237169 -0.11265638 0.06319192 0.07741018
000040 f3 a3 26 bc 3e 85 1d be e6 30 d8 bc ec 72 4a 3c
       -0.0101709245 -0.15382859 -0.026390504 0.012356501
000050 48 cc 06 3e 00 95 30 ba 57 b5 14 be 80 b4 d0 ba
       0.13163865 -0.000673607 -0.145223 -0.0015922934
000060 d9 27 35 be f0 19 1a bc 3c 97 42 3d e8 dc bf 3c
       -0.17690982 -0.009405598 0.04750751 0.023420766
000070 c2 e1 2e bc ec ff 71 3d 30 06 74 bd da ca e7 bd
       -0.010673942 0.059081957 -0.059576213 -0.11317988
000080 b0 26 2c be 2f 36 18 3e 90 56 f3 bc 88 40 e3 3d
       -0.16811633 0.1486442 -0.029704362 0.11096293
000090 4f e3 2a 3e 80 20 6c 3c 2e 12 fe 3d b1 40 2c be
       0.16688274 0.0144120455 0.12405811 -0.16821553
0000a0 74 d9 10 bd e2 0a eb 3d 80 66 91 3d 42 66 41 be
       -0.03536363 0.11476685 0.070996284 -0.18886665
0000b0 c2 0c 81 3d a7 df 23 be 5c e6 35 3d 61 d2 0e 3e
       0.063012615 -0.16003285 0.04440914 0.1394744
0000c0 c2 94 86 bd a4 65 ae 3d 7f b8 2c bb fc 51 19 be
       -0.06571342 0.0851548 -0.0026355085 -0.14972681
0000d0 17 a5 00 3e c0 48 ea 3c 2b 11 10 be 37 c9 2c be
       0.12562977 0.028599143 -0.14069049 -0.16873632
0000e0 dc 9c 21 3d d0 3f 04 be 98 74 8f bd 55 72 95 3c
       0.039456233 -0.12914968 -0.0700466 0.018242994
0000f0 3e 95 b8 3d dc fb 08 bd fd c8 17 3e 5d bd a4 3d
       0.09012841 -0.033443317 0.14822765 0.08043931
000100 b7 fe 1c 3e 5a 77 1b 3e cc e2 b9 bc 0b a9 65 3c
       0.15331541 0.15182248 -0.022691153 0.014017354
000110 12 7e be 3d 00 a0 52 ba 93 b8 f8 bc 85 3d ce bd
       0.0930139 -0.0008034706 -0.03036145 -0.10070328
000120 ec 7e 81 3d 6c 1a 3b bd 40 fd d0 bc dc 88 27 be
       0.063230366 -0.045679495 -0.025511384 -0.16360801
000130 90 c0 96 bd ca f5 8e 3d 6e aa e6 3d e4 30 04 be
       -0.07360947 0.06980474 0.11262976 -0.12909275
000140 1a 1d 0d bd 7c dd 04 3e 59 f4 92 bd ad 81 2d 3e
       -0.03445158 0.12975115 -0.07175512 0.16943999
000150 ca 00 4d bb 24 14 22 bd a7 51 b7 3d c0 83 72 3d
       -0.0031280988 -0.03956999 0.08951121 0.059207678
000160 2c 69 91 bd 19 40 21 be 34 eb 13 3d 12 6f 34 be
       -0.07100138 -0.15747108 0.03611298 -0.17620495
000170 74 3f 02 be 53 58 da bd 3d 16 07 be 90 06 6b 3c
       -0.12719518 -0.10661378 -0.13192077 0.014344826
000180 49 94 9b bd 09 57 af bc 00 d7 95 bd 59 16 e2 3d
       -0.075966425 -0.021403806 -0.073163986 0.11039419
000190 3d e2 0c 3e 16 c3 b9 3c 79 66 f1 3d 89 0c da 3d
       0.13758178 0.022676032 0.11787123 0.10646922
0001a0 a0 a4 7b bc fd db d7 3b 93 1a 34 3e d0 3d 1d 3e
       -0.015359074 0.006587504 0.17588262 0.15355611
0001b0 da ba aa 3d 26 a5 15 be 9c e7 1c be 36 5c ca bd
       0.0833642 -0.1461378 -0.15322727 -0.09880869
0001c0 af c2 31 3c 83 b3 37 be 8a cb 02 3e 86 30 3d be
       0.010849639 -0.17939572 0.12772956 -0.18475541
0001d0 b6 e0 a6 bd 31 31 26 be 24 c1 2d be a4 d3 58 bd
       -0.08148329 -0.16229703 -0.16968209 -0.05293621
0001e0 48 8f 97 3d 61 20 0e be 78 06 d8 bc 6f be 8c bd
       0.074003756 -0.13879539 -0.026370272 -0.0687226
0001f0 ec dd 13 be e5 63 27 3e ea 6f a2 bd 1f e8 28 3e
       -0.14440125 0.163467 -0.07931502 0.16494797

lstm.bias_hh_l0 f4 [128]
000000 e6 8b 0d be ef eb 1d 3d 4a 77 27 3d c1 83 27 3e
       -0.13822898 0.038555082 0.040885247 0.16358854
000010 60 0c 6c bc 9f d8 03 bb c9 9f e9 bd e8 78 c6 bc
       -0.014407247 -0.002011813 -0.1140743 -0.024227574
000020 0b 61 1f be 07 7a 0d 3e d1 d5 ba bd 4e dd 27 bc
       -0.15564363 0.13816081 -0.091228135 -0.010245634
000030 96 3e 9b 3d dd cd 71 3d f8 e8 82 3c ea ee f4 3d
       0.07580297 0.059034217 0.015980229 0.11959632
000040 41 35 c2 bd fd c9 f4 bb 77 93 12 be 54 3c 23 3e
       -0.094828136 -0.007470368 -0.14314066 0.15940982
000050 7c 72 2f be 88 16 8e bc cc 85 c1 bd 3d 9f 17 3e
       -0.17133516 -0.017344728 -0.09449348 0.14806838
000060 d2 2d 0a 3e bc 83 d4 bd b6 e6 1c 3e be c3 34 be
       0.13494042 -0.10376689 0.15322384 -0.17652795
000070 21 42 36 3e 5f 98 07 3e 16 7a d6 3d 27 2d 15 be
       0.17798664 0.13241719 0.10472505 -0.14568006
000080 6e 05 07 be 40 8d 57 3b c2 03 ba 3d ed 30 ff bd
       -0.13185665 0.0032890588 0.09082748 -0.12460504
000090 c2 35 17 be 72 db d8 3d 00 97 16 ba 2a f1 b0 3d
       -0.147666 0.10588731 -0.00057445467 0.086397484
0000a0 ca 83 b9 bd c4 49 e4 bd 4d bc 0c 3e 7e 80 49 3d
       -0.0905834 -0.11146882 0.13743706 0.049194805
0000b0 96 91 ca bd f7 9f b6 bd 99 5b 29 3e b0 cf bb bc
       -0.098910496 -0.089172296 0.16538848 -0.022926182
0000c0 7c 85 01 3d 1c 82 c2 3d fb 8a b1 3d 1f 1d 22 3e
       0.03162144 0.09497473 0.086690865 0.15831421
0000d0 7d e2 20 3e 20 aa 69 bc ef b4 57 3d 3a 63 07 be
       0.15711398 -0.014261752 0.052662786 -0.13221446
0000e0 52 5b 0e 3e 08 f4 e3 3c 94 29 b0 bd 1d 60 bb 3d
       0.13902023 0.027826324 -0.086016804 0.091491915
0000f0 be 66 f5 3d a0 9c 34 be 18 f3 46 3d 6d 33 c2 3d
       0.11982487 -0.17637873 0.048571676 0.09482465
000100 62 62 ab bd ca 96 32 3e f8 21 13 be 8f 84 ce bc
       -0.083683744 0.17440334 -0.14368427 -0.025209693
000110 76 af cb 3d e4 a0 17 bd a7 d7 b1 3d b4 40 14 bd
       0.09945576 -0.03701867 0.086837105 -0.03619452
000120 58 cf ed 3c c2 83 88 bd fc 69 1b 3d b3 17 b5 bd
       0.029029533 -0.06665756 0.03794287 -0.08842411
000130 2a a2 e6 3d a5 a4 19 3e 07 f6 1f be 63 36 07 3e
       0.11261399 0.15004213 -0.15621196 0.1320434
000140 3b 71 85 3c b7 3e b9 ba d8 1b 92 3d f3 c4 11 3e
       0.016289344 -0.001413307 0.07134217 0.14235286
000150 e3 52 bd bd 80 61 12 be 3b 6d 0e 3d 4f 6f 27 3e
       -0.09244325 -0.14295006 0.03477214 0.16351055
000160 e5 47 22 3e b4 ab 41 3d cb f5 03 3e 44 fd 09 3d
       0.15847738 0.04728289 0.12886731 0.0336888
000170 f2 de e1 3d df a6 2f 3e 8a 19 a6 3d 00 7d 3b 3c
       0.110288516 0.171535 0.0811034 0.011443377
000180 b9 81 06 3e 04 c4 a8 3d 79 46 2f be 83 c1 38 be
       0.13135423 0.08240512 -0.17116727 -0.18042569
000190 be 1a ec 3d 1f 34 83 3c 21 a4 90 bd f2 bb 2e be
       0.11528538 0.016016064 -0.07062555 -0.17063883
0001a0 8b f4 2a 3e c7 89 ca 3d 44 9b 18 3d 24 e4 bf bd
       0.16694848 0.0988956 0.037257448 -0.09369686
0001b0 48 cf e7 3c fa d0 b1 3d cc d9 27 3d 42 c9 bf 3d
       0.028297082 0.08682437 0.04097919 0.09364559
0001c0 3b 2f 9d 3c f7 b6 e1 3d 56 e7 ae 3d 85 cc 0f bd
       0.01918756 0.11021226 0.085402176 -0.035107154
0001d0 0e d5 b4 3d db ca ca 3d b3 5c 0a 3e 05 62 90 bd
       0.088296995 0.09901973 0.13511924 -0.07049946
0001e0 c4 cb 52 bd 50 a0 25 3e d8 ce d1 bc 5b c5 e1 bd
       -0.051463857 0.16174436 -0.025611326 -0.11023971
0001f0 73 4b 25 bc ca d6 fd 3d 4a 15 24 be 92 f4 1c bd
       -0.010088789 0.123944834 -0.16023746 -0.038319178

lstm.weight_ih_l1 f4 [128, 32]
000000 70 5a c0 3c db 3c ac bd b3 d5 83 3e 09 c2 90 3d
       0.023480624 -0.08410045 0.25748977 0.07068259
000010 ee 33 7f 3d ea c9 95 3d 34 79 ca bd 53 3e 90 3d
       0.062305383 0.07313903 -0.09886399 0.070431374
000020 cf a6 54 3e 4a aa 2b 3e cb 2a b4 bd 9b de 1a be
       0.20766757 0.16764179 -0.087972246 -0.1512398
000030 70 75 5f bc 31 de 28 3e 4e 1f 90 bd f6 f2 23 bd
       -0.013638839 0.1649101 -0.07037221 -0.040026627
000040 f3 10 9e be 8e c5 a7 3d 3b e6 ae bd f4 42 c7 bd
       -0.30872306 0.081919774 -0.08540007 -0.09729567
000050 0d 14 76 3e 28 ca 84 3d 9e ad 42 3b 04 89 2b 3d
       0.24031086 0.06483871 0.0029705535 0.041878715
000060 63 2d 18 bd 60 10 b6 3e ab f0 0b be b0 e1 1c be
       -0.03715266 0.35559368 -0.13666026 -0.15320468
000070 bf 5e 9b bd 19 23 72 bd 2e 6a 04 be 0c b2 49 3e
       -0.07586431 -0.059115503 -0.1293113 0.19696826
000080 40 36 83 3b 5f 4d 51 3e f6 41 10 3c d5 8b 88 3d
       0.00400427 0.20439671 0.008804789 0.06667296
000090 89 85 0b 3c 76 1e dd bd d7 84 9e bd 00 47 de 3d
       0.008515724 -0.107968256 -0.07740181 0.10853386
0000a0 37 7f b9 bd 09 f8 fe bc 18 a1 e8 bd 1c 09 91 bc
       -0.090574674 -0.031124132 -0.11358851 -0.017704539
0000b0 01 3b 8e bd 2e 40 31 be b7 16 0a 3e 7b ac f3 3d
       -0.06944848 -0.17309639 0.13485228 0.118981324
0000c0 c7 75 7b 3d 8f cd 1c bd 43 83 0d 3e f7 7f 35 3e
       0.061391618 -0.038281973 0.13819604 0.17724596
0000d0 52 de d5 bd d4 28 e5 3d 17 99 79 3d c0 8c 27 3c
       -0.10442795 0.11189428 0.060937013 0.0102264285
0000e0 aa ff 9e 3d a5 6e 3f be 1c 68 dc bd d5 3e 1a be
       0.07763608 -0.18694551 -0.10762045 -0.15063031
0000f0 6f e5 1a bd 94 18 84 3c a9 cf 1d be 4e c6 b6 bc
       -0.03781646 0.016125001 -0.15411247 -0.022311356
000100 40 c5 ed bc 9d c7 29 3e 0c 7e be 3c 70 5d 9b be
       -0.02902472 0.16580053 0.023253463 -0.30344725
000110 c2 9f 8a 3d 3b f4 16 3e 47 4a 21 be dc e5 ac bc
       0.06768753 0.14741604 -0.15750991 -0.0211057
000120 9c 46 97 bd 10 80 ea 3c 5d a8 0b 3e e9 1d f4 bd
       -0.073865145 0.028625518 0.13638444 -0.119197674
000130 41 a8 23 3e 67 30 10 be 19 67 20 be fa 99 b0 bc
       0.15982153 -0.14080964 -0.15664329 -0.021557797
000140 91 cf e0 3b 88 66 b1 bd b6 04 d4 bd 41 87 33 3c
       0.0068606813 -0.086621344 -0.10352461 0.01095754
000150 7b d7 c1 3c 97 85 05 3d 55 6b e5 3d 71 35 e1 bd
       0.02366232 0.032598104 0.112021126 -0.10996521
000160 69 93 33 3d c8 60 72 3e 3b fe 33 3d 08 a4 bc bd
       0.043841753 0.23669732 0.043943625 -0.09210974
000170 ed f4 85 bb a5 1a 5f bd aa e7 15 3e 1d 5c 80 3e
       -0.0040880353 -0.05446877 0.14639154 0.25070277
000180 68 05 e3 3c a4 5d b2 3b bd 75 c9 bd f0 e2 a9 3d
       0.027712539 0.0054432917 -0.0983691 0.08295238
000190 5f be 13 be 47 ab d9 bd 18 ed 41 bc 34 90 69 bd
       -0.1442809 -0.10628372 -0.011836313 -0.05702229
0001a0 f1 d9 1c be a7 f8 35 be c6 87 9a bd 25 d0 b6 3b
       -0.15317513 -0.17770635 -0.07545428 0.005579012
0001b0 ba c4 f5 bd d1 96 84 3d 2b b9 24 3e 8c 7f 32 3e
       -0.12000413 0.064740784 0.16086261 0.17431468
0001c0 17 63 1b bd a0 0f 94 3c 5b a3 4d bd a6 65 53 3e
       -0.037936296 0.018073857 -0.050204616 0.20644245
0001d0 04 38 f7 bc e2 f0 32 be a0 c1 cf bd f2 f5 c4 3d
       -0.030178078 -0.17474702 -0.10144353 0.09617223
0001e0 b7 ba 76 3c 82 27 cd 3e 0d b4 7f 3d aa 16 a2 bc
       0.015059165 0.40069205 0.06242757 -0.019786198
0001f0 87 7a 8d 3d 78 cd 29 bd 79 00 c2 3d f9 17 80 3d
       0.06908136 -0.041455716 0.094727464 0.062545724
000200 a5 5c 2f be 23 0a 4e bd a1 4e 11 be 7e 2c 1a 3e
       -0.17125185 -0.050302636 -0.14190151 0.15056035
000210 57 39 c2 bd 24 ee 11 bd 30 8d f0 bb 35 18 2f be
       -0.09483593 -0.0356275 -0.0073410496 -0.17099078
000220 13 3d db 3d e1 22 29 bc 32 1c c3 bd c8 d1 61 be
       0.10705008 -0.010323257 -0.09526862 -0.22052681
000230 57 10 15 3e a0 50 1e be 00 2b a0 bc 78 33 f7 bc
       0.14557014 -0.15460443 -0.019551754 -0.03017591
000240 9c f2 e2 3c 79 bf dc 3d 2e 8f e6 3c 54 35 3a b9
       0.027703576 0.10778708 0.028144445 -0.00017758209
000250 fb 0b 96 38 81 80 b7 bd be f0 29 be 20 57 e0 bd
       7.154789e-05 -0.08960057 -0.16595742 -0.10954118
000260 be 6c a7 3d e3 0c 37 be 25 91 ed bc 0f a6 ec 3d
       0.08175038 -0.1787601 -0.028999874 0.11555111
000270 15 38 3c 3d 9c 3e ee bd f2 3a c1 bc b9 24 81 bc
       0.04595192 -0.116330355 -0.023587678 -0.015764581
000280 00 c7 54 3b cd 1b 90 bd 3b 53 85 bd c7 72 1b 3e
       0.0032467246 -0.070365526 -0.065100156 0.15180503
000290 05 4e 2a be db b6 b9 3d cd 13 85 bd fd 38 df bd
       -0.16631325 0.0906808 -0.06497917 -0.108995415
0002a0 4e 70 8c bc e8 b3 ed 3d 1a 18 cc bd 86 59 09 3e
       -0.017143395 0.1160658 -0.099655345 0.13413057
0002b0 f6 37 f5 3d de 20 29 be 9a 53 a1 3d 51 9d 78 3d
       0.11973564 -0.16516444 0.07877274 0.060696904
0002c0 cd d8 34 3d e2 1e 46 bd 68 38 a6 bd ec 23 9c bd
       0.04415207 -0.048369296 -0.081162274 -0.07624039
0002d0 32 1c 40 3e 37 02 fc bd 4a f0 d9 3d aa e6 f2 3d
       0.18760756 -0.1230511 0.106415346 0.11860402
0002e0 de 96 d2 bd 70 34 97 3e bb 4d f6 3d e7 4e 80 3c
       -0.10282682 0.29532194 0.12026545 0.015662624
0002f0 eb 71 31 3e aa 4b d8 bd a1 11 30 3e 23 b4 69 3e
       0.17328613 -0.10561307 0.17194225 0.22822623
000300 26 1f bc 3d 30 f7 5d 3e f5 35 c2 bd 40 12 c8 bc
       0.091856286 0.21676326 -0.09482948 -0.024422765
000310 86 b1 20 3e 8f 32 0f be dd f1 36 bd f0 51 03 be
       0.1569272 -0.1398413 -0.044664253 -0.12824225
000320 2a b1 db bd cf d0 32 3e 1e f6 c0 3b 09 e6 10 be
       -0.10727151 0.17462467 0.0058887145 -0.14150251
000330 80 a8 c0 3b 13 7d aa 3b 79 4f 04 3e ea c3 01 3e
       0.0058794618 0.0052028983 0.12920941 0.12672392
000340 7a 41 1f bd 57 51 ae bc 85 7a f8 3d 6b e0 32 3e
       -0.038880803 -0.02127902 0.12132744 0.17468421
000350 c3 93 db bd aa 88 cd 3d 68 df 2d be 9e e3 a0 3d
       -0.10721543 0.10035832 -0.16979754 0.078559145
000360 2c 27 cb 3d 5b 65 3a 3e c1 24 fc bd 0f 05 48 ba
       0.09919581 0.18202727 -0.12311698 -0.00076301483
000370 ae 20 3f 3e aa 23 30 be 99 4b a7 3d 79 7f 97 bd
       0.1866481 -0.17201105 0.08168716 -0.0739736
000380 de 87 79 bd 86 3c e7 bd d5 fb 01 bd 8e ab 83 bd
       -0.06092059 -0.11290841 -0.031734306 -0.06429206
000390 2a c8 f0 bd fa 0b 5f 3c e6 92 9f bd c9 90 cc 3c
       -0.11756928 0.013613695 -0.077916905 0.024971383
0003a0 c4 d7 26 3d c3 7b af bb ae 8d 21 be 30 92 24 be
       0.040733114 -0.0053553297 -0.15776703 -0.16071391
0003b0 84 4e 33 3d 9f e8 15 be 9c 3b 60 bd 23 e7 71 bd
       0.04377605 -0.14639519 -0.054744348 -0.05905832
0003c0 5b c9 a1 3d 58 a8 02 be c2 f1 a2 3d 2e 0d 01 3e
       0.07899734 -0.1275953 0.07956268 0.12602684
0003d0 15 e1 40 3d bb d7 01 3e 17 7e 4c bd 30 15 29 bd
       0.047089655 0.12679951 -0.049924936 -0.04127997
0003e0 f4 7d 50 bc 60 34 ef 3e 69 0e 64 3d 53 b0 aa 3d
       -0.012725342 0.46719646 0.055677805 0.083344124
0003f0 4b 4d c0 bd 3c 46 eb 3d 94 5f 14 be a8 ba 23 3d
       -0.093897425 0.114880055 -0.14489585 0.03997293

lstm.weight_hh_l1 f4 [128, 32]
000000 34 ad 38 be 65 bc 59 3e 2f fd 20 be c1 6d 46 3d
       -0.18034822 0.21263273 -0.15721582 0.048444513
000010 58 18 f3 3d 99 e9 91 bc 15 5a 61 3b ca 18 1c 3e
       0.118698776 -0.017811583 0.0034385968 0.15243831
000020 c7 19 da bd 20 f2 db bc 43 96 2a 3d fd 0a ad 3d
       -0.10649448 -0.026848853 0.041647207 0.084493615
000030 8f c9 c4 bc 6a ec c7 3d b8 f3 bf 3d a1 8f 3c 3e
       -0.024021892 0.09761889 0.093726575 0.18414165
000040 25 61 5c 3d 4a ba b4 bd 5f 12 7f bc 91 fc 58 be
       0.05380358 -0.08824594 -0.015568345 -0.21190096
000050 f8 13 4e 3b fe 17 a3 39 d9 87 06 bc 62 ec 32 3c
       0.0031445008 0.00031107658 -0.0082111 0.010920616
000060 32 b3 24 3d 8c 7d d2 bc 9f e1 db bd 9d e7 05 be
       0.040209956 -0.025694631 -0.10736393 -0.13076635
000070 87 5f 4d 3d c3 ce 49 be a9 c6 16 3e 98 d3 55 be
       0.05013993 -0.1970778 0.1472422 -0.20881498
000080 af 2a 1c 3e f4 9c 2b bd bf a6 ea bd 39 da 69 3e
       0.15250657 -0.04189773 -0.114575855 0.22837152
000090 5d a3 5b 3e 6b da d9 bd 41 bb eb bd a5 66 f3 bd
       0.21449037 -0.10637363 -0.11510325 -0.11884812
0000a0 5e 55 22 3e d3 6f d6 3d 53 21 36 be fb 9f 4d 3e
       0.15852877 0.104705475 -0.1778615 0.20080559
0000b0 b6 2d c2 bc ae 6d e4 3d 1b 5e 8d 3c fa 0a f4 3d
       -0.023703437 0.11153732 0.017256787 0.11916156
0000c0 5b 41 34 3d 3b b8 fa 3d 40 87 4e bd f0 cc d5 3d
       0.04400764 0.122421704 -0.050421953 0.10439479
0000d0 88 5a 30 3e e4 e8 6c 3d 71 67 cb 3d d6 e9 23 3e
       0.17222035 0.05783929 0.09931839 0.1600717
0000e0 6b fe 05 3e 64 75 17 bd 3e 6f c9 bd a2 cc 3f be
       0.13085334 -0.036977187 -0.09835671 -0.18730405
0000f0 67 d7 cc bd 1f fa 0f bd 50 3d 2e be 61 d8 32 bd
       -0.10002022 -0.035150643 -0.17015576 -0.043663386
000100 44 c5 9a bd 0b 91 fa bd 92 19 dc 3d 0a 93 12 3e
       -0.07557157 -0.12234696 0.10747065 0.14313903
000110 ed 68 f2 3d c5 ca 4d 3e 9a f1 9f bd b1 99 d3 3a
       0.11836419 0.20096882 -0.07809754 0.0016143826
000120 3c d3 a4 bc 4c 75 23 3e f8 58 b0 3d d2 a2 79 3e
       -0.020120256 0.15962714 0.086107194 0.24378517
000130 a8 1a 07 3e ed c5 ca 3d 0c ef 38 3e ea a8 dc 3d
       0.13193762 0.099010326 0.18059939 0.10774405
000140 81 78 b3 bd 08 4f 19 be 55 95 29 be ff b6 2e bd
       -0.08763219 -0.14971554 -0.16560872 -0.042654987
000150 c1 ae 08 3e cf 98 75 bd ad 15 25 3e ac c7 09 3e
       0.13347913 -0.059960183 0.1612155 0.13455075
000160 c6 28 42 be f9 ce e7 bc 38 e0 8b 3d d9 49 dd bd
       -0.18960866 -0.028296934 0.06829876 -0.10805101
000170 6a 69 07 bd de f6 31 3c 66 bc 0f 3e c1 5b 0e 3d
       -0.033059515 0.01086208 0.14036712 0.034755472
000180 f7 fe fb 3d ee a0 c9 3c 36 f3 56 bd be ae a2 3d
       0.1230449 0.02461287 -0.052478038 0.07943486
000190 ce c3 7b 3d 71 59 1b be c8 9e 8a bd d2 62 54 be
       0.06146603 -0.15170838 -0.06768566 -0.20740822
0001a0 8c d6 b7 bb 01 67 18 3e ef e0 7f 3d d1 66 21 3e
       -0.005610293 0.14883043 0.062470373 0.15761878
0001b0 40 67 49 bc 09 a1 cd 3d 04 e3 39 3d 3a d0 f3 3d
       -0.012292683 0.10040481 0.045382515 0.119049504
0001c0 55 8b e6 bd b5 10 37 be 1e c7 8d 3c d6 f7 bb 3d
       -0.11257044 -0.17877467 0.01730686 0.0917813
0001d0 a8 aa a3 bd 70 6c 95 3c 27 82 9e bd fc a4 fa bd
       -0.079915345 0.018240184 -0.07739668 -0.122384995
0001e0 10 ce 14 3e b6 a7 b6 3d a3 b1 d0 3d b4 e5 11 be
       0.14531732 0.08918707 0.101901315 -0.14247781
0001f0 a4 d5 5d bc 8c 87 a2 bd 50 b6 9b 3d f3 37 d1 bd
       -0.013539705 -0.0793601 0.07603133 -0.102157496
000200 85 d3 5e 3d ae 13 d2 bd c5 98 65 3e 25 f4 e4 bd
       0.05440094 -0.1025766 0.22421558 -0.111793794
000210 2d c2 a6 3d 8f ee 9e bd 4d 3b 41 3e 58 f9 05 bd
       0.08142505 -0.07760345 0.18870278 -0.032708496
000220 67 41 ac 3d 26 8e 0f be e7 48 f5 3d 5b 50 3f bd
       0.08410912 -0.14019069 0.11976796 -0.046707492
000230 98 5a 1a 3e 51 c3 a7 3d a5 d5 0c bb 0f 12 18 3e
       0.15073621 0.081915505 -0.0021489647 0.14850639
000240 d9 74 b7 bb fe df 91 bd d2 90 d5 3d d8 70 66 3d
       -0.005598646 -0.07122801 0.10428013 0.05625996
000250 20 3b 8e 3c 20 3e 40 be fe 1b 2f be 48 24 86 bd
       0.017362177 -0.18773699 -0.17100522 -0.06549889
000260 86 d2 00 bc f0 12 3e 3e 1b ad 01 3d 98 b7 93 3b
       -0.007862693 0.18561912 0.031659227 0.00450797
000270 2a f9 ff bd 28 cf 87 bd 3f 36 17 3c d5 7b 50 3d
       -0.12498696 -0.06631309 0.009229242 0.050899345
000280 9c 67 33 be 2f c5 3d 3b 94 cd 46 bd cd 66 2c bd
       -0.17519993 0.0028956642 -0.0485359 -0.042090226
000290 bd 41 33 3c d5 1a 9e bd 4a c3 20 3e e0 14 13 be
       0.010940966 -0.077199616 0.15699497 -0.14363432
0002a0 ca 84 e3 bd c8 74 ae bd 62 14 4a bd 7e 97 85 3c
       -0.11109312 -0.08518368 -0.049335845 0.016307589
0002b0 36 8e 51 be 4e 7b 14 be 30 62 32 3e 53 70 44 bd
       -0.20464405 -0.14500162 0.17420268 -0.047958683
0002c0 82 02 06 be cd 5d c4 3c fe 12 ac 3d 1a 27 8e bd
       -0.13086894 0.023970509 0.0840206 -0.06941052
0002d0 e5 52 c9 3d b4 46 ce 3c ea df fe bd b5 d1 60 3d
       0.09830264 0.025180198 -0.12445052 0.054887492
0002e0 1b 7d ce bd 42 09 a8 3d d2 64 d6 3d 0b fa 10 3e
       -0.10082456 0.08204891 0.10468449 0.14157884
0002f0 25 e7 88 3d 85 89 ea 3c 81 7b 99 bd 5a 07 a6 bc
       0.06684712 0.028630028 -0.074942596 -0.020267177
000300 b6 4b 1b 3e 14 b5 34 3e fc 15 89 3d b9 03 87 3d
       0.151656 0.17647201 0.06693646 0.06592507
000310 33 58 51 3d 3d 24 a8 3d b1 95 a5 3d b9 b9 37 3e
       0.051109504 0.08210037 0.08085192 0.17941941
000320 13 74 32 3d 1c 30 82 3d b9 2f f5 bc bf c3 1d 3e
       0.04356773 0.063568324 -0.029929982 0.15406702
000330 a5 1a d8 3c bb 4c ff 3c b3 c0 cd 3c 03 31 85 bb
       0.026379893 0.031164518 0.0251163 -0.0040646805
000340 1e 43 85 3d ce 84 80 3d de e3 3a be de 9f 39 be
       0.06506942 0.062753305 -0.18250987 -0.1812739
000350 5f a0 3c 3e 71 a2 b5 bd 03 3d e9 bd 6f ac 32 be
       0.18420552 -0.08868874 -0.1138859 -0.1744859
000360 49 c1 0b be 7c 20 fc 3b af 06 2b bd b9 1d 1d be
       -0.13647951 0.007694302 -0.04175442 -0.1534337
000370 ce e6 ae bd 4f 3b 6a be 12 71 c0 3c 1a 6a 5f 3e
       -0.08540116 -0.22874187 0.023491416 0.21817818
000380 b8 25 52 3d 91 4d 2f be e8 ec fd 3d b8 b7 d9 3b
       0.051305503 -0.17119433 0.12398702 0.0066442154
000390 70 db eb bd 64 07 06 be 2c 04 2d 3e cb 97 4d be
       -0.11516464 -0.13088757 0.16896123 -0.20077436
0003a0 1d 41 15 bd a8 f1 93 3b 43 49 2c be 25 ea e0 bd
       -0.03643905 0.0045148917 -0.16824822 -0.109821595
0003b0 26 2d 2f 3e 84 67 35 bd 65 91 24 b8 42 05 d6 bd
       0.17107067 -0.044288173 -3.9236056e-05 -0.104502216
0003c0 70 a6 e9 3d 55 49 23 3e 39 de d1 3d 53 6c e6 bd
       0.114086986 0.15945943 0.10247464 -0.1125113
0003d0 00 74 33 bc db 54 38 3c 62 30 c4 3b 0e 70 8e 3c
       -0.0109529495 0.0112507 0.005987213 0.017387416
0003e0 93 53 4d be 8d 59 0e 3e a9 72 ba 3d 4d 70 32 be
       -0.20051412 0.13901348 0.09103901 -0.17425652
0003f0 b9 67 42 3d ef bc 9c ba fa b3 33 bd 3a 78 b3 3d
       0.0474622 -0.0011958162 -0.04387281 0.08763166

lstm.bias_ih_l1 f4 [128]
000000 27 ec a9 bd 6f 83 55 3e a4 dd 1d 3e 84 9b ec 3d
       -0.082969956 0.20850919 0.1541658 0.115531
000010 c8 89 9c bd 00 24 08 3e a3 91 78 3d be 5f d6 3d
       -0.07643467 0.13294983 0.060685765 0.1046748
000020 3c 66 40 3e ce 75 17 be 88 01 0f 3e 50 1b 0a 3e
       0.18789 -0.14791033 0.13965428 0.13486981
000030 5f bc d9 3d bd ba ea 3d 85 e2 5e bd 82 10 47 3e
       0.10631632 0.11461399 -0.054415245 0.19439891
000040 05 84 33 3e ac eb 44 3e 0f c6 c3 bd 5c 49 54 3d
       0.1753083 0.19230527 -0.09559261 0.051827773
000050 c2 10 10 be 38 cc fe 3d 2c b3 4e 3e 9f 55 df 3d
       -0.14068893 0.124412954 0.20185536 0.10905003
000060 a3 d5 1b 3e 62 b1 f5 bd 45 80 2d 3e c6 e2 24 3e
       0.15218215 -0.11996724 0.16943462 0.16102132
000070 d1 d0 0c 3e a8 a6 cc bd 3a ea ff 3d 64 cd 20 3e
       0.13751532 -0.09992725 0.12495847 0.1570335
000080 26 07 47 3e f1 7b ef 3d 6d 3f 90 3d bc d5 fb bd
       0.1943632 0.11693562 0.070433475 -0.12296626
000090 cd bd 07 3e 8b 61 08 3d 78 b5 1e bd 22 62 9a bd
       0.13255997 0.03329615 -0.03874728 -0.075382486
0000a0 b3 52 0c be 10 d6 71 3d 5a 7b 55 3e f5 84 96 3d
       -0.13703422 0.059042037 0.20847836 0.07349578
0000b0 c1 88 32 3e da a5 d9 3c 75 55 3a 3e 5e ec 52 3e
       0.1743498 0.026568342 0.18196662 0.2059798
0000c0 6d 25 8d 3d fb ac 30 3e 5e ef 19 3e 9d bc 46 3d
       0.06891904 0.17253487 0.15032718 0.04851972
0000d0 fd 7a 45 bc 99 95 5e 3e 77 7d b1 3d b2 fc 0e bd
       -0.0120532485 0.21736754 0.08666509 -0.034908958
0000e0 03 84 6e bd 37 4a 28 3d b9 b4 08 be 38 7a 8c bd
       -0.058231365 0.0410864 -0.1335019 -0.06859249
0000f0 e3 f1 16 be df 66 91 3d 13 7f d7 3d e1 03 1b 3e
       -0.1474071 0.07099699 0.10522284 0.15138198
000100 23 44 18 bd 81 32 13 3d f7 d6 24 3a 1b 21 25 3e
       -0.037174355 0.035936836 0.0006288136 0.1612591
000110 6a c2 10 3e d7 6c 02 3e 58 79 4b 3c e7 e2 17 be
       0.14136663 0.12736832 0.012419067 -0.1483265
000120 29 bb 70 3d 81 57 b4 bd 53 fc f6 bd 44 8e d1 bc
       0.05877224 -0.088057525 -0.12059846 -0.025580533
000130 e6 ee 1b 3b 00 1c 59 bd ed 6b 8c bd a1 3b 16 3e
       0.0023793518 -0.05300522 -0.06856523 0.14671184
000140 ef b1 68 bd 81 13 17 3e f6 7b b9 bd ba b7 0f be
       -0.056810316 0.14753534 -0.09056847 -0.1403493
000150 55 1f e9 bc 3b 6e 5a bd c1 ba 07 be 6e ac 71 3d
       -0.028457323 -0.05332778 -0.13254835 0.059002332
000160 bf 55 7b bd 09 5f 34 3d 45 79 dd bd 41 ea de bc
       -0.06136107 0.044035945 -0.10814146 -0.02721131
000170 fc 12 bd bd d1 50 82 bd c1 1f c5 3d a5 b9 64 bd
       -0.092321366 -0.06363071 0.09625197 -0.055841107
000180 39 4a d8 3d 52 b1 61 bd d1 dd 80 bd cb 1a 1b bd
       0.10561032 -0.055100746 -0.06292308 -0.03786735
000190 59 57 0c 3e 3c 9b 46 3e 9d ac 3f 3e 79 ef 4a 3e
       0.13705195 0.19395155 0.1871819 0.19817914
0001a0 2e a6 9e bc 77 b5 20 3e 6a 31 ad bc a8 bc a6 3d
       -0.01936635 0.15694223 -0.021141727 0.08141452
0001b0 f0 31 5b 3e 26 39 d2 bb 5c cb 08 3d 37 1e 1f be
       0.21405768 -0.006415504 0.033397064 -0.1553887
0001c0 1f eb 3d 3e 3a ae 89 bd a9 fe 03 3e e9 a9 18 bc
       0.18546723 -0.06722684 0.12890114 -0.0093178535
0001d0 f2 97 66 bb 0c e9 07 3e c4 bd 5a 3d 5c 5b f8 bd
       -0.0035185781 0.13272494 0.05340363 -0.121268004
0001e0 8a fa e5 3d 3e af 2b 3e a0 3e f0 3d 43 d3 97 3d
       0.11229427 0.16766068 0.11730695 0.07413342
0001f0 c8 c3 06 3e c8 19 e6 bd 69 3a 47 bd 78 8d 04 3d
       0.13160622 -0.11235386 -0.04863969 0.032361478

lstm.bias_hh_l1 f4 [128]
000000 1f 7a bb 3d 9b b6 29 3e a0 36 e7 3d a9 90 0e 3e
       0.09154152 0.16573565 0.11289716 0.13922371
000010 18 59 7b 3d 56 50 e7 3d 65 d6 d6 bd 61 9e 93 bd
       0.061364263 0.1129462 -0.10490111 -0.07207943
000020 9d 4e 31 bd de 80 3c 3e c5 d7 e6 3d 2e 1b f5 bd
       -0.043287862 0.18408534 0.112716235 -0.11968075
000030 9b 2c e0 3d af c3 a0 bc 9f ed f8 3d 7c 2b e0 bd
       0.10946008 -0.01962456 0.121546976 -0.10945794
000040 74 fe ab bd 92 ea 64 3e 63 64 8f bd 34 56 33 3d
       -0.083981425 0.22355106 -0.07001569 0.04378338
000050 8a 8b 2f 3d eb 2d e8 3d 76 e7 3b 3e 43 7b d9 3c
       0.042857684 0.11336883 0.18350014 0.026548034
000060 b7 12 67 3e 15 7d 42 3e 34 f3 c1 bd 99 f9 1f 3e
       0.22565733 0.18993028 -0.094702154 0.15622558
000070 7d a0 1d be 1b 33 58 3e 72 34 d0 3d e8 fc a5 3c
       -0.15393253 0.21113245 0.10166253 0.020262197
000080 f7 bf 2b 3d 0d b7 d9 bc 59 f8 bc bd 93 12 ff 3c
       0.04193112 -0.026576543 -0.09227056 0.031136787
000090 8c 9a 08 bd c1 9c 28 3e 71 dd 06 be f8 4d 00 3e
       -0.033350512 0.16466047 -0.1317041 0.12529743
0000a0 1a 6b 7d bd 10 c7 7c 3c c3 12 95 bd 36 08 ab bc
       -0.061869718 0.01542832 -0.07278969 -0.020877939
0000b0 68 7c 9e 3d 4c 85 a8 3d 5d 8d 26 bd 36 fb 1d 3e
       0.07738572 0.08228549 -0.04066216 0.1542786
0000c0 b3 86 62 3d 74 46 89 bd bb 94 9e bc 87 13 07 3e
       0.05530424 -0.06702891 -0.01935803 0.13191043
0000d0 48 b8 cf 3b bb 7a 61 3e f7 6d 18 3e 78 e7 aa bd
       0.0063391067 0.22019474 0.14885698 -0.083449304
0000e0 e0 6b 9f 3d 43 79 e7 bb d9 a2 77 bd 63 e9 67 3d
       0.077842474 -0.007064016 -0.060458038 0.05661906
0000f0 8d 89 3d 3d 43 3a df 3d de c2 fc 3c cb f9 96 bd
       0.046273757 0.108997844 0.030854639 -0.07371863
000100 9d cb df bc 58 5d a6 3d 4e 0b cc 3d 09 0a dc 3d
       -0.02731877 0.08123273 0.09963094 0.107441016
000110 e1 e5 42 3d 5b d4 b9 3d 72 e0 e2 3d 9f ca 68 3b
       0.04758251 0.09073707 0.11077966 0.0035521162
000120 27 ec eb bc c2 87 23 bd 27 4b 0f be 51 4d 56 3d
       -0.02879913 -0.03992439 -0.13993512 0.05231983
000130 1d db a6 3d d4 24 f3 3d 38 3b 07 3e 69 07 65 bd
       0.08147261 0.11872259 0.13206184 -0.05591527
000140 f3 1b 09 bd 18 1f a9 bc 9b fb 12 3e c7 cf e2 bd
       -0.03347392 -0.02064471 0.14353792 -0.11074787
000150 21 92 b8 3d 85 54 e1 bd 4b 34 c4 3d be 95 ea bd
       0.09012247 -0.11002449 0.095802866 -0.11454342
000160 74 b6 5a bb ad 32 1d 3e e1 d4 de bd d5 66 d8 3d
       -0.003337291 0.15351363 -0.10880447 0.10566489
000170 95 a9 f1 3d 24 18 fe bd a9 a1 11 bc 92 b1 82 3d
       0.11799923 -0.12406948 -0.00888864 0.06381525
000180 44 41 a6 bd 3c b4 62 bd 44 12 54 bd 23 a7 08 bd
       -0.08117917 -0.055347666 -0.051775232 -0.03336252
000190 86 4d ee bd b7 e9 c1 bd 1f d1 1a be be d2 8b bd
       -0.1163588 -0.09468406 -0.15118836 -0.06827305
0001a0 88 f6 74 3b 33 d0 20 3e 69 5e 8e 3d 0b 52 36 bd
       0.003737839 0.15704422 0.06951601 -0.044511836
0001b0 5e 97 8d 3d e1 87 f0 3c 15 a1 67 3e 83 62 c6 bd
       0.069136366 0.029361667 0.22620042 -0.09686758
0001c0 8a d3 17 3d bc 1a 1a 3e ff 86 83 3c d2 6c bc 3c
       0.037066974 0.15049261 0.016055582 0.023001108
0001d0 e0 e3 41 3d 32 65 31 3d 7c b3 92 3d b6 b5 d3 ba
       0.04733646 0.043309398 0.0716314 -0.0016152177
0001e0 0f 14 d2 3d ea 95 62 3d 26 8d 57 bd ec 53 b3 bd
       0.10257732 0.05531875 -0.052624844 -0.08756241
0001f0 53 b0 09 be bd 2b 13 3e 47 43 2b 3d 5f 86 97 bd
       -0.13446169 0.14372154 0.041812208 -0.07398676

lstm.weight_ih_l2 f4 [128, 32]
000000 13 a2 c1 3d 1b 21 d3 3d c1 d6 97 3d 09 42 21 3e
       0.09454741 0.10309049 0.07414008 0.15747847
000010 e9 cf ff 3d 22 23 2b 3e 95 b8 fc 3c 00 2e ed 3d
       0.124908276 0.16712621 0.030849734 0.115810394
000020 9c 9c 46 bc d9 d4 28 3d 6b 54 c9 3d f0 e6 1a 3e
       -0.0121222995 0.041218612 0.098305546 0.15127158
000030 2b ec eb 3d ca 91 14 3d 4e 02 15 3e 0b e3 6d bd
       0.11519655 0.036271848 0.1455166 -0.058077853
000040 f8 b6 1d 3e 08 d3 27 be 2a 93 1a be 26 aa a9 bd
       0.15401828 -0.16389096 -0.15095201 -0.08284406
000050 b7 a8 ee 3c 32 5d 78 3d e6 26 dc 3d d1 10 1a be
       0.029133184 0.060635753 0.10749607 -0.15045477
000060 9b 7a 99 3d 40 b4 ec 3c c2 5d 93 bd bf ff 2a be
       0.07494088 0.028894544 -0.07195617 -0.16699122
000070 58 1a e2 3d cb e0 72 bc 13 cd e2 bd 7e 08 da bd
       0.11040181 -0.014824103 -0.11074271 -0.10646151
000080 ed 76 5c be 3e eb 9c 3d d4 93 aa 3d 1a 1f f7 3d
       -0.21529742 0.076620564 0.08328977 0.12066479
000090 b6 8a 94 3b e6 ee 31 be 60 2f 55 bd dc 91 84 3d
       0.004533137 -0.17376289 -0.052047133 0.06473133
0000a0 27 c8 11 be 3d f4 aa 3c 25 e3 c7 3d 6c 4b 90 3d
       -0.14236508 0.020868415 0.09760121 0.070456356
0000b0 61 bd 1f 3d 72 7f 9a 3d b3 f1 57 3c fd fb fc bd
       0.038998965 0.075438395 0.013180184 -0.123527505
0000c0 0b 85 6a 3e 3d 40 cc 3d 6e 7f 64 3d 27 f3 25 3d
       0.22902314 0.0997319 0.05578559 0.04051509
0000d0 1b 7a 2c 3e 88 46 28 3e e8 94 03 3e 89 2e d9 3d
       0.16843455 0.16433156 0.12849772 0.10604579
0000e0 93 8a fb 3d d4 ea fa 3d 52 d9 0b be 1a 25 0c 3e
       0.1228229 0.12251821 -0.1365712 0.13686028
0000f0 af d5 03 3d dd df b8 bd 5f ab e5 3d e3 6a 02 be
       0.032186206 -0.090270735 0.11214327 -0.12736087
000100 fc de b7 3d 85 83 b9 39 7a a5 29 3e 43 8b e0 bb
       0.08978078 0.0003538394 0.1656703 -0.006852539
000110 f4 0c 37 3c e3 86 f2 3d 2d fa 3b 3e 64 d5 86 3d
       0.011172522 0.11842134 0.18357153 0.0658367
000120 27 b9 3f be cb 91 0a 3e 69 cd 1a 3c 74 41 dc bd
       -0.18722974 0.13532178 0.009448388 -0.10754672
000130 78 4b 41 3d 1e f2 9f bd 01 fc 1d 3d a1 e2 c8 3d
       0.047191113 -0.07809852 0.038570408 0.09808851
000140 bb 60 3a 3d e0 1f b0 3d bd 62 18 be 51 2b cd bd
       0.045502406 0.0859983 -0.14881416 -0.100180276
000150 c3 20 03 be 25 a6 e4 bd 4b 71 15 3e 07 d6 68 3d
       -0.12805466 -0.11164502 0.14593999 0.056844737
000160 d1 30 99 3d 01 9a 35 3e 69 20 b9 3d e9 bc 42 bd
       0.07480014 0.17734529 0.09039385 -0.04754344
000170 9e 7d 1a 3d 45 d2 90 3d 23 ef 6a bd 6c a5 ea bd
       0.037717454 0.07071356 -0.057356965 -0.11457333
000180 10 fd b5 3c 18 7a 8c 3c 42 e2 41 bd 05 44 85 3d
       0.022215396 0.017148063 -0.047334917 0.06507114
000190 b8 c3 91 3b d1 6f 97 3d 6c d0 4a 3e 01 67 2f 3d
       0.0044483803 0.07394374 0.19806069 0.04282284
0001a0 bb d7 f2 bd b9 61 05 bd 47 ef 83 3d 0e f3 1f 3b
       -0.118575536 -0.0325639 0.06442123 0.0024406346
0001b0 55 a9 35 3e 16 80 10 3d cc b3 0e 3d a4 fc 0c be
       0.17740376 0.035278402 0.034839436 -0.1376825
0001c0 37 eb 09 be d4 12 82 bd 29 9d ed bd 85 94 14 be
       -0.13468634 -0.063512474 -0.116022415 -0.1450978
0001d0 12 20 e5 3d 5c c0 df 3b a5 39 17 bd 69 5c 05 3d
       0.111877576 0.006828351 -0.03692021 0.032558832
0001e0 ae e2 52 3c 92 3c 2f 3e 34 a5 48 be da d1 0c be
       0.012871427 0.1711295 -0.1959427 -0.13751927
0001f0 e4 9b 13 be 21 02 af 3d ab 9d 7d bb 19 cf 1c bd
       -0.14414936 0.08545328 -0.0038698714 -0.03828344
000200 1b 25 08 3e 66 1b 96 3c 6a d7 3b 3e 7a 5e a9 3d
       0.13295405 0.018323611 0.18343893 0.08269973
000210 9c d5 2f 3e 5b c2 27 be 71 52 2a 3d b9 47 4b 3d
       0.1717133 -0.16382734 0.04158253 0.049628947
000220 27 9b a6 3d 27 66 03 bc 43 17 09 3d 1d 86 20 3e
       0.08135062 -0.0080199605 0.03346945 0.1567616
000230 0e cb ba bd f6 58 1e bd 7a 7c 1c be e2 59 50 3d
       -0.09120761 -0.03865906 -0.15281859 0.05086697
000240 9e c2 1b be 33 27 65 bd d2 01 51 bd 58 a3 09 be
       -0.1521096 -0.055945586 -0.051027127 -0.13441217
000250 09 2e d6 bc 70 f3 22 3e c2 c2 73 be bc 3c bf 3d
       -0.026144998 0.15913177 -0.23804763 0.09337756
000260 04 16 f9 bc 17 b4 0a be 1f 46 d3 3c 90 aa 9e 3d
       -0.030406006 -0.13545261 0.025790272 0.07747376
000270 e0 2c 68 bc b7 61 1d 3d bd 3b 00 be 22 61 9b bd
       -0.014170855 0.038423266 -0.12522788 -0.07586886
000280 c4 10 c0 bc 76 64 44 bc 6e 81 d7 3d 29 96 ee bd
       -0.023445494 -0.011986842 0.10522734 -0.116497345
000290 85 42 4a bd ab 10 2c be 0b d1 75 3c 45 27 4e 3e
       -0.049379844 -0.16803233 0.015003453 0.20132168
0002a0 ef 5e 86 bd 7b 0e 9c bd b5 50 dc 3d 75 d3 31 be
       -0.06561076 -0.076199494 0.10757581 -0.1736582
0002b0 09 4f 63 bc 7e 3a c9 3c c4 0f 33 3e 7d 61 c5 3d
       -0.013873824 0.024564024 0.17486483 0.09637735
0002c0 02 cf 17 be 97 fb cf bd cb 74 7b 3d 4f 64 e9 bd
       -0.14825061 -0.10155409 0.06139068 -0.113960855
0002d0 6b 3c e6 3d f5 6a c1 3d f5 cc 9d bd 28 70 64 bd
       0.112419926 0.094442286 -0.07705108 -0.055771023
0002e0 0d 9b ca bd df c6 0a be 27 0b ad 3c e0 82 91 bd
       -0.09892855 -0.13552426 0.021123482 -0.071050406
0002f0 84 4b 3f bc 6b a1 da bd d9 4c ad bd fa c5 18 3e
       -0.011675719 -0.10675319 -0.08461923 0.14919272
000300 a8 b4 a4 3d 69 3f ff bd 8c e3 24 3d 96 2e 08 3d
       0.0804227 -0.124632664 0.040256068 0.033247553
000310 6e f3 a8 bc 1c db 95 bd 13 46 23 bc 99 22 21 3e
       -0.020623889 -0.073171824 -0.009965437 0.15735854
000320 8e 20 13 be 41 d8 82 bc f4 e2 1a bd 7d b7 a7 3d
       -0.14367887 -0.015972259 -0.037814096 0.081892945
000330 90 f4 a9 3d df ad d2 3d f1 f4 41 3e 3c db 1a 3e
       0.082986 0.102870695 0.18941094 0.15122694
000340 53 ec b3 3d df 82 03 be c9 c5 a8 3d ef 1f 96 3d
       0.0878531 -0.12842892 0.082408495 0.073303096
000350 7d b6 01 bc 8f 8d e1 bd d0 e2 b4 bd af 86 23 3e
       -0.007917044 -0.11013328 -0.088323236 0.15969346
000360 10 e5 5c bd 73 f7 3b 3d 9d 06 82 bd 2c 8c 77 bd
       -0.05392939 0.045890283 -0.06348918 -0.060436413
000370 0b 37 b5 bd 20 b8 5e bd 67 cd 0f be 5f 69 fc bd
       -0.08848389 -0.054374814 -0.14043199 -0.123247854
000380 a0 24 76 bd 13 45 91 bc 11 e7 41 3e 01 d0 73 3d
       -0.060093522 -0.017733132 0.18935801 0.05952454
000390 e8 dc 76 3d 2b 46 54 bd 28 5c 1f be 87 db 2a bc
       0.060269266 -0.05182473 -0.15562499 -0.010428316
0003a0 ae 1c 69 bc a9 1d d5 3d 44 35 46 bc 01 8f e6 bd
       -0.014228029 0.10406048 -0.01209766 -0.112577446
0003b0 ff 18 47 bd 8c 06 d1 3d 0e 39 8b bc d0 ee 80 3d
       -0.048607823 0.10206327 -0.01699498 0.0629555
0003c0 b3 83 8b 3d f1 ab a5 bd d2 a5 fa bc 1f cf 62 be
       0.06812229 -0.08089436 -0.030596647 -0.22149323
0003d0 ab e7 35 3e dd fa 19 bd 49 79 1b 3e ce 68 47 3d
       0.17764156 -0.037592757 0.15182985 0.048683934
0003e0 3c 87 aa bd 4f f5 13 be 38 84 27 3e 96 88 30 be
       -0.08326575 -0.14449047 0.16359031 -0.17239603
0003f0 46 ec 1f bd 37 14 76 ba f3 e7 b3 bd 26 f1 ae 3d
       -0.039043687 -0.00093871675 -0.08784475 0.08542089
