2023-09-05_16-20-57_checkpoint.pth (torch, 428187 bytes, 39 tensors)

lstm.weight_ih_l0 f4 [128, 309]
000000 70 51 ea bd b8 fc 2b 3e 84 83 de 3c 98 dc 8b bd
       -0.11441314 0.16795623 0.02716232 -0.06829184
000010 6d 91 21 3d 08 55 0a 3d 88 86 0e 3e 96 1e 2c 3e
       0.03944533 0.0337725 0.13918507 0.16808543
000020 cc 3f af 3d 7c 7e de 3d 72 d6 5c 3d e1 f8 05 be
       0.0855709 0.10863969 0.05391545 -0.13083221
000030 a3 6e f3 bd 68 c9 af bd e6 b0 22 3d ee 32 11 3e
       -0.11886337 -0.08583337 0.039719485 0.14179584
000040 ec e5 9a 3d 50 89 a2 3d 05 ff 1f bd 76 48 0f be
       0.07563385 0.079363465 -0.039061565 -0.13992485
000050 ad 63 ef 3d e2 6a ad bd cb 5a 1b be e1 37 33 bd
       0.116889335 -0.08467652 -0.15171354 -0.043754462
000060 06 3f 74 3d f5 fa d6 bc f0 19 03 3e b7 46 f1 3d
       0.059630416 -0.026242713 0.12802863 0.11781066
000070 56 48 c3 bc 51 23 13 3d 63 a9 e6 3c 50 06 c9 ba
       -0.023838203 0.035922352 0.028156942 -0.0015336964
000080 09 d3 ad bc b6 f2 90 bd eb b5 4f 3d db 5c ce bc
       -0.021218793 -0.070775434 0.0507106 -0.025190761
000090 13 a4 0e be 8f 6f 98 3d ae ad 3f 3d 72 74 30 3e
       -0.13929777 0.07443153 0.046796493 0.1723192
0000a0 a2 e3 02 be 60 a4 75 bc 8d ab 8b bd fe 96 c9 bd
       -0.12782148 -0.014992803 -0.0681983 -0.098432526
0000b0 55 30 5f bd b0 b2 bf 3c 86 87 07 be b6 fa 2a 3e
       -0.054489452 0.023400635 -0.13235292 0.16697201
0000c0 87 48 86 3c d0 96 30 3e 77 8f 22 3e 88 c8 cd 3c
       0.016392006 0.1724503 0.1587504 0.025120035
0000d0 04 86 32 3e c1 f9 ef 3c b7 8d 2a 3e ba 3c ac bd
       0.17433935 0.029293897 0.16655622 -0.0841002
0000e0 c2 10 15 be f8 1f af 3d 61 9d d8 bb 4c f8 fe bd
       -0.14557174 0.085510194 -0.006610558 -0.124497026
0000f0 25 e6 87 bb 8d 4c 82 bd 63 d1 c1 3d d1 c3 92 3d
       -0.0041473084 -0.06362257 0.094637655 0.07166255
000100 72 66 49 bd a1 21 1f be cf 7a dd 3d 6b d7 d3 3d
       -0.049169965 -0.15540172 0.108144395 0.10343822
000110 8d 04 99 3d 59 20 89 bd c9 aa 55 bd 8a 3d 63 3d
       0.07471571 -0.06695623 -0.052164827 0.05547861
000120 53 4b 08 3e df 5a 1f be 43 63 13 be db 0b 51 3d
       0.13309984 -0.15562008 -0.14393334 0.051036697
000130 ac 16 a9 bd 92 18 31 be ef 44 40 bd 8f 9e 9d bd
       -0.082562774 -0.17294529 -0.04694074 -0.07696258
000140 10 d6 99 3d 5f 7c b4 bc 19 ee f7 bd 45 5d ed 3d
       0.07511532 -0.022031961 -0.121059604 0.115900554
000150 67 ba 3c bd e5 f2 b5 bb 85 8e 29 be 6e 74 47 bb
       -0.046076205 -0.005552637 -0.16558273 -0.0030434388
000160 d7 4e 26 3e aa 45 f4 3d 25 a0 d5 bd 49 f9 f0 bd
       0.16241013 0.1192735 -0.10430936 -0.11766297
000170 06 96 08 be 5f 02 bc bd c8 a9 26 be f6 0e 67 bc
       -0.1333848 -0.0918014 -0.16275704 -0.014102688
000180 7b 2a 29 3e b1 66 3f bd 7a 20 55 bd 63 75 3c bb
       0.16520111 -0.046728794 -0.052032925 -0.0028756491
000190 41 c4 99 3d 03 2c 27 be 3b 8c a9 bd f6 f2 fa 3d
       0.075081356 -0.16325383 -0.082787 0.12253372
0001a0 ee 4d a9 bd d7 0a 94 bd 7c d2 ed bc 3b d4 8f 3c
       -0.08266817 -0.0722863 -0.02903103 0.017557254
0001b0 db a7 a6 bc ae 42 4d bd 29 d1 04 bc 71 0e b9 bc
       -0.020343712 -0.05011242 -0.008106508 -0.022589894
0001c0 03 50 71 bd 63 58 22 3e 41 4a 0f 3e f3 e0 cc 3d
       -0.058914196 0.1585403 0.1399317 0.10003843
0001d0 86 58 eb 3d 49 ca 95 3c 45 b5 5d bd d9 83 20 3e
       0.11491494 0.018284934 -0.05412795 0.15675296
0001e0 46 48 2b be 18 d6 f5 3d c2 30 ed bd 43 0b cd 3d
       -0.16726789 0.12003726 -0.115815654 0.100119136
0001f0 e6 1e b6 3c c5 25 9c 3d 74 d6 25 3e ed 84 48 3d
       0.02223153 0.076243915 0.16195089 0.048954893
000200 7e 75 bb 3c ae ad 9a 3c 4c f5 17 be 2f e2 b7 3d
       0.022883173 0.018881645 -0.14839667 0.08978688
000210 ce 4c 14 be eb 86 63 bd 16 96 8f 3d 6c 0f 11 3d
       -0.14482424 -0.05554859 0.070110485 0.035415098
000220 75 1a 85 3d e9 65 d5 3d f9 e1 3c be 54 d7 3a 3d
       0.06499187 0.104198284 -0.18445577 0.04561551
000230 77 71 a1 3d 7e b7 c9 bd 18 02 fc 3d 62 3c d9 bd
       0.0788297 -0.098494515 0.12305087 -0.1060722
000240 52 51 da 3d 47 a7 2f be 14 58 df 3d 50 c7 f0 bc
       0.10660042 -0.17153655 0.109054714 -0.029391915
000250 4e f2 07 3e d1 ff 82 3d 79 da 0e 3e 2d db 68 bd
       0.13276026 0.06396449 0.13950528 -0.056849647
000260 31 75 6a bd 28 4d d1 bd 00 73 0f 3e c7 19 af 3d
       -0.05724067 -0.102197945 0.14008713 0.085498385
000270 7a 49 1d be 29 ba a0 bc 10 18 0a 3c d4 fa 1c be
       -0.1536006 -0.019620018 0.0084285885 -0.15330058
000280 bf 67 22 be 95 95 26 be 91 79 1b be 70 cd c0 bc
       -0.15859888 -0.16267999 -0.15183093 -0.02353546
000290 c8 5a c9 bd a8 73 12 be da f6 86 3d 7a 90 87 bd
       -0.09831768 -0.14301932 0.06590052 -0.066193536
0002a0 c1 f4 3c be 11 4a f2 3d aa a5 b8 3d 95 88 29 3c
       -0.18452741 0.11830533 0.09015973 0.010347505
0002b0 36 70 13 3e a2 ae e6 bd d5 9b 91 3d b7 66 ad bd
       0.14398274 -0.11263777 0.07109801 -0.08466857
0002c0 a3 2c 49 3d a1 13 c2 bd 1c 8a 90 bd 11 4e 8e bb
       0.049114835 -0.094764 -0.07057592 -0.0043428023
0002d0 a6 2c 66 3d f1 47 28 3e 1a 58 79 3c 58 e5 28 3d
       0.056194924 0.16433693 0.015218759 0.041234344
0002e0 73 10 80 bd 73 21 1b 3e e2 fa f0 3d c8 42 7a bd
       -0.062531374 0.15149479 0.11766602 -0.061098844
0002f0 41 88 14 3d 6d dd 32 be 24 e9 5c bc 6e 29 db 3c
       0.036262754 -0.1746728 -0.013483319 0.026753154
000300 f9 cf 6e 3d 0e c4 69 3d 70 e4 de 3d c9 51 30 be
       0.058303807 0.057071738 0.10883415 -0.17218699
000310 2a 52 9f 3d b5 0b 42 be 1e cc d0 bd 18 17 9b 3c
       0.077793434 -0.18949778 -0.10195182 0.01893191
000320 48 7d 25 3d 44 58 58 3d b7 91 41 be 5e 03 1a 3e
       0.04040268 0.05281855 -0.18903242 0.15040347
000330 48 b4 06 be d1 73 11 3e 2f f3 f3 bd c1 72 3b be
       -0.1315471 0.14204337 -0.11911618 -0.18305494
000340 31 cb 45 bd 1d 9d 66 3c 78 ad 08 3e c5 e9 aa bd
       -0.04828948 0.014075545 0.13347423 -0.08345369
000350 70 f4 91 3d 34 10 8c bd c5 3d bd bd 00 ce 4b bd
       0.07126701 -0.06839028 -0.09240297 -0.049757004
000360 d1 2e 7a 3d 93 e3 9f 3d 29 40 e7 bd 99 c9 b5 bd
       0.061079804 0.07807078 -0.112915345 -0.08876342
000370 09 19 04 be 2a cf e5 3d 9b 01 16 bd bf 8b 15 be
       -0.12900175 0.11221154 -0.036622625 -0.1460409
000380 37 96 2a bd 3b df ed bd 53 20 f0 bd a1 1a be 3d
       -0.041647162 -0.116148435 -0.11724915 0.09282423
000390 63 65 2c be 67 f7 ba 3d 64 ad 28 be 22 72 1c be
       -0.16835551 0.091292195 -0.16472393 -0.15277913
0003a0 0d 02 05 be 22 06 b3 3c 52 7a 32 3e 83 bc e0 3d
       -0.12989064 0.02185351 0.17429474 0.10973456
0003b0 41 cf 2a 3e 18 ff 17 be 0d 9a 16 3e 1f 38 02 bd
       0.16680624 -0.14843404 0.14707203 -0.031791802
0003c0 d2 f8 ab 3d d6 ca e6 bd 23 30 1f be 5a 4b 1b be
       0.08397068 -0.11269157 -0.15545706 -0.15165463
0003d0 9b cc 27 3d 1c 4a 0d 3e 67 a2 df bd 5b 49 26 3e
       0.04096661 0.13797802 -0.10919648 0.1623892
0003e0 df 86 ff bd 64 e9 56 3d 3b b2 37 3d 1b 0a 10 be
       -0.124768965 0.052468672 0.04484771 -0.14066355
0003f0 13 c8 fc bc 06 3a 03 be bf c7 cf 3d cd 3b 04 be
       -0.030857122 -0.12815103 0.101455204 -0.12913437

lstm.weight_hh_l0 f4 [128, 32]
000000 04 e3 cd bb e2 cb e4 3d 5b 2b d5 3d 24 47 45 bd
       -0.006283166 0.111717 0.1040866 -0.048163548
000010 06 7d ca 3d df 4e 9a bd 23 81 c5 3d 4b 9d cb bd
       0.098871276 -0.07534575 0.096437715 -0.09942111
000020 f4 ad 2e 3e 67 62 16 bd 08 f9 74 3d 16 94 51 3d
       0.17058545 -0.036714938 0.059807807 0.051166616
000030 b8 13 68 3d c6 b7 89 bd a5 f6 b7 bd 9d 72 fe 3c
       0.05665943 -0.06724505 -0.089825906 0.031060511
000040 bc 15 05 3e 8b 4b d0 3d f6 d7 b7 3d 91 37 9f bd
       0.12996572 0.10170659 0.08976738 -0.0777427
000050 97 8d 07 3e b8 d3 11 be 7b 38 25 be 40 e5 64 3d
       0.13237606 -0.1424092 -0.16134827 0.055882692
000060 c0 e5 99 3c 96 7c 2c 3e e4 1a 08 be 3c af b6 3d
       0.018786311 0.16844401 -0.13291508 0.08920142
000070 a0 7b 86 3d 30 5a bf 3c 08 2a 04 be 03 2f 14 be
       0.06566548 0.023358434 -0.12906659 -0.14471059
000080 2f 2a 33 3e 43 0e 83 bd f2 76 a1 3d 67 c7 1b 3e
       0.1749656 -0.063992046 0.07884015 0.15212785
000090 5e 70 5e bd 42 14 9b 3d 4d f0 0a 3e b8 1e 48 bd
       -0.05430638 0.07572223 0.1356823 -0.04885742
0000a0 84 9f ea bd e8 af fc bd 8c 2a 23 3d 2a a4 cf 3d
       -0.114562064 -0.12338239 0.039835498 0.10138734
0000b0 36 66 a5 3d 22 fa e2 3d 0f 23 d8 bd 90 e6 8b bc
       0.08076136 0.11082865 -0.10553562 -0.017077714
0000c0 00 ff 8b bd a6 49 b5 3d b5 3f 2f 3e 8a df c3 3d
       -0.06835747 0.08851938 0.17114146 0.09564121
0000d0 b2 67 9b bd 78 f0 94 3d 04 1c 1a be 3e 02 9e 3d
       -0.07588138 0.07272428 -0.1504975 0.077152714
0000e0 fa a1 0c be da b4 9f 3d c5 8b 13 3e 80 a9 9f bc
       -0.13733664 0.077981666 0.14408787 -0.019490004
0000f0 25 b2 01 3e bc c0 1f 3d 6d 78 2e 3e 2d 5e 28 3e
       0.12665613 0.039002165 0.17038126 0.16442175
000100 d8 b7 a4 bd 66 2e a6 3d 3b 41 70 bd c3 66 09 3e
       -0.08042878 0.081143185 -0.05865596 0.13418107
000110 40 24 78 3c 3c 3d 47 3d cc b2 98 bd fe a7 ca bd
       0.015145361 0.048642382 -0.07455978 -0.09895323
000120 95 73 62 3d f8 1e f9 3c 41 25 df bd 78 c1 ed bd
       0.05528601 0.030410275 -0.108957775 -0.11609167
000130 7f 5f 02 3e 81 26 ce bd 33 27 27 3e 1a d2 b1 bc
       0.12731741 -0.10065938 0.16323547 -0.02170663
000140 d8 68 f5 3c c5 04 26 be 8a 20 31 3e ee 41 ef bd
       0.02995722 -0.16212757 0.17297569 -0.11682497
000150 6c 50 e1 bd 87 50 9d bd ac 7f 92 3d 00 d4 51 3a
       -0.110016674 -0.07681375 0.07153258 0.0008004308
000160 1e d1 ed bd b5 26 16 3e a0 08 54 3c a3 3f 20 3e
       -0.116121516 0.14663203 0.0129415095 0.15649275
000170 50 58 fc bd 2e ee d5 bd 75 f4 35 bc 6a 5f ff 3d
       -0.12321532 -0.1044582 -0.011105646 0.12469371
000180 4a 3c 9f 3d 00 e0 2f b8 b4 41 5a 3d 82 25 e8 3d
       0.07775171 -4.1931868e-05 0.053285316 0.11335279
000190 c0 6d 13 bc de 16 f1 3d 5f e1 27 be e4 1f 07 bd
       -0.008998334 0.1177194 -0.16394566 -0.032989398
0001a0 b0 31 15 bc ee e1 73 bd 26 3b 71 bd 00 6b b1 3a
       -0.009106085 -0.059541635 -0.0588943 0.0013535917
0001b0 fa 26 c3 3d 16 34 a9 3d 58 78 88 bc 67 ae b7 bd
       0.095289186 0.08261888 -0.016658947 -0.089688115
0001c0 04 d5 12 be 6f 8d 0d 3e e7 1e 0c be 91 ad 16 3e
       -0.14339072 0.13823484 -0.13683663 0.14714648
0001d0 30 44 f7 3c 32 82 67 bd 10 dc 39 3d 15 e0 30 3e
       0.030183882 -0.05652065 0.045375884 0.1727298
0001e0 f8 bb 50 3d d6 1f 90 bd f0 be ed bc 20 10 92 3b
       0.05096051 -0.07037322 -0.02902171 0.0044574887
0001f0 03 7d 0b 3e 71 58 08 be 40 22 b5 3c 58 14 80 3d
       0.13621907 -0.13314988 0.022111058 0.0625388
000200 3a 7f b7 3d 72 80 ce 3d 68 ab af 3c a8 c8 08 3d
       0.089598134 0.10083093 0.021444038 0.033394486
000210 80 f7 4c 3b 58 8d 97 3c 78 6b 8d bc e2 44 c8 3d
       0.0031275451 0.018500015 -0.01726316 0.09778763
000220 04 2a 96 bd bc 11 3b bd 0c 8f 00 3d 56 b8 be 3d
       -0.073322326 -0.04567121 0.03138642 0.09312503
000230 e8 12 8f bc 18 53 04 3d 42 39 d3 3d 4e 82 a6 3d
       -0.01746507 0.032305807 0.103136554 0.081303224
000240 ed 12 34 3e 58 8c ad 3c be fa ac 3d d4 6e 80 3d
       0.17585345 0.021185085 0.08446263 0.06271139
000250 b3 1a 32 be 2b df 1c 3e f2 21 a9 3d 4a 3d 34 be
       -0.17392997 0.15319507 0.08258428 -0.17601505
000260 60 2c 84 3c 8a f2 12 be 0d 2f 2d 3e fd 0e 08 3e
       0.01613444 -0.14350334 0.1691248 0.13286968
000270 e9 04 16 3e e8 d4 bc 3c 30 c6 30 bd 40 ba 59 bc
       0.1465031 0.02305074 -0.043157756 -0.013289034
000280 c2 d3 46 be be c1 fe 3d 8b 3b 96 3d b3 38 2b 3e
       -0.19416717 0.12439297 0.07335576 0.16720848
000290 32 1f 17 3e 15 5f 26 3e d0 40 fb bd 50 16 75 bc
       0.14757994 0.16247208 -0.122682214 -0.014958933
0002a0 33 46 3a 3e 53 71 00 3e 69 7a 88 bd 68 78 88 bd
       0.18190841 0.1254323 -0.06663973 -0.06663591
0002b0 39 5f ef 3d 00 4e 8f 3d b2 6e 97 bd 70 f1 79 bd
       0.11688084 0.06997299 -0.0739416 -0.06102127
0002c0 d6 be 86 bb 0f 1b b1 3d 7c 4a c2 3d 65 a9 30 3e
       -0.004112105 0.08647739 0.09486863 0.17252119
0002d0 2e a5 62 bd b5 44 0a 3e f2 42 44 be 19 24 aa bd
       -0.05533331 0.13502772 -0.19166163 -0.08307666
0002e0 07 b5 85 bd d8 82 01 3e d6 dc af bd c2 6b 03 be
       -0.06528669 0.12647569 -0.08587043 -0.12834075
0002f0 0f 8b b9 3d 00 fc 85 3d 6d 53 f8 bd 6d c9 dd bd
       0.090597264 0.06542206 -0.12125287 -0.108294345
000300 3f fc 4f 3e bc 21 bf bd 2c 7f 19 3e 31 d0 c9 3d
       0.20311068 -0.09332606 0.14989918 0.098541625
000310 41 89 6d bc e1 c0 8d 3e 42 04 b9 bd 46 60 18 be
       -0.014498056 0.27686217 -0.09034015 -0.14880475
000320 e5 02 0b be d9 a8 3a 3e a3 ed bc 3d 11 45 1b be
       -0.13575323 0.18228473 0.09225013 -0.15163065
000330 d7 68 42 3d 16 b9 d0 3c 25 be 90 3e 57 21 6a 3e
       0.047463264 0.02547888 0.2827007 0.2286428
000340 9a 8d f7 3d 98 15 03 be bd 98 7b bd d5 70 1d be
       0.12087555 -0.12801206 -0.06142496 -0.15375073
000350 64 39 b6 bd 05 12 10 3e 95 2a 99 3d 44 c1 eb bd
       -0.08897665 0.14069374 0.07478825 -0.11511472
000360 e5 4d ac bd e1 ba 08 be 10 7f 03 3d b8 3e eb bd
       -0.08413295 -0.13352539 0.032103598 -0.11486572
000370 ca 40 aa bd f8 ec 99 bc 5a 84 f6 3d fa 8c 08 be
       -0.08313139 -0.018789753 0.12036963 -0.13335028
000380 11 a3 20 3e a9 49 30 be 36 33 80 bd 00 b7 d3 3b
       0.15687205 -0.17215599 -0.06259768 0.0064610243
000390 c0 fb 81 bc 70 d5 ed 3c 8e 64 69 bd f2 8f ea 3d
       -0.015867114 0.029032439 -0.056980662 0.11453237
0003a0 dc 6b 18 bd 3e c3 c0 3d 10 5c 7f 3d c2 05 2b be
       -0.037212238 0.094122395 0.062343657 -0.16701415
0003b0 f2 61 ce 3d 5a 00 e4 3d 78 89 77 bd 65 2e 1c 3e
       0.10077275 0.111328796 -0.060433835 0.15252073
0003c0 c1 ed 91 bd 80 f7 f3 3c 78 bc 1c 3d 58 61 44 bd
       -0.07125426 0.029781103 0.038265675 -0.047944397
0003d0 46 77 7d bd 67 93 17 3e 12 aa 12 be ba bf e2 3d
       -0.061881326 0.14802323 -0.14322689 0.11071725
0003e0 2c 59 30 bd 8d 82 05 3e d4 be a0 bd 6d 76 29 be
       -0.04305379 0.13038082 -0.078488976 -0.16549082
0003f0 32 c7 0b be e4 c5 72 3d 10 0e 45 bc da 2d b8 3d
       -0.13650206 0.059270754 -0.012027279 0.089931205

lstm.bias_ih_l0 f4 [128]
000000 c9 f3 25 be 92 45 c6 bd d3 13 0a be 54 fd ea bd
       -0.16206278 -0.09681238 -0.13484125 -0.114741
000010 54 fc c1 bd 49 e5 b1 bd 6d c1 c9 bc 4a d4 e0 3d
       -0.09471956 -0.08686311 -0.024628365 0.10977991
000020 56 18 09 bb 50 1a d2 bd 34 86 0c 3e 95 ba e1 bc
       -0.0020919046 -0.10258925 0.1372307 -0.02755479
000030 1c 35 43 3d af bc da bd ca e7 d9 3d dc 4e 74 bd
       0.04765807 -0.1068052 0.106399134 -0.05964552
000040 43 78 92 3d 3c d3 0c be a8 42 2e be 45 50 28 3e
       0.07151844 -0.13752455 -0.17017615 0.1643687
000050 91 72 88 bd a0 8f 24 3c ed 24 0c bd 1c ce 40 3d
       -0.06662477 0.0100440085 -0.034214903 0.04707156
000060 56 11 df 3d 69 9f 17 be 80 f3 5b bc 00 70 67 39
       0.108919784 -0.14806904 -0.013424754 0.000220716
000070 a6 72 e7 3d 54 29 62 bd 96 4a a9 bd 1a 47 24 be
       0.11301164 -0.055215195 -0.08266179 -0.16042748
000080 ec 55 23 bd 3a 3a 11 be ca d4 01 be a1 81 0d 3e
       -0.039876863 -0.14182368 -0.12678829 0.13818981
000090 db ec 21 bd 7c 2b 18 bd 51 74 71 3d 20 36 1d bc
       -0.039532524 -0.037150845 0.05894882 -0.009595424
0000a0 9d f1 18 3e 12 84 fd 3d fa ff 09 bd 67 78 34 be
       0.14935918 0.12378706 -0.033691384 -0.17624055
0000b0 34 92 2d be ce 95 cd bd 0b 04 77 3b 18 7e 3a 3d
       -0.16950303 -0.100383386 0.0037691619 0.04553041
0000c0 a4 b6 5e bc 93 4d 10 3e 34 c8 3c bd dc d3 19 3d
       -0.01359335 0.14092092 -0.046089366 0.03755556
0000d0 00 4f 79 ba 3d ba 0a 3e 62 b8 cb 3d 2e f1 84 3d
       -0.0009510368 0.13547607 0.099472776 0.06491314
0000e0 d1 0b 12 3e 40 30 01 bd 03 11 09 3e ae a6 21 be
       0.1426232 -0.031540155 0.13385396 -0.1578624
0000f0 7a d2 88 3d 97 c0 07 be ec 95 b7 bc e6 46 ae 3d
       0.0668077 -0.13257061 -0.022410356 0.085096166
000100 5b 37 9b 3d 0a 97 b7 3d 94 b3 10 be ad 76 0f 3e
       0.075789176 0.08964355 -0.14131004 0.14010115
000110 b8 a7 96 bc cf 5d f9 bc 55 67 8c bd af 61 e7 bd
       -0.018390521 -0.03044024 -0.068556465 -0.112979285
000120 95 69 07 be 0e 33 dd bd 65 67 08 3e 90 7b ea b8
       -0.1322387 -0.108007535 0.13320692 -0.00011181005
000130 72 d7 6e bd a5 ab ae 3c 2c e7 1c 3e e0 59 50 3d
       -0.058310933 0.02132208 0.1532256 0.05086696
000140 3a f5 01 be 32 fc d4 bd 69 a0 0f 3e a7 e0 28 3e
       -0.12691203 -0.10399665 0.14026035 0.16491948
000150 64 21 3a bd da 7a 08 be fe 07 eb bd 9a 8f ab 3d
       -0.045442 -0.13328114 -0.11476134 0.08376999
000160 f5 85 11 3e 2c 64 9f 3d 00 1c b9 3a 2c ee e5 3d
       0.14211257 0.07782778 0.0014122725 0.11227068
000170 74 d6 13 be 38 6f 40 bd 92 2d e4 3d c1 91 27 be
       -0.14437276 -0.046981066 0.11141504 -0.16364194
000180 c3 ee 06 be 8e 31 bf 3d 9f ab 79 bd 91 9d 09 be
       -0.13177018 0.09335624 -0.060954686 -0.13439013
000190 b0 e0 c2 bd 8e b5 f8 3d 7c 1e 2b 3d 60 c4 d4 3b
       -0.09515512 0.12144004 0.04177712 0.0064931363
0001a0 03 cb 9c bd 04 93 30 be ea e2 66 3d c4 06 c0 bd
       -0.07655909 -0.17243582 0.056368746 -0.093762904
0001b0 e5 e2 1a be fb d3 65 bc 73 96 46 bc b5 f9 cc bc
       -0.15125616 -0.014027591 -0.012120831 -0.025021413
0001c0 83 31 ba 3d 9e ca fb bd b2 69 8c 3d 4b a5 06 3e
       0.09091475 -0.122945055 0.06856097 0.13148992
0001d0 56 d2 69 bd ea 95 92 bd a5 af 28 3e 02 08 f3 3d
       -0.057085358 -0.071575 0.16473253 0.11866762
0001e0 32 92 2d be be fa 1c be 7c b3 60 3d 35 b2 a2 bd
       -0.169503 -0.15330026 0.05485867 -0.079441465
0001f0 21 d2 9a 3d 45 87 20 3e 34 83 1d 3e ce ee ca bd
       0.0755961 0.15676601 0.15382081 -0.0990883

lstm.bias_hh_l0 f4 [128]
000000 02 6f 20 be 3d 8c 05 3e 42 f0 27 3e 3e 58 c7 3d
       -0.15667346 0.13041778 0.16400245 0.09733628
000010 c0 23 4a 3d bb 38 5d bd f1 33 23 3e c4 b3 2f 3d
       0.0493505 -0.05400918 0.15937783 0.042896047
000020 20 dc 8c 3d 4b fd ae 3d a0 fc 5d 3c 56 3a 25 3e
       0.06877923 0.085444055 0.013549 0.16135535
000030 2b 2c 02 be 05 5e f4 bd b2 6a e0 3d b9 44 a4 bd
       -0.12712161 -0.11931995 0.109578505 -0.0802092
000040 3f 64 2b 3d c5 44 15 be 34 71 a0 bd 66 e4 dc 3d
       0.04184365 -0.14577015 -0.07834092 0.10785751
000050 3a 62 c0 3d 82 8f 99 3d cf 92 98 bd 1c f7 50 3d
       0.09393735 0.07498075 -0.074498765 0.051016912
000060 8a ee a9 3d 07 58 1f 3e 00 ce 7f 3d c0 6d fd bc
       0.08297451 0.15560924 0.062452316 -0.030936122
000070 50 05 11 3c fe f6 19 be 4e c9 f7 3c 1d 24 27 3e
       0.008851364 -0.15035626 0.030247357 0.1632237
000080 c0 58 ba bc 40 c5 80 bd 84 cb 82 3d d8 e5 f6 bd
       -0.022747397 -0.062876225 0.06386474 -0.12055558
000090 ae b4 a7 3d 4b b6 e9 bd f8 4b 5b 3d 36 c1 cd bd
       0.08188759 -0.11411723 0.053539246 -0.10046618
0000a0 e9 d0 04 be 53 9e e8 bd 1d be 6b 3c ad 12 14 3e
       -0.12970318 -0.11358323 0.014388588 0.14460249
0000b0 e7 56 65 3d 31 77 19 be 3a 54 2d 3e 89 42 8e bc
       0.05599108 -0.14986874 0.16926661 -0.01736571
0000c0 fa 33 24 3e 92 bb ed 3d 9e 91 94 3d 0e dd d1 3d
       0.16035452 0.11608042 0.07254337 0.10247241
0000d0 7e f4 33 be 69 0d a9 bd 31 7d 0f be 70 bb 72 3d
       -0.17573735 -0.08254511 -0.140126 0.059260786
0000e0 c7 ae 28 be 96 15 d2 3d a2 a8 f4 3d 0e 65 e1 3d
       -0.16472922 0.102580234 0.11946227 0.11005603
0000f0 86 d1 9b 3d 98 51 c3 bc da 00 77 3d 20 0d d5 3b
       0.07608323 -0.023842618 0.060303546 0.0065018088
000100 8b 7e e1 3c be 86 f6 3d 1d 14 97 3d 7d 66 0e 3e
       0.02752616 0.12037419 0.07376883 0.13906284
000110 97 35 12 3e d5 8a 13 bd 75 4f 2c 3e 13 32 26 3e
       0.14278255 -0.036021072 0.16827185 0.1623004
000120 bd f9 17 be 9a f5 1f be e6 14 ab 3d 8d 93 ad 3d
       -0.14841361 -0.15621033 0.083535954 0.08475409
000130 69 8f a3 bd 65 a8 9b bc aa f6 02 be 3a e4 35 3e
       -0.07986338 -0.019001195 -0.12789407 0.17762843
000140 92 53 fc 3d 00 91 78 3c 89 84 1e 3e b0 de af bc
       0.12320627 0.015171289 0.15480246 -0.02146849
000150 bb 21 1b be a2 2e 9f 3d 98 8c 54 bd d2 25 0b be
       -0.15149586 0.077725664 -0.051891893 -0.13588646
000160 8e 1f 22 be f7 42 1c 3e 62 6b fd 3d 30 e7 bf 3d
       -0.1583235 0.1525992 0.12373997 0.093702674
000170 8d 3d 27 3e 50 fb 14 3d 86 18 da 3d 30 9e 25 bc
       0.16332074 0.036372483 0.10649209 -0.010108516
000180 f3 2a 1d 3e e0 c6 e2 3c b9 c7 c7 3d 21 e8 21 be
       0.15348415 0.027682722 0.09754891 -0.15811206
000190 66 60 c9 bc 53 88 2d 3e d8 b5 37 3d e4 5d ea bd
       -0.0245821 0.16946535 0.044851154 -0.114436895
0001a0 fd 4c f0 bd 37 e3 1f 3e 64 32 df bd c0 ad 13 3e
       -0.11733434 0.1561402 -0.10898283 0.14421749
0001b0 79 75 40 3c 93 08 69 3d f9 0a 5c 3e 65 f9 2f be
       0.011746758 0.056892943 0.2148856 -0.1718498
0001c0 7b 8d 92 3d 90 10 d2 bc 90 1b 49 bd d0 4a 4b 3d
       0.071558915 -0.025642663 -0.04909855 0.049631894
0001d0 2a f9 da 3d 90 4c c2 bd 92 f9 31 be 88 5a db 3c
       0.106920555 -0.094872594 -0.1738036 0.026776567
0001e0 a1 32 0f be a8 5a cb bc d6 48 78 bd da 69 f0 3d
       -0.13984157 -0.024823502 -0.060616337 0.117389396
0001f0 ac f4 ba bd 2b 85 18 3e 8d 63 45 bd e7 cd 05 3e
       -0.09128699 0.1489455 -0.048190642 0.13066827

lstm.weight_ih_l1 f4 [128, 32]
000000 9f 4f 6c 3d 5f 29 60 bd 8a 01 08 3e ed 82 e1 bd
       0.05769312 -0.054726955 0.13281837 -0.110113
000010 7e 4e 63 3d 91 9c 6d be 1d 3f 45 bc a8 dd c0 3d
       0.055494778 -0.23204257 -0.012038973 0.094172776
000020 72 03 ba bd 9d cd 11 bd dc 54 05 3e c7 5d fd 3d
       -0.090826884 -0.03559648 0.13020653 0.12371402
000030 56 9b 39 bb a6 70 a7 3d d1 26 1b be 3b 82 f5 bc
       -0.0028321347 0.08175783 -0.15151526 -0.029969325
000040 a0 6d 14 3d eb d7 04 3e 40 e6 99 bd 4c 4a 0f 3e
       0.03623736 0.12972991 -0.0751462 0.13993186
000050 44 4d 4a 3d de f2 c6 bd 28 a5 2a 3c 1a ab 74 bd
       0.049390092 -0.09714292 0.010415353 -0.059733488
000060 54 7c 93 3d cc c0 3d be 58 5f 23 be a9 2d 33 3d
       0.07201448 -0.18530577 -0.1595434 0.043744717
000070 f7 8d 27 be 84 11 35 3d 26 7f 67 bd 98 26 82 3d
       -0.16362749 0.044206157 -0.056517743 0.063550174
000080 bc bb bb 3c 07 25 d9 bd fd 86 c9 bc d4 8b 0f 3e
       0.022916667 -0.106027655 -0.0246005 0.14018184
000090 4b 41 0f 3c 0f ce 61 be 05 e7 85 bd 69 11 cd 3b
       0.008743594 -0.22051261 -0.06538204 0.006258179
0000a0 ef 8e 11 3e 34 39 28 bc 1e 1f fc bd 78 96 d1 3d
       0.14214681 -0.010267545 -0.12310623 0.10233778
0000b0 25 46 bc bd d2 ab 41 be 87 9d 2b be 7e 9f 65 3b
       -0.091930665 -0.189132 -0.1675931 0.0035037692
0000c0 82 5e 60 bd 6a 64 4e be 15 5b 81 3d 15 ed 9a 3d
       -0.05477763 -0.20155492 0.06316201 0.07564751
0000d0 46 23 f5 bd 4f 71 13 3d 6d a0 fe 3c e0 6b 3b bc
       -0.119696185 0.03599673 0.031082356 -0.011439294
0000e0 40 f1 7f bb af c2 16 be 2b b0 dd bd 7d 9e 19 3e
       -0.0039053708 -0.14722703 -0.10824617 0.15001865
0000f0 9f cd b4 3b ae 66 ed 3d 79 31 6c bd e0 0d 89 bc
       0.005517676 0.1159185 -0.05766437 -0.016730249
000100 ef 80 b0 3d a0 66 35 be 0f 9f e1 bd 9a 6a e2 bd
       0.08618342 -0.1771493 -0.11016666 -0.11055489
000110 92 09 0c 3e e0 7d 0c be 3b 90 05 3e d0 4f 32 be
       0.13675526 -0.13719893 0.13043301 -0.17413259
000120 df 7b 3b be d0 65 b8 3d 3e 5a 52 3d da 47 c8 bd
       -0.18308972 0.09003794 0.051355593 -0.097793296
000130 f7 ea 03 3e b0 b9 f7 bd 8c cc 7d bd 25 fe e5 bd
       0.128826 -0.12095964 -0.06196265 -0.11230115
000140 2a 81 1a 3e c6 c5 64 bc 37 f6 27 be 73 10 09 bd
       0.15088335 -0.0139631685 -0.16402517 -0.033462953
000150 88 4b 20 3d 69 a3 e7 bd 79 59 bc bd 3d a4 30 3e
       0.039134532 -0.11310465 -0.09196753 0.17250152
000160 9e 62 fd 3d e7 82 93 be 14 2b 04 bd 50 da d6 bd
       0.12372325 -0.28810808 -0.032267645 -0.104908586
000170 94 c7 f8 bb 52 61 0d be 7a 1a 52 3d 9a 06 dc 3d
       -0.007592151 -0.13806656 0.05129478 0.10743447
000180 16 46 3f 3e fd da 26 3d 1a 33 4b 3c ad 3a 5d 3e
       0.1867908 0.040736187 0.01240232 0.21604414
000190 5c b1 30 bd bd f4 03 3e 64 8a 21 3d fb 8a 8f bc
       -0.043137893 0.12886329 0.03943862 -0.017522326
0001a0 64 7a 35 3e dd f3 01 3e 9b 89 b4 3d ca b0 82 bd
       0.1772247 0.12690683 0.08815309 -0.06381376
0001b0 e6 ec d6 bc bf 47 59 3e e3 2d b6 3d 94 c0 e3 bd
       -0.026236009 0.21218775 0.08895471 -0.11120716
0001c0 92 df c5 3c 7e 97 54 3d f3 08 35 bd a5 d4 1c be
       0.024154458 0.051902287 -0.044197988 -0.15315492
0001d0 e8 98 92 3c 51 e8 2e be 5c 56 77 3e bc 8a 1f be
       0.017895177 -0.17080809 0.24154037 -0.15580267
0001e0 10 8f 52 3d 2e 80 b0 bd 30 e4 e2 bc 93 e1 3b 3e
       0.051405966 -0.08618198 -0.027696699 0.18347768
0001f0 7d e5 1e be 91 95 0e 3e cd 6f b9 bd 70 af 4a bc
       -0.1551723 0.13924243 -0.090545274 -0.012370929
000200 f6 b2 7e bd f3 45 4c 3c 44 88 cc bd 92 4a 37 3e
       -0.06218239 0.012467849 -0.09986928 0.1789954
000210 8f 3f 25 3e b3 4d 4d be 70 c5 5a 3e f6 f3 60 3d
       0.16137527 -0.20049171 0.21364379 0.05492016
000220 7d 1d 22 be 33 4e 0a be ea 41 16 3e 7b 9c 50 bd
       -0.15831561 -0.13506393 0.14673582 -0.05093048
000230 7e f7 5f be 00 47 8d bc 0c 6a 32 be 07 07 12 3e
       -0.21871755 -0.01724577 -0.17423266 0.14260493
000240 68 f2 ab 3d f9 17 4a bd cd af 29 bd 95 0f b1 bc
       0.08395845 -0.04933927 -0.041427422 -0.021613875
000250 12 79 a7 3d 0a 20 27 bd 73 ed 2f 3e f8 b6 07 be
       0.08177389 -0.04080204 0.17180423 -0.13253391
000260 66 4a fe 3d 11 e1 1f 3e 60 ad b0 3b 9a d4 3a be
       0.12416534 0.156132 0.0053917617 -0.18245164
000270 c4 50 9b 3d 20 a1 93 bc 96 30 f1 3d b5 78 02 3e
       0.07583764 -0.018021166 0.11776845 0.12741359
000280 0b a8 3c be 1f 4b 53 3d 11 02 a2 bd fd ec 64 bd
       -0.18423478 0.051585313 -0.079105504 -0.055890072
000290 bc 6f b7 3c 62 ca 2f ba 83 d4 41 3c 01 c5 d0 3c
       0.022392146 -0.00067058776 0.011830452 0.025484564
0002a0 a7 89 e8 bd 15 a7 c9 3d 83 01 41 3e ce d1 8a bc
       -0.1135438 0.098463215 0.18848233 -0.016945746
0002b0 4d f7 47 be e5 56 28 be 6a a0 97 bd 5f c0 16 be
       -0.19527932 -0.16439398 -0.074036434 -0.14721821
0002c0 2d ac f3 bd 96 55 3a 3d 6e 6a 01 bd 8c c2 d6 bd
       -0.11898074 0.045491777 -0.03159564 -0.104863256
0002d0 35 a3 9c bd 71 4c 09 3d e8 2d 55 3d cf 6d 87 bd
       -0.07648317 0.033520166 0.052045733 -0.06612741
0002e0 00 b0 42 3c 9b 8a 91 3c 64 23 03 bd 32 05 04 3e
       0.011882782 0.017766288 -0.032016173 0.12892607
0002f0 89 f1 9e bb dc f3 21 be b3 ec 16 3e c0 32 ed bd
       -0.0048505706 -0.15815681 0.14738731 -0.115819454
000300 62 85 59 3d 99 be 42 be 66 20 14 be 11 4b 69 3e
       0.05310572 -0.1901802 -0.14465484 0.22782542
000310 0c 43 85 3d 2f c6 36 3e 54 65 cb bd a7 dd 0b 3e
       0.06506929 0.17849039 -0.09931436 0.13658772
000320 45 15 ce bc e5 a1 22 bd 4d 3e e0 3b 6e 02 fb bc
       -0.025156626 -0.039705176 0.0068433643 -0.030640807
000330 2e 9d 82 3d 77 58 93 bd a0 5d 06 bb 60 d3 7b 3c
       0.06377636 -0.07194608 -0.0020502582 0.01537022
000340 72 aa 85 3d a3 42 3b 3d 2b 15 80 bd 09 71 f4 bd
       0.065266505 0.045717847 -0.062540375 -0.11935622
000350 09 bc a0 bd c2 83 18 be 95 c8 9e bd 30 46 6b 3c
       -0.07848365 -0.14894012 -0.07753102 0.014359996
000360 35 18 87 bd 4c 52 0e 3e f0 1e e1 bc 1e 1a 3d 3d
       -0.06596414 0.13898581 -0.027480572 0.046167485
000370 5a 28 e3 3d b0 f8 2a bc 34 91 2f 3e 5a b6 14 be
       0.11091681 -0.010435268 0.17145234 -0.14522687
000380 a2 e8 72 3d a3 37 03 3e 1b 6e 9c bd 92 b3 b2 3e
       0.059303887 0.12814192 -0.076381885 0.34902626
000390 4b 28 b0 3d 1c b7 cb bd b1 de df bd 4e 2e 08 be
       0.08601435 -0.09947035 -0.10931147 -0.13298914
0003a0 32 b8 03 bd ad 00 21 3e 47 32 6f 3d 2c fe e3 bc
       -0.032158084 0.15722914 0.058397558 -0.02783116
0003b0 d2 58 a7 3d 4f 83 91 bd 36 10 db 3c e5 db 1a be
       0.08171238 -0.07105123 0.026741128 -0.15122946
0003c0 80 93 3f 3e 90 c6 1c be 9f 15 47 bc 1f 60 9e bb
       0.1870861 -0.1531012 -0.012151151 -0.004833236
0003d0 3a 2b de 3d 0f bb 2f 3d 55 60 03 3e df dd 03 3e
       0.108480886 0.042903002 0.12829717 0.12877606
0003e0 f1 2e a3 bd 8d f1 86 bd 88 de f3 bc e0 3b a1 bd
       -0.07967938 -0.06589041 -0.029769197 -0.078727484
0003f0 c4 c0 31 be 45 ce b6 bd f3 c4 16 be 54 34 91 3d
       -0.1735869 -0.089260615 -0.14723568 0.07090059

lstm.weight_hh_l1 f4 [128, 32]
000000 0b f3 b8 3d 85 59 5d 3e f0 54 5d bd 7d 1f 79 3b
       0.09030732 0.2161618 -0.05403608 0.0038013153
000010 4a 21 2c 3d 36 f8 80 3d af 33 41 3e c7 3a 2e be
       0.042023934 0.062973425 0.18867372 -0.1701461
000020 4f 42 9b bd ab 5a ac bd 23 ad b5 bc 99 5f 38 3d
       -0.07581007 -0.08415731 -0.022177285 0.045013044
000030 51 b4 1b bd 7e 72 99 3d 2f dc 96 3e 87 bd 2a 3c
       -0.03801376 0.07492541 0.29464862 0.010421163
000040 43 b6 46 be 94 44 9e be 03 35 fa bd 48 45 91 bd
       -0.19405465 -0.30911696 -0.122171424 -0.070932925
000050 0a bc 69 3c d5 58 aa bd 15 ae cb bd fa c4 b4 bc
       0.014266023 -0.083177246 -0.09945313 -0.022066582
000060 ba 93 0e bd 39 bc 02 be 82 91 1c be 59 bd 9e 3d
       -0.03480885 -0.12767114 -0.15289882 0.07750959
000070 12 a5 57 3e 2a 6c 94 bd 67 6e 86 3b fc 00 67 be
       0.21059063 -0.07247193 0.0041025165 -0.2255897
000080 54 78 c9 3c 35 6a 0d be a2 bf 39 3d ea d9 00 be
       0.02459351 -0.13810046 0.04534877 -0.12583128
000090 51 d7 7a bd c2 e8 e1 3b 04 aa e4 bd dc 5f 13 bd
       -0.061240498 0.006894202 -0.111652404 -0.03598009
0000a0 a5 42 9c 3c 42 ec 22 3e 25 13 ef bc 9e 9e cf 3c
       0.019074747 0.15910438 -0.029183934 0.02534419
0000b0 4c 14 e4 3c e8 22 10 3e 44 f8 4e be fb 88 7b 3d
       0.02784171 0.14075816 -0.20211893 0.06140993
0000c0 2d 26 b3 bd 88 27 49 bd 78 52 b9 3d a7 11 48 3e
       -0.08747516 -0.049109966 0.09048933 0.19537984
0000d0 8e 40 03 be c1 af 54 bd fe ca e7 bd 4b b4 00 3e
       -0.12817594 -0.051925424 -0.113180146 0.12568776
0000e0 c7 6d d3 bd 53 94 3d 3e b6 2d d5 3d 82 f3 18 3e
       -0.10323673 0.18513612 0.10409109 0.14936641
0000f0 e8 bc 2a bd f7 e3 b6 bc 74 43 28 be 94 b8 ac 3d
       -0.04168406 -0.022325499 -0.16431981 0.08433643
000100 ff ec 01 be ef 1f 34 bb 7d 97 32 3e 21 5e bc bd
       -0.12688063 -0.0027484854 0.174406 -0.09197641
000110 f9 78 ce 3d c1 cb 98 3c a6 97 c9 bd fc 26 db 3d
       0.100816675 0.018651845 -0.09843378 0.10700795
000120 b4 15 d7 3d 57 42 0d bd 24 d7 b5 3d d8 6f 51 be
       0.105021864 -0.034487095 0.088789254 -0.20452821
000130 35 61 8d bd 59 0d 90 bd 7c 76 9b bd 38 ed da bd
       -0.069033064 -0.07033796 -0.075909585 -0.10689777
000140 f6 30 0c be 03 d0 2a 3d e0 2d 1e 3e a8 50 65 bd
       -0.13690552 0.04170228 0.15447187 -0.055985123
000150 1a f5 0e 3e 60 e4 54 3e f5 ba 63 bc 3c 30 be bd
       0.13960686 0.20790243 -0.0138995545 -0.09286544
000160 f7 b7 16 3e af d7 1e bd c0 ac 78 bc 3e e0 32 be
       0.14718615 -0.03877991 -0.015177906 -0.17468354
000170 e9 10 05 3b 58 16 ef bd ea 3e 1d be d5 e6 22 be
       0.0020304269 -0.116741836 -0.15356031 -0.15908368
000180 7a 2b df bb 3d 10 75 3d 62 61 fa bd 21 36 c0 3d
       -0.0068106027 0.05982994 -0.122256055 0.09385324
000190 e3 f3 15 bd e4 37 2e 3e b6 61 80 3d 6c ef 8d bc
       -0.03660954 0.17013508 0.06268637 -0.01732608
0001a0 6d 59 0f be fc 79 d1 3d 07 1a fc 3d 38 0c bc bd
       -0.13998957 0.10228345 0.12309652 -0.09182018
0001b0 fe c1 5d be f8 64 bd 3a ea bf 32 3e e0 d1 16 3e
       -0.21656033 0.0014449647 0.17456022 0.14728498
0001c0 e5 c6 17 3e 17 3a dc bd 52 37 ee 3d 20 5e b6 bc
       0.14821966 -0.10753267 0.11631645 -0.02226168
0001d0 26 6f 8b 3d b7 4a c0 bd 23 37 e5 3d 6e 19 54 be
       0.06808309 -0.09389251 0.11192157 -0.20712826
0001e0 bd 59 e7 3c 69 4b 4a 3d 74 0c 17 bd bf 60 81 be
       0.028241033 0.049388323 -0.03687711 -0.25269124
0001f0 b7 7c 2a be 00 f6 68 3d 19 f4 71 bc 27 19 e7 bd
       -0.16649137 0.05687523 -0.01476767 -0.11284094
000200 cc f5 28 bd 64 ea ee 3c 7b 2c bf 3d f1 64 07 be
       -0.041250035 0.0291645 0.09334656 -0.132221
000210 b2 6e 7f be c1 e7 2e be 12 a8 20 be d1 95 11 be
       -0.2494457 -0.17080595 -0.15689114 -0.14217307
000220 97 04 9b 3d 99 fe 1e 3e 4f a8 05 be f5 98 35 3c
       0.07569235 0.15526809 -0.13052486 0.011083831
000230 45 84 db bc a2 fd b7 bd 39 6e b6 3d d3 ad a5 3d
       -0.02679647 -0.089839235 0.08907742 0.08089795
000240 1a 31 36 be f5 7a 2f be 30 f9 14 3e 6c 57 93 3d
       -0.17792168 -0.17136748 0.14548182 0.07194409
000250 f3 24 91 3e e4 76 d9 3d 9a 14 b3 3d ea 0e af 3d
       0.28348503 0.1061838 0.08744164 0.085477665
000260 3f 2d d8 3c ff 6c 1d 3e ff 26 33 bd ce c3 21 be
       0.026388763 0.1537361 -0.04373836 -0.1579735
000270 1e 68 38 bd 13 30 51 3e 5f dd 48 bd aa 7a b0 3c
       -0.04502117 0.20428495 -0.04903924 0.021542866
000280 be cf 4e bd 6b 6a d4 bd 97 14 67 bd 26 e1 ab 3c
       -0.050491087 -0.1037186 -0.05641612 0.020981383
000290 ac 49 47 3d b9 e6 e0 3d 36 df f6 3c d5 be 51 bd
       0.048654243 0.10981507 0.030135732 -0.051207382
0002a0 6a ae 7b 3d 9a 1d 5e be 8d cf fc 3c c1 08 3b 3e
       0.06144563 -0.2169098 0.030860687 0.18265058
0002b0 b6 2c b7 3d 6b b5 e6 bd af 4f ec bd 20 c6 59 bd
       0.08944075 -0.112650715 -0.11538636 -0.053167462
0002c0 dd 5f 2a bd 99 f2 84 3d 18 ab 85 bd dd bf 6f bd
       -0.04159533 0.06491584 -0.06526774 -0.058532584
0002d0 af 41 06 be 4c 1b 1f bc d0 fb 3e 3d 67 68 d6 3d
       -0.13110994 -0.009711098 0.046626866 0.10469132
0002e0 ee 72 1a 3e 29 1d 0e be e9 a3 89 3d 42 32 b5 bd
       0.15082905 -0.13878311 0.067207165 -0.088474765
0002f0 e5 a4 38 bd 37 b6 13 3e a6 ed 1c 3d 32 5c 11 3e
       -0.04507913 0.14424978 0.038312577 0.14195326
000300 3c 1e 0e 3d ef 6d 1e 3d 2f 04 24 be 70 44 5d bd
       0.034696802 0.03867906 -0.16017221 -0.054020345
000310 dc e5 80 3d e0 34 43 be e9 cb 2a bd 14 94 a8 3d
       0.06293842 -0.19063139 -0.04169837 0.08231369
000320 73 b8 a7 3d b0 b9 1d be e3 88 06 3d 2e 97 23 3e
       0.08189478 -0.15402865 0.03284539 0.15975639
000330 95 05 f1 bd c7 bb 27 3d 4f 5b 2d 3d c4 ee ca 3d
       -0.11768643 0.040950563 0.042323407 0.09908822
000340 b5 a4 0c 3c 1e 28 de bd 50 c5 27 3d 3c 62 c8 3d
       0.008584191 -0.108474955 0.040959656 0.09784362
000350 79 4a b4 bd 50 a9 1f 3e d0 64 d7 bc 05 1a cb bd
       -0.08803267 0.15591931 -0.026293188 -0.09917072
000360 7d ca 20 3d be 1a 3c be 3b 80 e2 bd 88 5f c6 3d
       0.039255608 -0.18369576 -0.11059614 0.0968619
000370 f0 f7 30 3d b4 e6 8f 3d 27 3d 6f 3d bd f6 64 3c
       0.0432052 0.07026425 0.05840793 0.013974843
000380 09 5c de bd ac d6 0a 3d 2a e0 3e 3c 2a 79 59 3d
       -0.10857398 0.033896133 0.011650125 0.053094067
000390 88 af 3f 3e c5 df 55 3d 27 c1 6b 3e f9 42 a0 bd
       0.18719304 0.052215356 0.230229 -0.07825274
0003a0 2a 31 0d 3e 4b e8 09 be a7 c5 2f be 81 69 15 be
       0.13788286 -0.13467519 -0.17165242 -0.14591028
0003b0 94 fa da bc e3 c8 8e bd 22 ea f2 3c 6c d0 39 3e
       -0.026730813 -0.0697191 0.029652659 0.18145913
0003c0 65 3d 43 3e fa 40 f4 3d 3c d1 05 bd 99 a3 a3 3d
       0.19066389 0.11926456 -0.032670245 0.07990188
0003d0 c7 af 0a be 01 a8 b6 3b d3 18 c7 bd 23 38 3f bd
       -0.13543616 0.005574227 -0.09721532 -0.046684396
0003e0 2a 25 b3 bd d5 40 54 3e 2c 6c 78 bd ac 0c d4 3c
       -0.08747323 0.20727856 -0.060650036 0.025884949
0003f0 34 7d e7 bd fe 6f fc 3d 3f 90 95 3d 2a e5 d6 bc
       -0.113031775 0.12326048 0.073029034 -0.02623232

lstm.bias_ih_l1 f4 [128]
000000 c0 4a a2 3d 94 ab a3 bd 53 8c 8d 3d 8f 4e d1 bd
       0.07924414 -0.0799171 0.0691153 -0.10220062
000010 62 30 ed bd d1 00 10 be de a0 f9 bc 82 f2 21 bd
       -0.11581494 -0.14062811 -0.030472215 -0.039537914
000020 8d 68 12 be fe ec 26 3e ff c7 0c 3b e0 03 16 be
       -0.14297695 0.16301343 0.0021481512 -0.14649916
000030 49 e9 94 bd 2b d5 db 3d 9a 69 8f bd 54 cb b6 bd
       -0.07271058 0.10734018 -0.07002564 -0.089255005
000040 ff f7 da 3d ea ad 35 bd 58 32 43 3e 93 92 9a bd
       0.10691833 -0.04435531 0.19062173 -0.07547488
000050 58 73 05 3e c5 6a 4b 3e 90 a9 d6 bc 95 84 9a 3d
       0.13032281 0.19864948 -0.0262039 0.07544819
000060 fe e7 18 3e d9 b1 2a 3c 66 50 02 bd e1 97 30 3e
       0.14932248 0.010418379 -0.031814955 0.17245437
000070 7a d3 3c 3e 83 a4 8b bc 05 0c 07 3e a3 d4 b0 3c
       0.18440047 -0.017046219 0.13188179 0.021585768
000080 cf ed ac bd ec 4a db 3d d6 8e 85 bd 49 7f ab 3d
       -0.08443796 0.107076496 -0.065213844 0.08373887
000090 27 61 02 3e dd cd b6 3d 03 47 0c be 9b 66 c4 3d
       0.12732373 0.08925984 -0.13698964 0.09589883
0000a0 2f b9 01 be bc 60 0e 3e a2 ef 9d 3c f5 f3 a9 bb
       -0.12668298 0.13904089 0.019279305 -0.0051865526
0000b0 27 a2 af bc a2 e0 85 bc bf 3c b1 3d e9 5f ba 3c
       -0.021439625 -0.016342465 0.086541645 0.022750812
0000c0 55 64 21 3b 87 b4 e2 3d 8f fc 54 3e 1d dc ab 3c
       0.0024626453 0.11069589 0.20799468 0.020978982
0000d0 a1 65 04 3e e8 8b 39 3d a9 12 53 3e 48 64 ad 3d
       0.12929393 0.04529944 0.20612587 0.08466393
0000e0 09 80 e9 bb a9 f9 af 3d 56 cd 29 3e f9 b0 12 3e
       -0.0071258587 0.08592541 0.16582236 0.14325322
0000f0 12 a4 be 3d a2 50 40 3e b6 1a a3 bc 1c be ef bd
       0.09308638 0.18780759 -0.019910198 -0.11706182
000100 cd 7e 04 be 75 2a f0 3d 44 a9 80 3d 56 98 5d 3c
       -0.12938996 0.11726848 0.06282285 0.013525089
000110 93 b0 06 3e 79 06 80 bd 13 56 34 3d 5e c7 b3 bb
       0.13153295 -0.062512346 0.0440274 -0.005486413
000120 e7 70 37 be f7 9f 9d 3c 6e 71 5f bc 82 25 89 3d
       -0.17914163 0.019241316 -0.013637884 0.06696607
000130 8e fe 46 be 02 6b a3 bd c9 a5 04 3d 38 f4 be 3d
       -0.19433042 -0.079793945 0.032384668 0.09323925
000140 09 65 05 bc 09 23 a2 bb 3c 77 11 be 50 1e 25 be
       -0.008141764 -0.004948024 -0.1420564 -0.16124845
000150 c6 d5 17 be a7 b2 f2 3d d7 fb 33 3e 32 ac e7 3d
       -0.14827642 0.118504815 0.17576538 0.113121405
000160 ac ae 9a 3d b9 8c 11 be b3 62 18 be a7 ec 63 bd
       0.07552847 -0.14213838 -0.14881401 -0.05564561
000170 25 d1 0a be 2f 79 22 bb 89 4a 05 3e 93 16 fa bd
       -0.13556345 -0.002479147 0.13016714 -0.12211337
000180 ee 61 64 3e 30 0e d0 bc 3c 89 34 3d 1c 03 b1 3d
       0.22302982 -0.02539739 0.04407619 0.08643171
000190 bc 40 9e bd e6 9d de 3d a9 70 a8 3d f1 e5 ab bd
       -0.07727191 0.108699605 0.08224613 -0.08393467
0001a0 18 0b 33 3e 3a d1 d4 3d 69 ef dd 3d ca a3 c2 3a
       0.174847 0.10391469 0.108366795 0.0014849838
0001b0 12 de ef 3d cc b6 f3 3c 47 3f c3 bd df c7 25 3d
       0.117122784 0.02975025 -0.095335536 0.040473815
0001c0 24 a9 ff 3c 63 7d 25 bc 27 63 2c 3e 76 77 7b bd
       0.031208582 -0.010100695 0.16834699 -0.061393224
0001d0 aa 03 68 bd ad 85 98 3d 48 81 9d 3d dc 3f 4d 3e
       -0.05664412 0.07447372 0.07690674 0.20043892
0001e0 31 50 aa 3b d2 ac 2b 3e 21 e4 75 bd fb d4 0b be
       0.005197548 0.16765144 -0.060032014 -0.13655464
0001f0 16 72 5d 3c ff 9e b5 bd 78 5b 30 bd 8a b0 de bd
       0.01351597 -0.08868217 -0.04305598 -0.10873516

lstm.bias_hh_l1 f4 [128]
000000 b2 e3 de bd a8 a4 0c 3e 79 3e fa bd 4a 0f d2 bd
       -0.10883273 0.13734686 -0.12218947 -0.102568224
000010 c1 1a 00 3e 6c 9b e3 bd 63 dc 9e bd cb 14 2e 3e
       0.12510206 -0.11113629 -0.07756879 0.1700012
000020 f3 f3 d0 3d 97 6c 25 bc 0a 34 35 3e ad 33 f0 3d
       0.102027796 -0.010096691 0.17695633 0.117286064
000030 70 00 62 bd 06 b6 ee 3d 6e 66 27 3e 8b de e2 bd
       -0.0551762 0.11655812 0.16347668 -0.11077603
000040 b7 48 ed bd 8d 53 86 3d 80 0c 5e 3b b0 72 7c 3d
       -0.11586135 0.06558905 0.0033881962 0.061632812
000050 ed 34 66 3c 6e 61 69 bc 97 06 5d 3e 14 e2 a8 3a
       0.014050704 -0.01424442 0.21584545 0.0012884759
000060 e1 96 14 bd 84 d4 3d 3d 77 aa 43 3e 99 5b 27 3e
       -0.0362767 0.04634525 0.19107996 0.16343535
000070 54 46 40 3d 8c 2d 02 be f5 eb 39 bc 75 7e 28 3e
       0.04694207 -0.12712687 -0.01134776 0.1645449
000080 48 64 3f bd 92 31 06 3e 56 57 91 bd 1e 04 14 be
       -0.046726495 0.13104847 -0.07096736 -0.14454696
000090 bd 76 84 3d 7f 4c 60 3d 2a 07 a0 bd f1 53 17 3e
       0.0646796 0.054760452 -0.078138664 0.14778115
0000a0 1f 27 1d 3c 71 25 8a bc 66 c6 20 3e b3 cb 06 be
       0.009591847 -0.016863557 0.15700683 -0.13163643
0000b0 2f a0 19 3c 82 67 4f 3e 42 2b 23 3e 74 c0 21 3e
       0.00937657 0.20254329 0.1593447 0.15796071
0000c0 8b b0 04 bd ce b3 80 bd d5 5a 27 3d 3b b6 06 3e
       -0.032394927 -0.06284295 0.04085811 0.13155453
0000d0 a3 62 06 3d 88 52 be 3d 10 0b 1b 3e da 7f e2 bd
       0.03280891 0.09293085 0.15140939 -0.11059542
0000e0 84 59 e1 3b fd 4d 54 3e 24 e5 31 3d 2f d7 08 be
       0.006877126 0.20732875 0.043431416 -0.13363336
0000f0 90 24 36 3e df b5 7b bd 77 34 a9 3d 3f 09 af bd
       0.17787385 -0.061452743 0.0826196 -0.085466854
000100 11 33 29 be 1b 52 fa bd 06 3e ea bd d8 49 8b bd
       -0.16523387 -0.122226916 -0.11437611 -0.06801194
000110 cf 40 58 3b 8b cf 18 bd 72 17 d8 bd 79 be eb 3c
       0.0032997613 -0.037307303 -0.10551347 0.028777348
000120 72 e4 1f be 62 74 92 bc 40 bc 1b be 85 31 33 be
       -0.15614489 -0.017877761 -0.1520853 -0.17499359
000130 6e a5 2b be cd 76 a0 bd 69 f8 d3 3c 4b 19 cd 3c
       -0.16762325 -0.078351595 0.025875287 0.025036475
000140 6e 6c 16 be ac 46 f9 3d b7 6a e4 bd e3 5e 02 3e
       -0.146898 0.12171683 -0.11153167 0.12731509
000150 62 03 fe 3d 42 de 07 3d a6 d0 a2 3d 2c db 44 bd
       0.12402989 0.033170946 0.07949953 -0.04806058
000160 5e c9 d2 bd f4 db 28 3e c2 1c e4 3c c2 fd 03 bb
       -0.10292314 0.16490155 0.027845744 -0.0020140265
000170 4a 05 32 3e 17 c9 de 3d 3f 28 17 3e c6 21 11 be
       0.1738483 0.108781986 0.14761446 -0.1417304
000180 30 98 06 3e 57 0e cc 3d 60 bf 15 be c7 a6 20 be
       0.13143992 0.099636726 -0.14623785 -0.1568862
000190 bd 34 b4 bb 5c f8 49 bc 6b d2 fb 3d 03 7c 84 bd
       -0.005499451 -0.01232728 0.122959934 -0.06468966
0001a0 a0 a3 af 3d 4e db ba 3c 30 d7 91 bd d4 92 4a bd
       0.08576131 0.02280965 -0.07121122 -0.049456432
0001b0 92 8f 4a 3e a1 e0 54 3e e6 5c b6 3b ed d4 42 3d
       0.1978133 0.20788814 0.0055652736 0.047566343
0001c0 3c b4 23 3e ac d3 37 3e 91 83 a8 3c af d6 c8 3d
       0.15986723 0.1795184 0.020570548 0.09806573
0001d0 43 70 2d 3e 75 d2 1d 3e 24 74 94 3b b6 fe 19 3e
       0.16937356 0.15412314 0.0045304466 0.15038571
0001e0 73 2d a9 3d 4d 64 f7 3d 8b a2 84 3d 99 04 0a 3e
       0.08260622 0.12079678 0.06476315 0.13478316
0001f0 4d fe 92 3c f8 a8 51 3e 7e 4f 84 bd 07 95 9e 3d
       0.017943526 0.20474613 -0.064604744 0.077432685

lstm.weight_ih_l2 f4 [128, 32]
000000 cd 04 f5 bd a8 22 8c 3d 87 48 3e bd a4 fa 28 3e
       -0.11963806 0.06842548 -0.046455886 0.16501862
000010 c7 d4 8b be 05 fc e5 bd 91 b1 ef bd 3b c1 08 3e
       -0.27310774 -0.112297095 -0.1170379 0.13354962
000020 49 df a6 3d 95 89 80 3d 96 03 35 be 4d c4 04 be
       0.08148057 0.06276242 -0.17677149 -0.12965508
000030 78 44 2e bd 42 ac f4 3d ac c4 df ba ab 5d 4f bd
       -0.042545766 0.11946918 -0.0017072163 -0.050626438
000040 40 4e 10 3e 10 69 3c bd 76 be ab 3d 62 dd 2f 3a
       0.1409235 -0.045998633 0.08385937 0.0006708709
000050 48 33 5f 3e b5 57 d7 bd e1 03 96 3d 65 86 10 be
       0.21796906 -0.10514776 0.073249586 -0.14113767
000060 a9 21 ff bd 08 8c 1d 3d 31 df 0f 3e 42 10 80 3d
       -0.12457592 0.038463622 0.14049985 0.06253101
000070 99 d2 49 3d 5a e2 ef 3d 46 42 6b 3b c8 f8 a6 3d
       0.049273107 0.11713095 0.0035897656 0.0815292
000080 08 0d 1a 3e 50 5e 31 3e f3 d3 e6 3b 72 48 9e bc
       0.15044034 0.17321134 0.0070443093 -0.019321654
000090 47 d1 b5 3d 4e c6 6f bd d9 4f 0f 3e 99 a2 06 be
       0.08877807 -0.058538727 0.13995303 -0.13147964
0000a0 97 99 d1 bc fc c5 ee bd a0 67 f7 3c 19 bb 8e bc
       -0.025585933 -0.11658856 0.03020078 -0.0174232
0000b0 04 b0 c8 bc 20 33 85 3c 89 25 6f 3d be ab 54 bc
       -0.024497993 0.01625973 0.058385406 -0.0129804
0000c0 b6 d6 08 3d 85 98 68 bd ec 9a fc bc 58 a5 c3 bd
       0.03340789 -0.05678608 -0.030835591 -0.09553021
0000d0 11 7c a0 3b d8 97 7b bc 28 39 cf 3d 14 c4 01 be
       0.0048976024 -0.015356027 0.101183236 -0.12672454
0000e0 5f 5e c4 3d 39 4c eb 3c db 3a 32 be 17 5f 31 bd
       0.09588312 0.02872287 -0.17405264 -0.043303575
0000f0 bc a8 42 be 29 06 8e bb ac e6 9e 3d 64 ab b7 3c
       -0.1900968 -0.0043342304 0.07758841 0.022420593
000100 ac 4f 86 bc a9 5a da 3d 41 3d 4c 3d f7 b1 35 bd
       -0.016395412 0.10661823 0.049863104 -0.044359174
000110 01 96 bd 3d 88 26 1f be c3 df 43 bb 39 0f 0f be
       0.092571266 -0.15542042 -0.002988801 -0.1397065
000120 e7 4f 2b be 15 61 0d 3e c9 6c 0a be 0c 07 f3 3d
       -0.16729699 0.13806565 -0.1351806 0.118665785
000130 c8 55 d2 bd 17 76 17 3d 7b b5 11 bc ab 42 c9 bd
       -0.10270268 0.036977854 -0.008893366 -0.09827169
000140 ae 6f fc bd ea 89 3f be 4a 08 05 3e d6 49 55 3d
       -0.12325989 -0.18704954 0.12991443 0.05207237
000150 63 dd 76 bc 13 48 5b 3d 7e de 96 bc a0 90 3b 3e
       -0.015067431 0.053535532 -0.01841664 0.18316889
000160 eb 3d aa 3c 42 69 05 3e d6 3e 08 bd c7 27 ec bd
       0.020781478 0.13028434 -0.03326305 -0.115310244
000170 70 3b 26 be 26 8d 9d bc 4a fa 0e 3d 18 79 9d 3c
       -0.16233611 -0.019232344 0.034906663 0.019222781
000180 c3 72 33 3e b5 b9 17 be 65 02 a3 3b 53 18 1e bd
       0.17524247 -0.14816935 0.0049746507 -0.038597416
000190 eb 75 80 3d 6c 01 8d bd 44 98 84 3e 12 24 6b 3d
       0.06272491 -0.06885037 0.2589742 0.057407446
0001a0 c9 f7 8d 3e 7a 9f 4b 3e 24 44 42 bc c3 14 c0 bd
       0.27728108 0.19885054 -0.011857066 -0.0937896
0001b0 91 a6 02 bc f4 01 e0 bd 27 08 11 3e 22 6a 8c 3d
       -0.007974283 -0.109378725 0.14163266 0.06856181
0001c0 70 8b 93 3d 4b 7e 86 bd cc df ba 3c 29 46 0a be
       0.0720433 -0.06567057 0.022811793 -0.13503326
0001d0 db 19 4b bd 21 e3 9f bd 20 5f b8 3d 2a 30 28 3d
       -0.049585205 -0.07806993 0.09002519 0.041061558
0001e0 d3 0a 1f be d0 bf 41 bd ba 68 58 bd b2 4c 52 be
       -0.15531473 -0.047302067 -0.05283425 -0.2053707
0001f0 c9 13 0d be 73 1b b8 3d c8 43 e1 bd 59 00 d8 3d
       -0.13777079 0.089896105 -0.10999256 0.10546941
000200 6e 9b db 3d 7f d5 35 3d 4b 0c b9 bd b9 9c 98 bd
       0.10723005 0.04439306 -0.09035548 -0.074517675
000210 39 99 8c 3d a0 d8 23 be 84 0c 1e be 34 f3 34 be
       0.068651624 -0.16000605 -0.15434462 -0.176709
000220 51 fb 1f 3e 68 24 f8 3d 4d 8c e2 3d 11 37 de bd
       0.15623213 0.12116319 0.110619165 -0.10850347
000230 96 02 48 be 48 bb 2e be 53 35 be 3c e9 02 20 bd
       -0.19532236 -0.1706363 0.023218786 -0.039065275
000240 ce 8c 56 3e 46 f7 a1 bd e3 e6 27 3e 9a dd 8b bd
       0.2095215 -0.07908492 0.1639667 -0.068293765
000250 d6 bd 7a be 79 bd 52 be 75 63 74 3d b5 8c 3d 3e
       -0.24486479 -0.2058009 0.059665162 0.18510707
000260 d6 f2 04 be 88 01 85 3d a5 b9 bd 3d 07 1d d8 bc
       -0.1298326 0.06494433 0.092639245 -0.026381029
000270 00 76 aa bd 30 a2 41 3e e4 b1 50 3e e1 fc b1 bd
       -0.08323288 0.18909526 0.2038036 -0.08690811
000280 51 1b ea bd e8 3c f1 3d 22 d6 1a 3e 87 4d 8f bb
       -0.114309914 0.11779195 0.15120748 -0.0043732557
000290 68 77 1b 3d b4 b2 ef 3d 66 92 1f 3e cb e8 f3 3d
       0.03795567 0.11704007 0.1558319 0.11909636
0002a0 e3 23 20 bd 81 4d 2e be 4f ea 49 3b 1e b9 62 be
       -0.039096724 -0.17021753 0.0030809825 -0.22140929
0002b0 3f 09 09 be 00 80 66 bc 3e fc 10 be 17 fa 23 3d
       -0.13382433 -0.0140686035 -0.14158723 0.040033426
0002c0 9f 0c 48 3c 9a 22 78 3d bf 69 a2 bd f6 0f e6 bd
       0.01221004 0.060579874 -0.07930326 -0.11233513
0002d0 ba 43 33 be 46 cc 0d 3d 65 f5 10 bd 85 38 36 bd
       -0.17506304 0.03461864 -0.035390276 -0.044487495
0002e0 4c 6e 9e bc f5 35 27 bd 78 27 72 3d 3c 66 59 3d
       -0.019339703 -0.04082294 0.05911967 0.053076014
0002f0 b1 6e 26 3e d4 30 45 3d 58 5d 1c 3e 52 4d 12 be
       0.16253163 0.04814227 0.15269983 -0.14287308
000300 b1 76 6a 3c 4c a1 ca bc cf 5d ff 3d 00 5d e8 3c
       0.014310525 -0.024735115 0.124690644 0.028364658
000310 a4 fb 0c be c3 eb 0c 3d 33 84 0f be 5a 8f ff bd
       -0.13767868 0.034404527 -0.14015274 -0.12478514
000320 79 9c e6 bd 63 3e 34 bd 20 07 92 3d 20 e6 37 be
       -0.112603135 -0.04400481 0.07130265 -0.1795888
000330 0b c6 79 3d 4e 39 30 3e b4 ed 38 3d ec da 23 3e
       0.060979884 0.1720936 0.045148566 0.16001481
000340 20 8d b6 bd ce 16 49 3e dc a8 11 3e 01 7d 41 3d
       -0.08913636 0.19637606 0.14224571 0.047238354
000350 f3 11 01 be 74 20 29 be 6a 1c 2f be 57 ff d3 3d
       -0.12604503 -0.16516286 -0.17100683 0.103514366
000360 17 45 cb 3c 6a 52 1d be 57 6b a8 3c 11 4d 3e 3e
       0.024813218 -0.1536347 0.020558996 0.18584086
000370 5c 63 e6 3d bd 56 82 3d 64 4d 08 3e ad 91 e4 3d
       0.1124942 0.063642 0.13310772 0.11160598
000380 f8 13 3c be ee d6 76 3d ad ef eb 3d 65 e6 00 be
       -0.18366992 0.060263567 0.11520324 -0.12587889
000390 8e 2c 1f be 67 cb 09 3d f1 dc 0e 3e 5e c7 11 be
       -0.1554434 0.033641245 0.1395147 -0.14236209
0003a0 04 fc 09 3e 14 84 0a bd e6 27 8d 3d 9b 02 0b 3e
       0.13475043 -0.033817366 0.06892376 0.13575213
0003b0 ad 8f 17 bd e0 30 a2 3d 77 8e 07 be ad 79 87 3c
       -0.037002254 0.079194784 -0.1323794 0.016537512
0003c0 e2 40 02 3e c0 59 39 3d 13 c2 33 3e d2 7b c0 bd
       0.12720063 0.045251608 0.17554502 -0.09398617
0003d0 77 fd 82 3d 30 e6 c2 3d 20 aa 18 3e 79 c2 dd 3c
       0.06396001 0.09516561 0.14908648 0.02707027
0003e0 b1 7e 19 be 5f 44 50 3d f3 0c 06 3e 02 e7 15 be
       -0.14989735 0.050846454 0.13090877 -0.14638904
0003f0 84 8e 25 3d b0 02 8b bd 26 87 dd 3d a1 17 f9 3d
       0.040419117 -0.06787622 0.10816793 0.1216271
