trained_lstm_model.pth (torch, 222973 bytes, 13 tensors)

lstm.weight_ih_l0 f4 [256, 17]
0.11155488 0.14511293 0.19755937 0.27194333 0.1940004 0.100484364 0.12398875 0.20915861
0.2855682 0.04139862 0.15180826 0.056941327 -0.08547844 0.045459725 0.15621153 -0.21052271
0.09654086 -0.0070733675 -0.15978816 -0.21917273 -0.03997043 0.07979316 0.036450207 0.09597398
-0.16706748 0.0025145004 -0.055188216 -0.052994486 -0.2056869 -0.1331839 -0.11242798 -0.06866247
-0.19474874 -0.047480334 -0.5590834 0.68994653 -0.2859204 -0.4684819 0.61840993 -0.3489867
-0.58117104 0.15204228 0.049993858 0.91602236 0.9707966 -0.41719463 0.26536125 -0.82014555
0.13904577 -0.3866177 0.30603316 0.14129265 0.15371822 0.07055959 0.043323457 0.027254434
0.059813134 0.24069457 -0.007714459 0.11993115 0.030293142 -0.015412455 0.06971645 0.1427009
-0.04425691 -0.1833998 0.04913045 0.014073263 -0.23800997 -0.046205092 -0.09307637 -0.18688613
-0.11862365 0.08798175 -0.2775934 -0.28718948 -0.12671119 -0.16950461 0.05736569 0.26587978
0.18093076 -0.01963091 -0.063339725 0.1424907 -0.16774686 -0.4261877 0.004434715 -0.052164808
-0.25475112 0.2730934 0.13461219 -0.093881235 -0.019641927 0.24023274 0.016717317 -0.036002126
-0.5488601 0.45409858 -0.48811066 0.17332995 0.10280563 0.1959933 -0.0020218592 0.5349012
-0.25828344 0.09217561 0.27952346 -0.052970164 0.15766852 0.47830006 0.82700384 -0.46060953
-0.81328326 -0.19576456 -0.5570532 -0.8323827 0.51455957 0.22494936 0.27832276 0.0705721
-0.04437136 -0.15024817 -0.07591306 0.21405599 0.00051730376 -0.072895676 -0.09943439 0.16567431
0.047078885 0.11961199 -0.23019603 -0.12046511 -0.21474697 0.15985271 0.13550203 -0.06802781
0.30763063 0.07845482 -0.08056242 -0.17752077 0.16276631 0.2205902 -0.3101045 -0.02284903
-0.36301237 -0.5166743 -0.044467464 -0.26869726 0.099499986 -0.2676781 0.4656292 0.014827407
0.11493991 -0.05529658 -0.43800828 0.36189604 0.13185063 0.3239686 0.009025461 0.13065886
0.5801683 -0.040611584 -0.22897023 -0.12950507 -0.016674053 -0.17234427 0.0432125 -0.054524936
-0.6107888 0.42491034 0.14478284 0.16856445 -0.06100345 -0.0066814166 0.37328303 0.18664557
0.23870718 -0.087081194 -0.12739693 0.0048256754 0.28910625 -0.29274547 -0.19117431 0.051907994
0.6661168 -0.12474566 0.15857564 0.01972759 0.02012525 0.022211144 -0.11905871 -0.0338572
-0.13456169 0.4239828 -0.13505435 0.14267005 -0.022832677 -0.10812453 0.001988913 0.10247196
0.19605185 0.013507372 0.16515897 -0.04547538 -0.15645756 0.00090289395 -0.029185027 0.2604079
-0.2531418 -0.21984208 0.19190666 0.18234587 0.21692015 0.045770127 0.06905485 0.30192575
-0.17930734 0.22347477 -0.2607387 -0.042503547 0.09475879 0.36119354 0.202606 0.09098307
0.74012786 -0.68693596 -0.33076656 0.596799 0.28029358 0.0050567663 0.23867331 0.22727436
0.22311163 -0.64465696 0.30623657 -0.01623064 0.21029888 -0.63938224 0.22229375 0.067717105
0.20830035 0.0011124271 0.056604795 -0.014598955 0.013514755 0.038184743 -0.21841678 0.0047855997
0.25053817 0.16524746 0.0096817035 0.1744752 -0.10360931 -0.054791126 -0.35354176 0.022435175
00000000: e376 e43d 7c98 143e 014d 4a3e 283c 8b3e
00000010: 0aa8 463e bfca cd3d d0ed fd3d ad2d 563e
00000020: ff35 923e 9991 293d a073 1b3e 4f3b 693d
00000030: 520f afbd fa33 3a3d eaf5 1f3e 4493 57be
00000040: 37b7 c53d b5c7 e7bb 829f 23be d16e 60be
00000050: 09b8 23bd 996a a33d d04c 153d 028e c43d
00000060: bd13 2bbe 51ca 243b 0a0d 62bd bf10 59bd
00000070: 969f 52be 5c61 08be a440 e6bd e99e 8cbd
00000080: 376c 47be bd7a 42bd 1720 0fbf 56a0 303f
00000090: 2964 92be dcdc efbe 1d50 1e3f 62ae b2be
000000a0: a0c7 14bf f9b0 1b3e 5cc6 4c3d 7180 6a3f
000000b0: 2086 783f 899a d5be 6edd 873e 0ff5 51bf
000000c0: 0462 0e3e c1f2 c5be 61b0 9c3e 05af 103e
000000d0: 4f68 1d3e 8c81 903d f073 313d b144 df3c
000000e0: 9efe 743d a378 763e 93c9 fcbb 769e f53d
000000f0: 5329 f83c 8684 7cbc 80c7 8e3d 2f20 123e
00000100: bc46 35bd 28cd 3bbe 033d 493d 8b93 663c
00000110: e3b8 73be 8d41 3dbd d39e bebd 145f 3fbe
00000120: f5f0 f2bd c72f b43d b920 8ebe 800a 93be
00000130: 94c0 01be 9e92 2dbe 49f8 6a3d 6521 883e
00000140: ea45 393e 01d1 a0bc 42b8 81bd 15e9 113e
00000150: d5c5 2bbe 4635 dabe 1651 913b c4aa 55bd
00000160: bd6e 82be e6d2 8b3e c7d7 093e ce44 c0bd
00000170: 1be8 a0bc 92ff 753e c1f2 883c f776 13bd
00000180: 1882 0cbf 9c7f e83e a4e9 f9be 687d 313e
00000190: c28b d23d 78b2 483e 2b81 04bb 49ef 083f
000001a0: ba3d 84be 91c6 bc3d b31d 8f3e 3ef7 58bd
000001b0: db73 213e bfe3 f43e 86b6 533f 03d5 ebbe
000001c0: 5533 50bf 8176 48be 0a9b 0ebf 0817 55bf
000001d0: 2dba 033f 2059 663e 5280 8e3e 1b88 903d
000001e0: bebe 35bd a8da 19be 4e78 9bbd 7e31 5b3e
000001f0: ab9b 073a 544a 95bd 42a4 cbbd 87a6 293e
00000200: cad5 403d 22f7 f43d 82b8 6bbe 69b6 f6bd
00000210: a1e6 5bbe 6eb0 233e 0bc1 0a3e 2a52 8bbd
00000220: c381 9d3e ecac a03d e9fd a4bd 01c8 35be
00000230: 36ac 263e 66e2 613e 04c6 9ebe e42d bbbc
00000240: c2dc b9be c444 04bf 8423 36bd b092 89be
00000250: a6c6 cb3d 1b0d 89be f366 ee3e a7ee 723c
00000260: 9e65 eb3d ab7e 62bd 9f42 e0be 704a b93e
00000270: da03 073e 36df a53e 87df 133c 70cb 053e
00000280: e985 143f 5558 26bd 2c77 6abe fa9c 04be
00000290: 0698 88bc 047b 30be 97ff 303d 8a55 5fbd
000002a0: a85c 1cbf d98d d93e f441 143e 299c 2c3e
000002b0: c1de 79bd c9ef dabb f41e bf3e 0420 3f3e
000002c0: a86f 743e a057 b2bd 5774 02be b320 9e3b
000002d0: bc05 943e bce2 95be 33c3 43be 7a9d 543d
000002e0: a186 2a3f a77a ffbd a761 223e c19b a13c
000002f0: b5dd a43c 25f4 b53c 0ed5 f3bd d9ad 0abd
00000300: 8aca 09be 4614 d93e b04b 0abe 1918 123e
00000310: 980b bbbc 6570 ddbd 6c58 023b d2dc d13d
00000320: d1c1 483e 064e 5d3c 6f1f 293e 6444 3abd
00000330: 6936 20be 30b0 6c3a 7015 efbc 2f54 853e
00000340: cd9b 81be 481e 61be 2e83 443e e0b8 3a3e
00000350: 5120 5e3e 7579 3b3d a16c 8d3d 0396 9a3e
00000360: 589c 37be 92d6 643e 8b7f 85be 3318 2ebd
00000370: e610 c23d 5cee b83e f277 4f3e 5555 ba3d
00000380: 0579 3d3f 09db 2fbf 3c5a a9be d2c7 183f
00000390: a482 8f3e 3bb3 a53b c766 743e 9cba 683e
000003a0: 6077 643e 3d08 25bf 0acb 9c3e 1ef6 84bc
000003b0: 9758 573e 8eae 23bf f9a0 633e 44af 8a3d
000003c0: b04c 553e dcce 913a 6eda 673d 7530 6fbc
000003d0: fe6c 5d3c 9b67 1c3d a6a8 5fbe 85d0 9c3b
000003e0: 8a46 803e a136 293e 02a0 1e3c a0a9 323e
000003f0: 1e31 d4bd a96c 60bd 6d03 b5be f9c9 b73c

lstm.weight_hh_l0 f4 [256, 64]
-0.119598754 -0.035150673 -0.052604694 -0.12848803 -0.12281382 -0.088015415 -0.21072243 -0.16254148
0.062598474 -0.11545486 0.29080796 -0.06434425 0.041956287 0.14360178 -0.11776469 -0.1500673
0.16649114 0.35659072 -0.18537478 0.052087776 0.06417033 0.058594085 0.015616236 0.07748002
-0.18046218 -0.016773574 -0.022751905 0.25191894 -0.02715866 0.04011688 -0.051793125 -0.032269213
-0.1532161 0.00061803526 0.38715413 -0.2673997 0.008305362 -0.10046942 -0.08990246 -0.08847308
-0.034823455 -0.24774739 -0.05031106 -0.07245813 -0.12591997 0.024828903 0.019312788 -0.09167018
0.005752665 -0.20208783 -0.2822419 0.21460176 0.07371593 0.12067897 -0.07182363 0.16855884
-0.006218431 -0.05034521 -0.029453393 -0.12544742 0.13636251 0.023818647 -0.002792461 0.07732517
0.18985501 -0.14349604 -0.18965699 0.01850853 -0.010797098 0.16939911 0.021833105 0.2597945
0.18031763 0.08963735 -0.19257712 -0.007878542 -0.21925475 -0.08241549 0.07616643 0.14834198
0.0747496 -0.2484808 0.10389235 -0.1462005 -0.08657867 -0.14715551 -0.0026688243 -0.1739912
0.097022764 0.09651843 -0.19472069 -0.18102749 0.16591105 -0.055980153 -0.16277796 0.07087808
0.08334474 -0.06574504 0.08351464 0.09684507 -0.16948424 0.022431653 0.099022985 0.004091124
0.07919533 0.23349908 -0.009622732 0.090963386 0.0048471577 -0.01819817 -0.08394221 -0.14969744
-0.16464218 0.21919094 -0.13211007 -0.26486826 -0.13316189 -0.12467433 -0.32296315 0.23309211
0.13809176 -0.03216612 0.43500865 0.1345927 -0.005699943 -0.054944452 -0.32465675 -0.03779737
0.16000389 0.13479611 -0.21947007 -0.27366927 0.16772762 -0.07382252 -0.83360857 -0.27303296
0.48372573 0.32204378 -0.463366 -0.023295937 0.16837601 -0.17106 0.1981441 0.105173774
0.02438522 0.082067035 0.13703415 0.34261164 0.05917584 0.050942883 0.051110476 0.14278628
0.10908251 0.06074942 0.19341293 0.023269266 -0.052332684 0.09074764 0.017481681 0.010368378
0.25042224 -0.17685778 0.1856387 0.03425639 -0.10100546 -0.16601335 -0.034205135 0.04267588
-0.23324434 0.18592145 0.23121482 0.13372743 0.18872376 -0.05476265 -0.01255396 0.24887162
0.015527527 0.05906577 0.17253628 0.21750923 -0.16791463 -0.4056822 -0.10256861 0.22211944
-0.11117444 0.0030581828 -0.051015176 -0.24268852 0.12722176 -0.104495615 -0.00093229814 0.19432099
-0.008890513 -0.04500377 -0.09309367 -0.3320715 0.006933635 -0.1251786 0.26912847 0.15456638
-0.24709131 -0.012747796 0.66639394 0.14327937 -0.037102774 0.08224244 0.104300685 0.010252669
-0.18985042 -0.06533078 -0.059029724 0.1333431 -0.11969409 -0.033371065 0.009458929 -0.04245683
0.035294622 -0.122516125 0.17272133 -0.088384174 -0.0353126 -0.04768109 0.13318461 0.04336903
-0.19353229 -0.01947322 -0.13608637 -0.07232216 0.21447018 -0.02332941 0.07515022 0.05379548
0.07084655 -0.10421346 -0.12600768 -0.02809903 0.076615766 0.062234115 -0.11813581 0.21368922
0.11586188 -0.13505803 0.22661124 -0.0012831957 -0.00468126 0.03427143 -0.33209682 -0.19224879
0.12676507 -0.028704798 0.1291198 0.12532009 0.041871175 -0.04182096 0.09875544 -0.103361495
00000000: 31f0 f4bd 27fa 0fbd 0578 57bd 5e92 03be
00000010: d085 fbbd 6d41 b4bd 9fc7 57be 4671 26be
00000020: a133 803d 9973 ecbd c8e4 943e ebc6 83bd
00000030: 5bda 2b3d 580c 133e 9d2e f1bd 3eab 19be
00000040: a77c 2a3e 0f93 b63e e3d2 3dbe fe59 553d
00000050: bc6b 833d 5a00 703d 3edb 7f3c d8ad 9e3d
00000060: 14cb 38be bc68 89bc 3462 babc 85fb 803e
00000070: d77b debc 9951 243d 0725 54bd b92c 04bd
00000080: aee4 1cbe a503 223a 1139 c63e 9de8 88be
00000090: 3713 083c e9c2 cdbd c81e b8bd 6031 b5bd
000000a0: 0aa3 0ebd 7eb1 7dbe f812 4ebd ee64 94bd
000000b0: 2af1 00be fc65 cb3c da35 9e3c 93bd bbbd
000000c0: da80 bc3b 1df0 4ebe 0382 90be 90c0 5b3e
000000d0: 61f8 963d 8926 f73d 4418 93bd b09a 2c3e
000000e0: fbc3 cbbb c736 4ebd 3e48 f1bc 4a75 00be
000000f0: 9da2 0b3e 531f c33c b901 37bb a95c 9e3d
00000100: 5a69 423e a0f0 12be 7135 42be 339f 973c
00000110: 50e6 30bc f676 2d3e 57db b23c c903 853e
00000120: 2fa5 383e c993 b73d f032 45be 0015 01bc
00000130: 5184 60be 74c9 a8bd 25fd 9b3d f6e6 173e
00000140: 5116 993d c071 7ebe 83c5 d43d 95b5 15be
00000150: 2850 b1bd efaf 16be 71e7 2ebb c02a 32be
00000160: dfb3 c63d 74ab c53d dc64 47be 455f 39be
00000170: 96e4 293e 724b 65bd 44af 26be 8728 913d
00000180: a6b0 aa3d 56a5 86bd b909 ab3d b556 c63d
00000190: 478d 2dbe 96c2 b73c 90cc ca3d d60e 863b
000001a0: 2931 a23d 621a 6f3e aaa8 1dbc 034b ba3d
000001b0: e8d4 9e3b 5414 95bc e5e9 abbd 494a 19be
000001c0: f697 28be 9773 603e dd47 07be d09c 87be
000001d0: 975b 08be 4155 ffbd 6d5b a5be b3af 6e3e
000001e0: ed67 0d3e 9fc0 03bd 74b9 de3e abd2 093e
000001f0: 96c6 babb 6f0d 61bd 6939 a6be 6ad1 1abd
00000200: 0fd8 233e fe07 0a3e c3bc 60be 611e 8cbe
00000210: cac0 2b3e 4330 97bd 5f67 55bf faca 8bbe
00000220: e6aa f73e ece2 a43e 4f3e edbe 1fd7 bebc
00000230: c36a 2c3e 5a2a 2fbe 49e6 4a3e 5965 d73d
00000240: 83c3 c73c c312 a83d ae52 0c3e cb6a af3e
00000250: 5e62 723d 7ca9 503d 3859 513d 9136 123e
00000260: a766 df3d 62d4 783d 0a0e 463e 309f be3c
00000270: cc5a 56bd e6d9 b93d be35 8f3c 21e0 293c
00000280: 5837 803e 351a 35be 1218 3e3e 6e50 0c3d
00000290: f3db cebd 67ff 29be af1a 0cbd e7cc 2e3d
000002a0: 9bd7 6ebe 3162 3e3e 94c3 6c3e d8ef 083e
000002b0: cd40 413e cd4e 60bd 20af 4dbc 34d8 7e3e
000002c0: 2b67 7e3c f3ee 713d 5aad 303e bdba 5e3e
000002d0: d0f1 2bbe 94b5 cfbe 7e0f d2bd 4773 633e
000002e0: 6daf e3bd cb6b 483b 4af5 50bd 5783 78be
000002f0: 6c46 023e cc01 d6bd 7865 74ba 15fc 463e
00000300: 84a9 11bc e055 38bd e5a7 bebd 4705 aabe
00000310: 8c33 e33b d22e 00be 35cb 893e a646 1e3e
00000320: 8105 7dbe 22dc 50bc cb98 2a3f d4b7 123e
00000330: 14f9 17bd b96e a83d 999b d53d d0fa 273c
00000340: 2668 42be 25cc 85bd 27c9 71bd 188b 083e
00000350: 2d22 f5bd 19b0 08bd a0f9 1a3c 37e7 2dbd
00000360: 1891 103d bce9 fabd dcdd 303e c302 b5bd
00000370: f2a3 10bd 3f4d 43bd 8c61 083e b9a3 313d
00000380: 542d 46be 4d86 9fbc 3a5a 0bbe a41d 94bd
00000390: 129e 5b3e 521d bfbc 5ce8 993d a658 5c3d
000003a0: ff17 913d de6d d5bd 2808 01be f02f e6bc
000003b0: bae8 9c3d 33e9 7e3d 30f1 f1bd 59d1 5a3e
000003c0: fe48 ed3d a74c 0abe c70c 683e e730 a8ba
000003d0: 4165 99bb 3360 0c3d 9808 aabe dedc 44be
000003e0: b4ce 013e 5326 ebbc fb37 043e e953 003e
000003f0: 1c81 2b3d 744c 2bbd 4b40 ca3d 31af d3bd

lstm.bias_ih_l0 f4 [256]
0.19471742 -0.037642553 0.1800352 -0.013012825 -0.27827922 -0.23723756 -0.17359547 -0.04548896
-0.21019517 -0.39563516 -0.08029389 -0.1675286 0.037077554 -0.089850515 0.16170835 0.29597375
-0.24770018 0.09276512 0.24493556 -0.059112865 -0.12199545 -0.1446506 -0.28366473 0.2469999
-0.17505954 -0.19484986 0.3066419 0.17180148 -0.12860851 -0.18651779 -0.16575041 -0.24460208
-0.24224252 -0.3884474 0.3142743 -0.020404752 -0.15496601 -0.25584605 -0.2845152 -0.12430666
-0.06577724 0.11553634 -0.35359728 -0.17926471 -0.068312235 -0.090201974 0.16463977 -0.20500273
-0.23538001 0.23547694 -0.2595132 0.029167082 -0.033233862 -0.025422296 0.082502775 -0.40369397
0.09711331 -0.37807015 0.17856893 0.11650844 -0.23737389 -0.3040131 0.27719048 -0.3118539
-0.13768521 -0.11227494 -0.25737107 -0.14835508 -0.23436368 0.033544477 -0.14727138 -0.10242507
-0.2855534 -0.39230236 -0.34147897 -0.029563105 -0.15392898 0.43852758 0.010029072 0.34363288
-0.10939442 -0.09537064 0.18332806 0.014356878 -0.058435854 -0.29961678 -0.1354732 0.25539577
-0.07605725 0.014057626 0.4208419 0.08266764 -0.23053081 0.12708153 -0.25407586 -0.2297295
-0.2977357 -0.09892337 -0.19048451 -0.31220648 0.028214822 0.10238945 -0.31912726 -0.1998056
-0.16798921 0.13211755 -0.29198068 -0.10748672 0.01574407 -0.01773509 0.19304249 -0.22223441
-0.15543447 0.15833406 -0.40026692 0.420378 -0.16627604 0.07068788 0.2664946 0.21709654
-0.087021396 -0.13843073 -0.010868128 -0.14233084 -0.1894928 -0.1341528 -0.107092604 -0.19666316
-0.011678745 0.15196437 -0.024559138 0.097573034 0.055682108 -0.36778387 -0.18363655 -0.21223612
0.07260725 0.4333766 -0.32391903 0.09416644 0.19102678 -0.4277576 -0.21419358 -0.1932817
0.15859 0.24677221 -0.09507001 -0.08980719 0.01930112 -0.23140097 -0.10497246 0.07922464
-0.1644327 -0.17570879 0.12890105 0.10332657 -0.061818663 -0.21282148 -0.014293296 -0.010122825
-0.2917734 0.137228 -0.2077498 -0.08897033 -0.051578734 -0.12895273 -0.11622086 0.05220413
-0.06430768 -0.131456 0.028432125 -0.055306602 0.009427262 0.05913342 0.1316954 0.040392596
0.13491526 -0.19630732 0.2081029 0.044963658 0.099734426 0.1299637 0.14129762 0.039328452
-0.15469289 0.16914983 -0.31864858 -0.102619395 0.15416926 -0.058861516 0.29359877 0.13005273
-0.31934097 -0.21800742 0.19367035 -0.3349213 -0.08151102 -0.41806322 -0.3575528 -0.5269778
-0.27161217 -0.20063625 -0.43941164 -0.3086871 -0.3931969 0.109417185 -0.23900425 -0.34556377
-0.1643834 -0.22975403 -0.07434659 -0.03782804 -0.16654849 -0.35461235 -0.11734658 0.109188735
-0.010230587 -0.22514118 0.033402532 -0.17342927 -0.07274467 -0.018551743 -0.11754955 -0.32696024
-0.29110384 -0.29902598 0.46426192 -0.091716155 -0.16149908 -0.32514665 -0.4669912 -0.30978027
-0.231793 -0.23090447 -0.35629776 -0.19969398 -0.2500047 -0.28191903 -0.12486824 -0.17945437
0.19414528 -0.088031195 0.099820375 -0.10113371 -0.19963607 -0.3490437 -0.23770945 0.18561648
-0.38337398 -0.3172816 -0.11352156 -0.33603042 -0.41685635 -0.17747334 0.07595546 -0.14211394
00000000: 0164 473e 142f 1abd 265b 383e be33 55bc
00000010: 9d7a 8ebe 67ee 72be 03c3 31be a252 3abd
00000020: 673d 57be b190 cabe 1f71 a4bd 9e8c 2bbe
00000030: a2de 173d 8c03 b8bd e096 253e df89 973e
00000040: 1ea5 7dbe a4fb bd3d 63d0 7a3e 5520 72bd
00000050: c0d8 f9bd 491f 14be 813c 91be 8bed 7c3e
00000060: cf42 33be b986 47be 2b00 9d3e baec 2f3e
00000070: f3b1 03be 85fe 3ebe 7aba 29be f878 7abe
00000080: 6c0e 78be 94e2 c6be 90e8 a03e de27 a7bc
00000090: 69af 1ebe 41fe 82be faab 91be 7d94 febd
000000a0: 38b6 86bd 519e ec3d b40a b5be 2b91 37be
000000b0: 49e7 8bbd d0bb b8bd 5497 283e 3cec 51be
000000c0: 7507 71be de20 713e eade 84be ceef ee3c
000000d0: 3b20 08bd 6b42 d0bc 37f7 a83d fab0 cebe
000000e0: 58e3 c63d 6992 c1be c6da 363e fa9b ee3d
000000f0: 2412 73be 9ba7 9bbe e9eb 8d3e 50ab 9fbe
00000100: 5afd 0cbe 67f0 e5bd 24c6 83be 65ea 17be
00000110: 08fd 6fbe ef65 093d 4fce 16be 3cc4 d1bd
00000120: 0e34 92be dbdb c8be 55d6 aebe 532e f2bc
00000130: 8f9f 1dbe b086 e03e fa50 243c a6f0 af3e
00000140: 2f0a e0bd af51 c3bd 5aba 3b3e 1c39 6b3c
00000150: 6f5a 6fbd 5f67 99be 7db9 0abe 3cc3 823e
00000160: e7c3 9bbd f551 663c 9778 d73e a74d a93d
00000170: 4510 6cbe a921 023e 3b16 82be 363e 6bbe
00000180: d070 98be 5698 cabd 5f0e 43be 87d9 9fbe
00000190: c522 e73c 8fb1 d13d a664 a3be d799 4cbe
000001a0: 5d05 2cbe d349 073e 7e7e 95be ff21 dcbd
000001b0: b5f9 803c 2e49 91bc eeac 453e 6b91 63be
000001c0: 372a 1fbe 5322 223e c9ef ccbe c93b d73e
000001d0: 4444 2abe cfc4 903d fb71 883e 8e4e 5e3e
000001e0: 4638 b2bd c9c0 0dbe 3c10 32bc 2dbf 11be
000001f0: 670a 42be 5a5f 09be 5e53 dbbd 1162 49be
00000200: 3558 3fbc 8c9c 1b3e 3f30 c9bc 5fd4 c73d
00000210: ec12 643d 2b4e bcbe 380b 3cbe 6d54 59be
00000220: 1cb3 943d 8ae3 dd3e b7d8 a5be 56da c03d
00000230: 869c 433e 0b03 dbbe 9055 5bbe a3eb 45be
00000240: 6b65 223e dbb1 7c3e 11b4 c2bd d5ec b7bd
00000250: 621d 9e3c 60f4 6cbe cdfb d6bd 8740 a23d
00000260: 0c61 28be 01ed 33be a3fe 033e e19c d33d
00000270: 9135 7dbd e0ed 59be 6e2e 6abc 35da 25bc
00000280: 5363 95be 7f85 0c3e 5dbc 54be 1436 b6bd
00000290: 3944 53bd 2f0c 04be 3405 eebd ffd3 553d
000002a0: bfb3 83bd 679c 06be 7dea e83c 2d89 62bd
000002b0: cd74 1a3c e335 723d 29db 063e b572 253d
000002c0: 3a27 0a3e c904 49be ed18 553e d02b 383d
000002d0: 9041 cc3d 3415 053e 53b0 103e df16 213d
000002e0: d067 1ebe 9d35 2d3e e825 a3be 1e2a d2bd
000002f0: 8cde 1d3e c618 71bd 9452 963e 8b2c 053e
00000300: a980 a3be 563d 5fbe 8551 463e ce7a abbe
00000310: 40ef a6bd 620c d6be 2911 b7be 04e8 06bf
00000320: c010 8bbe 9773 4dbe 90fa e0be 3c0c 9ebe
00000330: 1b51 c9be 1e16 e03d 88bd 74be bced b0be
00000340: 1f54 28be a444 6bbe 0643 98bd 93f1 1abd
00000350: b08b 2abe c08f b5be 6753 f0bd 589e df3d
00000360: 319e 27bc 698b 66be 18d1 083d 7197 31be
00000370: 28fb 94bd d3f9 97bc d2bd f0bd 5567 a7be
00000380: 900b 95be ef19 99be bdb3 ed3e aed5 bbbd
00000390: 0460 25be 9f79 a6be 7819 efbe 859b 9ebe
000003a0: 255b 6dbe 3972 6cbe a96c b6be 947c 4cbe
000003b0: 9e00 80be b157 90be ebba ffbd e3c2 37be
000003c0: 05ce 463e b349 b4bd a06e cc3d 311f cfbd
000003d0: 666d 4cbe dbb5 b2be 1b6a 73be 3f12 3e3e
000003e0: 9849 c4be bc72 a2be fe7d e8bd 2e0c acbe
000003f0: 326e d5be 92bb 35be 898e 9b3d 5186 11be

lstm.bias_hh_l0 f4 [256]
0.09431357 -0.05018891 -0.04376836 0.094947696 -0.41243023 -0.11099535 -0.2103178 -0.024730807
-0.11447028 -0.37414613 0.0075304303 -0.34931308 -0.034200396 -0.18474647 0.048577797 0.34281167
-0.059156198 -0.13670291 0.079931855 -0.223748 -0.16408293 -0.3152581 -0.2895089 0.100365356
-0.089916125 -0.16308881 0.27982843 0.14346951 -0.10844533 -0.24309471 -0.228109 -0.26525635
-0.23418552 -0.35328993 0.49171782 -0.014838932 -0.180464 -0.2906501 -0.060688604 -0.2769504
-0.249853 0.17460553 -0.39165384 -0.13887662 -0.111964814 -0.3007072 0.07321275 -0.20295241
-0.19454393 0.27568713 -0.33970577 0.10124291 -0.13682081 0.121781245 -0.011727074 -0.39519256
0.02860706 -0.34732455 0.21545608 -0.016416457 -0.23525876 -0.24307844 0.30939445 -0.15546888
0.039630048 -0.18980247 -0.23402157 0.009263335 -0.25802878 0.10425706 -0.07932524 -0.041495785
-0.062045306 -0.36789906 -0.24541396 -0.13304913 -0.26150343 0.5582207 0.10820932 0.24931268
0.027604261 -0.16542496 0.31984457 -0.027704772 -0.09951375 -0.18448257 -0.1043949 0.16761701
-0.22629213 -0.083108164 0.39161327 0.0027529343 -0.061518453 0.10545083 -0.12200248 -0.24124943
-0.33034864 -0.15132034 -0.14646591 -0.33230433 -0.110692166 -0.08480959 -0.17630881 -0.20854352
-0.1580159 0.092181765 -0.29188845 -0.10728199 0.06500483 -0.007935874 0.2999373 -0.23905708
-0.0824222 0.295722 -0.17061618 0.31521708 -0.2903547 0.048974294 0.25738215 0.15626423
-0.16369127 -0.12321339 0.09560601 -0.16451737 -0.10964302 -0.16099843 0.042533405 -0.30816275
-0.012156201 -0.07527274 0.085426405 0.19434555 0.04058517 -0.28789237 -0.17877567 -0.17917159
0.014994541 0.40707386 -0.48645762 -0.022361558 0.25252086 -0.49326837 -0.0021869948 -0.40212658
-0.016771514 0.118181564 -0.085125916 0.08274739 0.0039119176 -0.30484796 0.0016634817 0.23328558
-0.19317585 -0.105015725 0.31119117 0.22082497 -0.10848241 -0.30101967 0.02389232 -0.06352253
-0.22294506 0.067664444 -0.0773173 -0.11549176 -0.19764231 -0.10741407 -0.083850645 -0.053335544
0.11215832 -0.2523997 -0.103435434 -0.017385658 -0.117847905 -0.10038657 0.025981331 0.04895973
0.1811798 -0.16193435 0.08974939 0.21987179 0.1816103 0.047471374 0.28699458 0.085629754
-0.2638555 0.022821998 -0.23793396 -0.06249343 0.046429843 -0.14416888 0.19928296 0.25206602
-0.47420242 -0.25155652 0.08703987 -0.16891707 0.05140182 -0.45251223 -0.42125708 -0.52910364
-0.15795915 -0.15802632 -0.3487887 -0.25149712 -0.50579596 -0.012304316 -0.28482333 -0.37364525
-0.121043116 -0.29410508 -0.14341007 0.002166539 -0.1733584 -0.23792522 -0.12791178 -0.06752812
-0.042667028 -0.11764978 0.14698319 -0.2393634 -0.24064763 -0.05867238 -0.18167879 -0.3583033
-0.31852475 -0.28676325 0.3082845 -0.041118287 -0.033929497 -0.43626106 -0.33060881 -0.2766325
-0.032953303 -0.25427842 -0.20923953 -0.25292528 -0.3312576 -0.19199081 -0.22756045 -0.041804157
0.035478625 0.060035154 -0.042905085 -0.19131808 -0.049028426 -0.3987223 -0.06628283 0.049615797
-0.18196268 -0.28721133 -0.060959905 -0.49965113 -0.4311999 -0.36646816 0.15704304 -0.21011752
00000000: 7927 c13d e392 4dbd 7446 33bd f073 c23d
00000010: 0e2a d3be 8851 e3bd 8d5d 57be 4398 cabc
00000020: 656f eabd 1590 bfbe d4c1 f63b 2ad9 b2be
00000030: b715 0cbd 2e2e 3dbe 83f9 463d 0385 af3e
00000040: c54d 72bd d9fb 0bbe 50b3 a33d 321e 65be
00000050: 5b05 28be 8269 a1be 833a 94be 5a8c cd3d
00000060: f225 b8bd c100 27be ac45 8f3e ace9 123e
00000070: 9618 debd d2ed 78be 6895 69be aecf 87be
00000080: 54ce 6fbe 6be2 b4be 70c2 fb3e fe1e 73bc
00000090: 8ecb 38be 17d0 94be 9d94 78bd 71cc 8dbe
000000a0: 77d9 7fbe cbcb 323e da86 c8be ac35 0ebe
000000b0: cf4d e5bd 4bf6 99be 91f0 953d c2d2 4fbe
000000c0: 8636 47be dd26 8d3e eaed adbe 7158 cf3d
000000d0: c11a 0cbe 7268 f93d ea22 40bc ae56 cabe
000000e0: 5a59 ea3c 86d4 b1be 85a0 5c3e ce7b 86bc
000000f0: ace7 70be 8ee9 78be f368 9e3e 3c33 1fbe
00000100: 1e53 223d 945b 42be 5aa3 6fbe 3ec5 173c
00000110: 591c 84be ba84 d53d 4575 a2bd 7cf7 29bd
00000120: 3823 7ebd 445d bcbe cc4d 7bbe 083e 08be
00000130: c7e3 85be 8de7 0e3f d99c dd3d d34b 7f3e
00000140: 5522 e23c 2965 29be abc2 a33e 1ef5 e2bc
00000150: ddcd cbbd 00e9 3cbe fecc d5bd cba3 2b3e
00000160: 20b9 67be 9d34 aabd 8981 c83e 936a 343b
00000170: c6fa 7bbd 9bf6 d73d 70dc f9bd 170a 77be
00000180: 7523 a9be b8f3 1abe 29fb 15be cb23 aabe
00000190: 93b2 e2bd a6b0 adbd 4c8a 34be 6f8c 55be
000001a0: ecce 21be cbc9 bc3d 6772 95be a9b6 dbbd
000001b0: 4121 853d 7805 02bc 6291 993e 61cb 74be
000001c0: f8cc a8bd e068 973e 02b6 2ebe 2264 a13e
000001d0: 5fa9 94be 4599 483d 98c7 833e bb03 203e
000001e0: af9e 27be 4d57 fcbd 15cd c33d 3e77 28be
000001f0: 858c e0bd c6dc 24be 8237 2e3d 82c7 9dbe
00000200: cd2a 47bc 9828 9abd 0af4 ae3d 8502 473e
00000210: a33c 263d a166 93be f810 37be c278 37be
00000220: aaab 753c fc6b d03e f910 f9be 962f b7bc
00000230: 6a4a 813e ac8d fcbe af53 0fbb 89e3 cdbe
00000240: 6a64 89bc 2d09 f23d 7f56 aebd 7777 a93d
00000250: 8b2f 803b 0815 9cbe 2f09 da3a 6ae2 6e3e
00000260: e4cf 45be 7c12 d7bd 7354 9f3e f11f 623e
00000270: 072c debd 401f 9abe d4b9 c33c 1a18 82bd
00000280: b64b 64be a893 8a3d 8858 9ebd f286 ecbd
00000290: bf62 4abe e8fb dbbd e3b9 abbd 5f76 5abd
000002a0: 43b3 e53d 893a 81be f5d5 d3bd 5e6c 8ebc
000002b0: 3e5a f1bd 7997 cdbd cdd6 d43c ff89 483d
000002c0: 3387 393e 1ed2 25be 87ce b73d 1226 613e
000002d0: 0df8 393e 5871 423d f4f0 923e a75e af3d
000002e0: 1118 87be 33f5 ba3c f6a4 73be 1cf9 7fbd
000002f0: 382d 3e3d 02a1 13be d510 4c3e cc0e 813e
00000300: a9ca f2be 04cc 80be f641 b23d 99f8 2cbe
00000310: b78a 523d afaf e7be 02af d7be 5673 07bf
00000320: 0bc0 21be a7d1 21be 6f94 b2be 3bc4 80be
00000330: d87b 01bf 0b98 49bc 5dd4 91be 6e4e bfbe
00000340: 74e5 f7bd f194 96be 17da 12be 7efc 0d3b
00000350: dd84 31be aba2 73be 4efb 02be 2f4c 8abd
00000360: 9fc3 2ebd 5ef2 f0bd c382 163e ae1b 75be
00000370: 556c 76be 7352 70bd 010a 3abe 8873 b7be
00000380: ad15 a3be a2d2 92be 77d7 9d3e a66b 28bd
00000390: a8f9 0abd 9c5d dfbe 8f45 a9be c6a2 8dbe
000003a0: 0bfa 06bd c830 82be e342 56be 6c7f 81be
000003b0: 999a a9be 3d99 44be 9b05 69be d63a 2bbd
000003c0: 0952 113d 6ce7 753d 3ebd 2fbd e3e8 43be
000003d0: 08d2 48bd 5425 ccbe 4bbf 87bd ef39 4b3d
000003e0: 6d54 3abe 5d0d 93be 18b1 79bd 46d2 ffbe
000003f0: 3cc6 dcbe b7a1 bbbe e4cf 203e 0c29 57be

lstm.weight_ih_l1 f4 [256, 64]
0.041293208 0.17164299 -0.18906902 -0.012588513 -0.15063268 0.16295898 0.027159784 -0.02216183
-0.05557553 -0.033775445 0.009014956 0.027262973 -0.10638471 -0.017426915 0.0941992 -0.009728702
-0.06869213 0.010068567 -0.05512843 0.09046427 -0.056207165 -0.008714813 0.14158069 -0.016311314
-0.12920377 -0.007231162 0.07007107 -0.014477889 -0.024715064 0.1201597 0.023415394 -0.0846094
-0.096163675 -0.09352482 -0.06607117 0.060606766 0.2750443 -0.054971933 -0.26373082 0.22297068
0.14073272 -0.19382985 0.12814532 -0.049344365 -0.1666456 -0.001987827 0.17118995 -0.054072343
0.02413083 -0.15137911 0.4100793 0.01755091 0.012413219 0.094057485 0.20689845 -0.18439174
-0.06959158 -0.2023671 0.21185195 -0.09958675 0.030150887 -0.059334673 0.1351524 0.10147353
-0.1490737 -0.007999979 -0.06469303 -0.04394399 -0.14249393 -0.079233706 -0.03384695 -0.12752417
-0.12497691 0.0054272762 -0.06351129 -0.1174899 0.09158822 0.084553145 0.02270405 -0.11373482
-0.0074093137 0.011506074 -0.18465671 -0.073348686 -0.09147706 0.10567917 -0.078298554 -0.024243316
-0.062312678 -0.10214897 -0.03646379 0.15723193 -0.16194138 0.18475623 0.079126015 0.07009559
0.0114925355 -0.08414294 -0.04924199 0.14130788 0.043878004 0.0004853003 0.022040926 -0.10494126
-0.004481423 0.025098624 -0.12917563 -0.046949614 -0.09689649 -0.1336651 -0.14640014 0.04524819
0.15575415 -0.011604784 0.12353872 -0.01826533 0.13288419 -0.08171948 0.07712681 -0.23161739
0.10294927 -0.046445645 0.11812319 -0.019358352 -0.15128095 -0.116832465 -0.03948778 0.080882855
-0.19316447 -0.12824829 -0.020495435 -0.14510405 -0.22893319 0.039973702 0.09703452 -0.017022729
-0.10110818 -0.1235403 0.08073785 -0.110393435 0.20114897 0.06876769 0.005646431 -0.041492548
-0.010819209 0.07741652 -0.048631087 0.001494189 -0.014604965 0.16992724 -0.012463648 0.1970156
-0.08504946 0.033150073 -0.0824992 0.070267476 0.05582592 0.11528441 0.15190445 -0.035603017
0.10641239 -0.045961406 0.12322823 0.004781475 0.112445876 -0.06896721 -0.08300476 -0.026285423
0.036560863 -0.07932409 -0.029802235 -0.06306159 -0.06943256 0.045712847 -0.11348907 0.21239528
0.22105384 -0.15796866 0.21328712 0.07912322 0.15244944 -0.0020444905 0.18407348 -0.07838011
-0.12182625 0.039331257 0.03876975 -0.019462956 -0.016365124 -0.108939074 0.07940738 -0.0059559057
0.029727854 -0.031178031 -0.024330223 0.0063089137 -0.20322742 0.045111164 0.0562418 -0.1407406
-0.08368355 -0.014051017 -0.13916302 0.06710011 -0.09403043 0.11957946 -0.061018687 -0.10280444
-0.03297226 0.15090065 -0.071791895 -0.06455077 0.025049811 0.01668974 0.035956457 0.069524005
0.0819396 -0.045732286 0.051322445 0.06996321 -0.101922356 0.09407348 0.051513758 -0.096601084
-0.04295142 0.10042242 0.12791623 -0.13049625 0.016409406 -0.017564436 -0.1112798 0.07617842
-0.010739196 -0.08495311 0.06406966 -0.17850839 -0.10516366 0.17046829 0.18685117 0.025348783
0.18342668 0.05752352 -0.01240418 0.24487823 0.13488643 0.044645693 -0.10414941 -0.14435099
-0.13633384 -0.01773132 -0.14909562 0.058439206 -0.073682 -0.059664022 0.32933444 0.047929026
00000000: 1123 293d 2ec3 2f3e 4f9b 41be 0d40 4ebc
00000010: 743f 1abe b8de 263e 327e de3c ba8c b5bc
00000020: 2ba3 63bd 1f58 0abd 77b3 133c 9956 df3c
00000030: 3ae0 d9bd e4c2 8ebc 83eb c03d 2265 1fbc
00000040: 76ae 8cbd a1f6 243c 59ce 61bd 5545 b93d
00000050: 7c39 66bd 93c8 0ebc 87fa 103e 4e9f 85bc
00000060: fe4d 04be 62f3 ecbb 6c81 8f3d ab34 6dbc
00000070: 3f77 cabc 4a16 f63d a4d1 bf3c b147 adbd
00000080: 76f1 c4bd f189 bfbd 5250 87bd cd3e 783d
00000090: 9bd2 8c3e 402a 61bd ba07 87be 6d52 643e
000000a0: 3d1c 103e 557b 46be 8738 033e 511d 4abd
000000b0: 25a5 2abe 3446 02bb 6b4c 2f3e f67a 5dbd
000000c0: 05ae c53c 2003 1bbe eaf5 d13e edc6 8f3c
000000d0: d060 4b3c 36a1 c03d 30dd 533e 30d1 3cbe
000000e0: 0886 8ebd 5239 4fbe b8ef 583e 23f4 cbbd
000000f0: fefe f63c ea08 73bd 6465 0a3e 5bd1 cf3d
00000100: c7a6 18be 5812 03bc c87d 84bd 9dfe 33bd
00000110: eee9 11be 4845 a2bd 19a3 0abd b295 02be
00000120: e5f3 ffbd 4bd7 b13b 3512 82bd 8b9e f0bd
00000130: 9b92 bb3d 332a ad3d d8fd b93c cded e8bd
00000140: d4c9 f2bb f983 3c3c a616 3dbe d637 96bd
00000150: 5358 bbbd 526e d83d fe5a a0bd eb99 c6bc
00000160: 943b 7fbd 7b33 d1bd 0e5b 15bd 6801 213e
00000170: f6d3 25be bd30 3d3e d20c a23d 478e 8f3d
00000180: 304b 3c3c 2253 acbd f8b1 49bd 03b3 103e
00000190: 6cb9 333d e76f fe39 2c8f b43c 71eb d6bd
000001a0: e7d8 92bb a19b cd3c 9e46 04be 3d4e 40bd
000001b0: ab71 c6bd 81df 08be ebe9 15be 2b56 393d
000001c0: 047e 1f3e fe21 3ebc de01 fd3d 2ca1 95bc
000001d0: cb12 083e 8b5c a7bd a9f4 9d3d 1c2d 6dbe
000001e0: 11d7 d23d ca3d 3ebd 92ea f13d 6895 9ebc
000001f0: 65e9 1abe dc45 efbd f0bd 21bd e9a5 a53d
00000200: e8cc 45be 8553 03be 0be6 a7bc 2896 14be
00000210: 766d 6abe 77bb 233d 09ba c63d 4073 8bbc
00000220: ce11 cfbd b202 fdbd e359 a53d f415 e2bd
00000230: fff9 4d3e 13d6 8c3d b205 b93b 17f4 29bd
00000240: 0d43 31bc 8d8c 9e3d 6431 47bd aad8 c33a
00000250: aa49 6fbc 6801 2e3e 5434 4cbc 75be 493e
00000260: 692e aebd 5fc8 073d 57f5 a8bd 65e8 8f3d
00000270: b8a9 643d 3c1a ec3d d78c 1b3e 78d4 11bd
00000280: bdee d93d 0742 3cbd 155f fc3d ebad 9c3b
00000290: 064a e63d ae3e 8dbd 66fe a9bd 8754 d7bc
000002a0: d8c0 153d ab74 a2bd d123 f4bc 6f26 81bd
000002b0: a832 8ebd 653d 3b3d f56c e8bd 267e 593e
000002c0: f05b 623e 89c2 21be f067 5a3e 5b0b a23d
000002d0: b51b 1c3e dcfc 05bb c27d 3c3e c085 a0bd
000002e0: 0a80 f9bd d019 213d 08cd 1e3d c770 9fbc
000002f0: 2710 86bc 731b dfbd 56a0 a23d c229 c3bb
00000300: d487 f33c 1269 ffbc 2d50 c7bc 01bb ce3b
00000310: d91a 50be 7cc6 383d cd5d 663d 4e1e 10be
00000320: 4862 abbd 3d36 66bc c080 0ebe c86b 893d
00000330: 0793 c0bd 13e6 f43d bbee 79bd 228b d2bd
00000340: ec0d 07bd b385 1a3e a107 93bd 3233 84bd
00000350: 4335 cd3c ecb8 883c 1447 133d 9a62 8e3d
00000360: f3cf a73d c751 3bbd 7c37 523d df48 8f3d
00000370: abbc d0bd 99a9 c03d 1700 533d cad6 c5bd
00000380: d4ed 2fbd 45aa cd3d 79fc 023e cfa0 05be
00000390: 056d 863c 4be3 8fbc aae6 e3bd 6e03 9c3d
000003a0: 74f3 2fbc e5fb adbd f436 833d e7ca 36be
000003b0: 0c60 d7bd 3d8f 2e3e ea55 3f3e 40a8 cf3c
000003c0: 34d4 3b3e c89d 6b3d e73a 4bbc 5cc1 7a3e
000003d0: ab1f 0a3e 67de 363d 494c d5bd bfd0 13be
000003e0: 199b 0bbe 4641 91bc 86ac 18be f35d 6f3d
000003f0: 97e6 96bd 4362 74bd 869e a83e 3a51 443d

lstm.weight_hh_l1 f4 [256, 64]
-0.037280425 -0.08563745 -0.25518632 0.22910902 -0.1505993 0.088702075 -0.1295371 -0.033159878
0.041247297 0.13448393 -0.07411652 -0.102611184 -0.22042754 -0.19391263 -0.024099007 -0.19080493
0.17833452 -0.14510454 -0.11282487 -0.08750683 -0.32118538 0.3012695 0.11754356 -0.0858402
-0.03589952 -0.0905556 0.41585732 0.010434165 -0.022997743 -0.045752864 -0.15572754 0.0583079
0.15044287 0.013733559 -0.13688645 -0.19798346 -0.17088234 -0.3855628 0.061593782 -0.07949015
0.08043485 -0.28200328 0.004376319 -0.18694353 -0.29800674 -0.0642227 0.1419751 -0.16193217
-0.22914125 -0.3886459 -0.16398178 0.15637185 -0.10537965 0.024449674 -0.15864381 0.21321282
-0.13805273 -0.31612223 0.29005656 -0.017228417 -0.0087263035 0.21176085 0.3004597 0.12558731
-0.0014932882 -0.03568945 -0.024234027 -0.047365103 -0.06311888 0.217234 0.10011563 0.10385519
-0.08408108 -0.06864193 0.09444734 0.020900631 0.033617254 0.021466993 -0.18208468 -0.24332504
-0.038541947 -0.17939629 0.03857714 -0.00670469 -0.10883839 0.13962866 -0.014440987 -0.06626336
0.031706322 -0.08523795 -0.0111603355 0.06836884 0.18086362 0.0176282 0.10600029 0.07442623
-0.05064106 -0.120542586 -0.095595606 -0.11121619 -0.03292309 -0.012200092 -0.015943546 0.041690353
0.06333087 -0.062076658 0.015641643 -0.11854668 -0.13398841 -0.013778824 0.04292002 -0.04590998
0.058019437 -0.03126746 -0.06871316 0.12524658 -0.1087077 0.051020723 -0.057006564 0.14351724
0.10078696 -0.07372854 0.0988439 0.06318019 0.11204111 -0.014565063 0.19310263 0.1383325
-0.09105227 -0.06707526 0.012658601 0.15866424 -0.22343576 0.20181295 -0.114416 0.15829366
-0.15801762 0.0659509 -0.013319313 0.011321019 0.060407054 -0.13416961 -0.13581938 -0.22136216
-0.06560539 -0.087776236 -0.036705807 -0.07343602 -0.21144508 0.17153777 -0.16835429 0.01951932
-0.07009155 0.20353709 0.03185706 -0.013751397 -0.009702176 -0.11935648 -0.046955146 0.06307158
0.017824413 0.010285782 0.0039407006 -0.17852543 -0.1295512 -0.13097714 0.14374726 -0.07012954
0.062404905 -0.11005079 0.18882556 -0.0016148341 -0.12543808 -0.10891309 0.1423925 -0.060234696
-0.14254975 0.0322349 -0.0018029427 0.09934416 -0.0035590734 -0.048485816 -0.19872504 0.06222566
-0.20407483 -0.051350046 0.1685548 0.07685321 -0.09471067 -0.022638462 0.15972683 0.16645128
0.042373188 -0.120965004 -0.06376456 0.13777675 0.047966037 0.09800955 0.0677027 0.012205597
0.026162183 0.045422245 -0.21001123 -0.090306915 -0.03890426 -0.053188995 0.04759641 0.08477977
0.032571234 -0.16669282 -0.09417487 -0.044845916 0.011056791 0.13361573 -0.006633835 0.1135822
-0.00078315096 0.034497604 0.05699079 -0.058529776 -0.0025875443 -0.078214996 -0.013109061 -0.014387641
0.12561683 0.094268315 0.046068873 -0.17411812 -0.03914865 -0.15807885 0.051703136 -0.09530164
0.025469732 -0.0973377 -0.03310353 -0.09253964 0.027789442 -0.0387175 0.14077146 -0.030268919
-0.16338879 -0.10521839 0.013373152 -0.018128786 0.12515987 0.022894403 0.035807744 0.051442873
-0.20259652 0.017253166 -0.009997251 0.067622274 0.070256375 -0.009868514 0.11189628 0.019608423
00000000: 5cb3 18bd b062 afbd c8a7 82be 8e9b 6a3e
00000010: b436 1abe 6fa9 b53d 60a5 04be a7d2 07bd
00000020: edf2 283d 28b6 093e 67ca 97bd d025 d2bd
00000030: c2b7 61be 0891 46be 486b c5bc 5e62 43be
00000040: 539d 363e 4996 14be ba10 e7bd c836 b3bd
00000050: 6972 a4be ff3f 9a3e aeba f03d fdcc afbd
00000060: 600b 13bd 3775 b9bd 40eb d43e 0ff4 2a3c
00000070: c365 bcbc 5b67 3bbd 0a77 1fbe 44d4 6e3d
00000080: b20d 1a3e b902 613c f62b 0cbe 2dbc 4abe
00000090: c8fb 2ebe 7d68 c5be c349 7c3d bbcb a2bd
000000a0: 07bb a43d bc62 90be 3967 8f3b 206e 3fbe
000000b0: 5794 98be 3187 83bd ec61 113e 8cd1 25be
000000c0: 01a4 6abe 98fc c6be d7ea 27be f11f 203e
000000d0: 49d1 d7bd af4a c83c 8673 22be 7654 5a3e
000000e0: b25d 0dbe c6da a1be 4b82 943e 9c22 8dbc
000000f0: c5f8 0ebc d6d7 583e dbd5 993e f699 003e
00000100: 70ba c3ba 1a2f 12bd 7086 c6bc e901 42bd
00000110: 7944 81bd 9772 5e3e 6c09 cd3d 08b2 d43d
00000120: b432 acbd 2494 8cbd 9b6d c13d cd37 ab3c
00000130: 3fb2 093d 8cdb af3c 6874 3abe 332a 79be
00000140: 29de 1dbd a9b3 37be 1003 1e3d 04b3 dbbb
00000150: a9e6 debd d1fa 0e3e e499 6cbc 16b5 87bd
00000160: 7dde 013d 3c91 aebd d7d9 36bc f604 8c3d
00000170: 5034 393e 0469 903c ae16 d93d c76c 983d
00000180: 006d 4fbd 08df f6bd a1c7 c3bd 50c5 e3bd
00000190: 5dda 06bd e5e2 47bc 0a9c 82bc 81c3 2a3d
000001a0: 9db3 813d 1844 7ebd e722 803c 9ac8 f2bd
000001b0: 4234 09be 94c0 61bc e7cc 2f3d 1a0c 3cbd
000001c0: caa5 6d3d 4f12 00bd 7cb9 8cbd a440 003e
000001d0: 25a2 debd 1bfb 503d b77f 69bd 2ff6 123e
000001e0: 6569 ce3d fdfe 96bd ac6e ca3d 9e64 813d
000001f0: cf75 e53d 4da2 6ebc b2bc 453e 09a7 0d3e
00000200: 9d79 babd c15e 89bd 0566 4f3c e178 223e
00000210: 58cc 64be 0ea8 4e3e f052 eabd bc17 223e
00000220: 5fcf 21be 4411 873d 3f39 5abc cc7b 393c
00000230: 636d 773d c263 09be 3c14 0bbe c3ac 62be
00000240: 1e5c 86bd 07c4 b3bd d458 16bd a065 96bd
00000250: 0f85 58be 99a7 2f3e 1165 2cbe fbe6 9f3c
00000260: 298c 8fbd 076c 503e 8c7c 023d 8a4d 61bc
00000270: e0f5 1ebc 2c71 f4bd 0a54 40bd ac2b 813d
00000280: 8104 923c b285 283c fe20 813b 5fcf 36be
00000290: 12a9 04be df1e 06be 7b32 133e 14a0 8fbd
000002a0: 499c 7f3d 4f62 e1bd 7d5b 413e d7a8 d3ba
000002b0: d772 00be d30d dfbd 57cf 113e a8b8 76bd
000002c0: 90f8 11be be08 043d b850 ecba f374 cb3d
000002d0: 583f 69bb 1099 46bd 947e 4bbe 55e0 7e3d
000002e0: fef8 50be 6d54 52bd a199 2c3e 3765 9d3d
000002f0: abf7 c1bd 4c74 b9bc 6e8f 233e 3472 2a3e
00000300: 828f 2d3d 80bc f7bd fe96 82bd 5915 0d3e
00000310: 0978 443d 3bb9 c83d b7a7 8a3d fcf9 473c
00000320: 1352 d63c ad0c 3a3d 2f0d 57be d5f2 b8bd
00000330: 135a 1fbd b4dc 59bd 74f4 423d 04a1 ad3d
00000340: 6a69 053d 86b1 2abe c1de c0bd 5ab0 37bd
00000350: 8b27 353c 90d2 083e a460 d9bb c99d e83d
00000360: 5f4c 4dba 5c4d 0d3d 2d6f 693d ebbc 6fbd
00000370: ca93 29bb 2f2f a0bd 63c7 56bc 24ba 6bbc
00000380: b3a1 003e bf0f c13d b7b2 3c3d 054c 32be
00000390: 565a 20bd 6cdf 21be abc6 533d 822d c3bd
000003a0: e6a5 d03c fd58 c7bd 9197 07bd 6c85 bdbd
000003b0: afa6 e33c 3e96 1ebd 6526 103e 86f6 f7bc
000003c0: 644f 27be bd7c d7bd 111b 5b3c d282 94bc
000003d0: e929 003e 0b8d bb3c 24ab 123d c3b5 523d
000003e0: 7675 4fbe 8356 8d3c 83cb 23bc 8c7d 8a3d
000003f0: 93e2 8f3d 8caf 21bc e029 e53d d8a1 a03c

lstm.bias_ih_l1 f4 [256]
0.17971985 -0.13053747 0.16185117 -0.05950459 -0.07841476 0.10259159 -0.067458265 -0.12603422
-0.099435836 0.0774818 -0.059719045 0.034938365 0.07341263 0.11079973 -0.14074375 0.17092681
-0.34315902 -0.011493827 0.0065941564 -0.20247461 0.045286804 0.067004755 -0.051299643 -0.18490681
-0.08741394 -0.1671305 -0.019458422 -0.08852943 0.1227486 -0.18422598 -0.05097982 0.087161124
0.15902612 0.106765494 -0.082901455 -0.25770286 0.11302852 0.03986652 -0.032381408 -0.10123168
0.06929428 0.106365636 0.02072636 -0.036563687 0.05831972 -0.1443972 0.09782958 0.08728135
0.14277783 -0.33239406 0.03658407 -0.03706519 -0.14481792 -0.09260675 -0.15171504 0.1811759
0.09362593 0.0019648073 -0.07138622 -0.14289983 -0.13317867 -0.040384118 0.095767446 0.033985846
-0.16303529 0.05045945 0.14867873 0.08059069 0.055399794 0.08388143 0.16614684 0.030154368
0.061068807 -0.31227264 -0.040512517 0.17916232 -0.26438242 0.09504608 -0.06641051 0.027875578
-0.10972189 0.03927886 0.008997432 -0.019535786 0.26345268 0.11180927 -0.101611175 0.0861434
-0.15906453 -0.19313599 0.12485891 -0.14059076 -0.2280054 -0.047491483 -0.03326141 -0.038220704
-0.016420081 0.06540374 0.028216422 -0.011203564 -0.172445 -0.0002834632 0.124654464 0.04345847
-0.08859221 -0.061769526 0.056172397 0.1637816 -0.048718438 -0.14800552 0.03835428 0.1398078
0.033729028 -0.20940465 0.11768497 0.15302154 -0.19419366 0.04704118 -0.14749551 0.024813613
0.016856961 0.22254564 -0.12188458 -0.055282228 -0.013280744 0.03750641 0.033945423 0.08812359
0.1657036 -0.063202634 -0.10161461 0.02308418 -0.07855319 -0.073461756 -0.13854818 0.011800332
0.050939 0.08440227 -0.0347055 0.04462971 -0.090627156 -0.08764465 -0.064335026 -0.06807294
-0.058297344 0.038881607 0.043852087 0.09043611 -0.03936367 0.17533556 -0.0071662767 -0.117714904
0.039452188 0.07391872 0.0999835 0.2574043 0.097421266 0.06747351 -0.061484642 -0.05998999
0.18984379 -0.0522948 0.07435704 0.036628556 -0.15497716 0.032153565 0.0061932285 0.07113059
-0.10169262 -0.06911006 0.031618178 -0.13308185 -0.110644884 -0.09895168 -0.05125781 0.045642342
0.11742052 -0.08104996 0.119166404 0.015451385 0.03293835 -0.12720104 0.054939393 0.019724967
0.058994856 -0.12225073 0.025438016 0.028845215 -0.07126968 0.055938117 0.1760098 -0.05441127
0.21914709 0.11977029 0.26632318 0.09908821 -0.017682489 0.12887312 -0.25618634 0.0087347645
-0.16642243 0.08987179 -0.1492938 0.22059782 0.15499333 0.25111467 0.17312066 0.1947686
-0.2729766 0.23863758 -0.1225618 -0.17296354 0.46607944 0.2304178 -0.15248057 -0.21424456
-0.117876165 -0.114778884 0.2815314 -0.21110645 -0.40062472 -0.2742201 0.0791496 -0.13522643
-0.18000767 0.04149804 -0.049945325 0.06486281 -0.17236336 0.16230038 0.28619477 -0.19265027
-0.31554708 0.1899756 -0.057140857 0.21987587 0.26293463 0.040347263 0.15326408 0.07248453
0.28570956 0.19496268 -0.07107638 0.04700612 -0.28540963 -0.20184882 -0.00023008166 0.06536367
-0.19115601 0.09967681 0.2202874 0.0015899406 -0.13204333 0.060364358 -0.49719924 0.2718405
00000000: 7b08 383e 9dab 05be 50bc 253e 16bb 73bd
00000010: eb97 a0bd 8a1b d23d 8f27 8abd 1d0f 01be
00000020: 04a5 cbbd c7ae 9e3d f59b 74bd 881b 0f3d
00000030: 5c59 963d f8ea e23d 211f 10be 7007 2f3e
00000040: 8ab2 afbe 9b50 3cbc cb13 d83b 8155 4fbe
00000050: a87e 393d ca39 893d 931f 52bd 3658 3dbe
00000060: 1406 b3bd 4224 2bbe 4567 9fbc eb4e b5bd
00000070: 9e63 fb3d bca5 3cbe 37d0 50bd 8881 b23d
00000080: bed7 223e dea7 da3d 3dc8 a9bd a1f1 83be
00000090: 7f7b e73d 134b 233d 5ea2 04bd 8e52 cfbd
000000a0: 29ea 8d3d 3ad6 d93d 54ca a93c cec3 15bd
000000b0: a9e0 6e3d dcdc 13be e05a c83d 90c0 b23d
000000c0: 5a34 123e 8e2f aabe 2ed9 153d abd1 17bd
000000d0: 264b 14be 9ca8 bdbd 305b 1bbe 2d86 393e
000000e0: f4be bf3d ffc3 003b f032 92bd 5554 12be
000000f0: fd5f 08be d169 25bd b921 c43d be34 0b3d
00000100: b9f2 26be 91ae 4e3d 3d3f 183e bb0c a53d
00000110: e5ea 623d 07ca ab3d 6622 2a3e 4b06 f73c
00000120: 4923 7a3d 33e2 9fbe 74f0 25bd 5476 373e
00000130: 225d 87be 85a7 c23d 3c02 88bd 535b e43c
00000140: dfb5 e0bd dfe2 203d f769 133c 8309 a0bc
00000150: 45e3 863e 42fc e43d 8519 d0bd f36b b03d
00000160: d0e1 22be 71c5 45be 07b6 ff3d 06f7 0fbe
00000170: 3f7a 69be 6e86 42bd 1e3d 08bd 508d 1cbd
00000180: 6883 86bc 65f2 853d 2026 e73c 278f 37bc
00000190: 6c95 30be c99d 94b9 d74a ff3d 8201 323d
000001a0: d56f b5bd 0b02 7dbd 0715 663d 5db6 273e
000001b0: fc8c 47bd c28e 17be 6119 1d3d c729 0f3e
000001c0: 7327 0a3d 2c6e 56be d104 f13d aeb1 1c3e
000001d0: b4da 46be 41ae 403d 1009 17be eb45 cb3c
000001e0: 9c17 8a3c 01e3 633e 9f9e f9bd 9e6f 62bd
000001f0: 7a97 59bc 52a0 193d 5b0a 0b3d 247a b43d
00000200: 34ae 293e 6270 81bd 521b d0bd 091b bd3c
00000210: 7fe0 a0bd 1e73 96bd 93df 0dbe 2e56 413c
00000220: 6aa5 503d 19db ac3d 5b27 0ebd a5cd 363d
00000230: bb9a b9bd 0a7f b3bd 15c2 83bd d369 8bbd
00000240: 32c9 6ebd 5242 1f3d 3f9e 333d 9136 b93d
00000250: cd3b 21bd 2a8b 333e 16d3 eabb 8314 f1bd
00000260: 9e98 213d b362 973d 26c4 cc3d 7fca 833e
00000270: cd84 c73d 8d2f 8a3d 52d7 7bbd 10b8 75bd
00000280: 6966 423e 1233 56bd 8148 983d d307 163d
00000290: 55b2 1ebe 75b3 033d 91f0 ca3b eaac 913d
000002a0: 3844 d0bd 9389 8dbd 1082 013d 9c46 08be
000002b0: c999 e2bd 2ea7 cabd b6f3 51bd 77f3 3a3d
000002c0: 2b7a f03d 85fd a5bd 840d f43d ce27 7d3c
000002d0: 5dea 063d fd40 02be 2108 613d 4196 a13c
000002e0: 97a4 713d 975e fabd 6363 d03c cd4c ec3c
000002f0: d7f5 91bd 5e1f 653d ea3b 343e 5ade 5ebd
00000300: 1868 603e 204a f53d 835b 883e c2ee ca3d
00000310: deda 90bc 51f7 033e db2a 83be 421c 0f3c
00000320: a46a 2abe b30e b83d 79e0 18be 65e4 613e
00000330: 92b6 1e3e 1a92 803e 8b46 313e 6b71 473e
00000340: 97c3 8bbe 695d 743e ae01 fbbd 5b1d 31be
00000350: f7a1 ee3e a5f2 6b3e de23 1cbe ed62 5bbe
00000360: 0f69 f1bd 3111 ebbd e224 903e 4a2c 58be
00000370: af1e cdbe 9466 8cbe 2f19 a23d cc78 0abe
00000380: ee53 38be d9f9 293d 7893 4cbd cbd6 843d
00000390: 0580 30be 1232 263e 1f88 923e 1d46 45be
000003a0: 638f a1be f788 423e 880c 6abd 2427 613e
000003b0: 5e9f 863e 2c43 253d 42f1 1c3e c572 943d
000003c0: 8648 923e 4ca4 473e 7e90 91bd 7d89 403d
000003d0: 3621 92be 75b1 4ebe 1342 71b9 63dd 853d
000003e0: 67be 43be 5b23 cc3d 0593 613e 8e65 d03a
000003f0: 5e36 07be 9e40 773d e690 febe ae2e 8b3e

lstm.bias_hh_l1 f4 [256]
0.025553929 -0.12306112 0.01874059 -0.121263325 0.020902015 0.0895602 -0.16940118 -0.04042418
-0.25439328 0.15530342 -0.098982856 0.21959986 0.19732128 0.07685461 -0.11413326 0.022641944
-0.2926009 0.14703934 0.1998437 -0.17288017 0.2755545 -0.01798646 -0.14576425 -0.062063944
-0.11419524 -0.1737434 -0.04659535 -0.030186122 0.17464668 -0.12175161 0.06355765 0.067129746
-0.0692054 0.07390306 -0.24622574 -0.1313253 0.04651496 0.035835706 0.06507184 -0.006569217
0.08855907 -0.054458566 -0.0009367513 0.19049935 0.12348527 -0.23236443 0.16020718 0.11497833
0.046852592 -0.2652287 0.067786746 0.010124209 -0.14451617 -0.19777915 -0.08237049 0.108205564
-0.0013749397 0.0032941108 -0.05893933 -0.093453415 -0.18921001 0.033531085 0.2474877 0.053627245
-0.24941248 -0.03894073 0.12801307 0.069728225 0.17955594 0.08069241 -0.010503107 0.11432301
-0.058221713 -0.19834389 0.0149311125 0.04260482 -0.16737413 0.15161169 0.02195679 0.22039978
-0.24548902 -0.012015087 -0.017048819 -0.11638512 0.21398553 0.049866322 0.019950239 -0.08578137
-0.0017605966 -0.09861692 -0.03631701 -0.04541201 -0.111678824 -0.1755853 0.09667127 0.020685025
-0.12862654 0.23267463 -0.14273272 -0.12152233 -0.28742206 0.14213464 0.13016067 -0.09014199
-0.05591165 0.042789664 -0.104556985 8.869569e-05 0.12344108 -0.07845404 0.098928824 -0.048759233
0.13732506 -0.1461165 -0.006765898 -0.05307378 -0.23779505 -0.02499287 -0.14308135 0.057205237
0.109817296 0.11459228 -0.084233455 -0.02321004 -0.08115665 -0.019457173 0.03295684 -0.02587341
0.19860607 -0.10371962 -0.25191286 -0.05433563 -0.12027139 0.06839455 0.0069524087 0.075475276
0.046712525 0.07489391 -0.08453273 0.03318425 -0.23257312 0.0051093996 -0.09262026 0.012729963
-0.030126853 -0.028745022 -0.06119394 -0.068458624 -0.019824335 0.03156151 -0.0104148155 0.0098462375
0.006374697 -0.1587375 0.09044281 0.055752613 0.05654364 -0.13225725 -0.12413005 0.035064105
0.0033288256 -0.087879725 0.0031279782 -0.09571715 -0.119733274 -0.07199578 -0.030740865 -0.082170054
0.05324685 -0.04614149 0.12189298 -0.016851041 0.041137103 -0.06313884 0.010948756 0.022579916
0.13835707 -0.1562727 -0.07191797 0.070918836 0.09267337 0.023248672 -0.0117128845 -0.054779407
-0.13292323 -0.016708182 -0.08972254 -0.010426563 -0.029487552 -0.038276818 0.04647034 0.16979367
0.19740075 -0.012501626 0.08877721 0.20816243 -0.03269549 0.17451273 -0.29507703 -0.2157212
-0.1414535 0.096722834 -0.013767398 0.21984775 0.124455035 0.34525123 0.21027029 0.14556289
-0.15436493 0.27040535 -0.14008626 -0.21355116 0.43330324 0.19752365 -0.17688888 -0.064666405
-0.11268611 -0.14342003 0.24589257 -0.14881329 -0.17838386 -0.1928951 0.19309394 -0.22724156
-0.24802636 0.2063854 -0.032741863 -0.09174489 -0.11669715 0.111204565 0.1653887 -0.09308261
-0.25471124 0.07789262 -0.11340714 0.119328685 0.18023224 0.03312582 0.26398292 0.09987904
0.34142488 0.11504106 -0.3139156 0.08946318 -0.27058995 -0.077866375 -0.12243708 0.17311256
-0.19514854 0.17292857 0.0057285987 -0.13181427 -0.19797719 0.045368943 -0.43984675 0.20875444
00000000: 7956 d13c 7807 fcbd de85 993c e858 f8bd
00000010: b43a ab3c 576b b73d 8177 2dbe d393 25bd
00000020: d63f 82be dc07 1f3e 86b7 cabd c9de 603e
00000030: 970e 4a3e f365 9d3d b3be e9bd 997b b93c
00000040: c9cf 95be 7b91 163e d4a3 4c3e 8007 31be
00000050: 7b15 8d3e 5758 93bc 3943 15be c336 7ebd
00000060: 32df e9bd cae9 31be c4da 3ebd e348 f7bc
00000070: 94d6 323e e858 f9bd 832a 823d 527b 893d
00000080: 90bb 8dbd 7d5a 973d 9a22 7cbe 247a 06be
00000090: 7886 3e3d 76c8 123d 6344 853d 9642 d7bb
000000a0: 755e b53d f20f 5fbd 5190 75ba 4312 433e
000000b0: d8e5 fc3d f1f0 6dbe 5a0d 243e c279 eb3d
000000c0: 81e8 3f3d 0ecc 87be c7d3 8a3d 03e0 253c
000000d0: 0cfc 13be 9e86 4abe dcb1 a8bd e19a dd3d
000000e0: 5237 b4ba 02e2 573b 5e6a 71bd 8164 bfbd
000000f0: 45c0 41be e457 093d 6a6d 7d3e 3ea8 5b3d
00000100: fc65 7fbe 5180 1fbd dc15 033e accd 8e3d
00000110: 83dd 373e 1042 a53d 3915 2cbc 2f22 ea3d
00000120: e479 6ebd a91a 4bbe a0a1 743c 6482 2e3d
00000130: 2064 2bbe 1840 1b3e bade b33c 7bb0 613e
00000140: 7961 7bbe edda 44bc f7a9 8bbc 525b eebd
00000150: 061f 5b3e a140 4c3d af6e a33c 25ae afbd
00000160: d2c3 e6ba abf7 c9bd 25c1 14bd f201 3abd
00000170: deb7 e4bd a2cc 33be 96fb c53d a473 a93c
00000180: adb6 03be 4242 6e3e 8728 12be b3e0 f8bd
00000190: fc28 93be be8b 113e d748 053e 5d9c b8bd
000001a0: 9d03 65bd 3744 2f3d f921 d6bd 2302 ba38
000001b0: adce fc3d 83ac a0bd 329b ca3d c3b7 47bd
000001c0: f19e 0c3e 909f 15be 77b4 ddbb e463 59bd
000001d0: 8c80 73be d9bd ccbc eb83 12be 0a50 6a3d
000001e0: e4e7 e03d 5baf ea3d 9782 acbd fb22 bebc
000001f0: 7535 a6bd a664 9fbc c0fd 063d 79f4 d3bc
00000200: 645f 4b3e f46a d4bd b9fa 80be 0a8f 5ebd
00000210: d950 f6bd 7112 8c3d 08d1 e33b c892 9a3d
00000220: a255 3f3d fa61 993d 7f1f adbd 35ec 073d
00000230: a627 6ebe c06c a73b b1af bdbd 5691 503c
00000240: 97cc f6bc ae7a ebbc 7fa6 7abd 0934 8cbd
00000250: a566 a2bc a446 013d e7a2 2abc 1d52 213c
00000260: d6e2 d03b 158c 22be 143a b93d da5c 643d
00000270: 4e9a 673d 726e 07be e537 febd 619f 0f3d
00000280: 6d28 5a3b 49fa b3bd c4fe 4c3b 5a07 c4bd
00000290: b836 f5bd 8672 93bd 44d4 fbbc c648 a8bd
000002a0: 5e19 5a3d dcfe 3cbd 07a3 f93d 320b 8abc
000002b0: 617f 283d f04e 81bd 6962 333c 84f9 b83c
000002c0: 7aad 0d3e f305 20be bb49 93bd e53d 913d
000002d0: 89cb bd3d 0074 be3c 66e7 3fbc 5f60 60bd
000002e0: 071d 08be 99df 88bc 73c0 b7bd 2dd4 2abc
000002f0: e18f f1bc 27c8 1cbd af57 3e3d 64de 2d3e
00000300: 6c23 4a3e 9fd3 4cbc d3d0 b53d 8828 553e
00000310: b5eb 05bd 77b3 323e 5614 97be 05e6 5cbe
00000320: 30d9 10be 9f16 c63d a790 61bc c51f 613e
00000330: 48e2 fe3d c5c4 b03e 1851 573e 700e 153e
00000340: d711 1ebe 9272 8a3e c672 0fbe 28ad 5abe
00000350: ecd9 dd3e a443 4a3e 5c22 35be d26f 84bd
00000360: fac7 e6bd b3dc 12be 43cb 7b3e 8362 18be
00000370: 42aa 36be 4b86 45be 6bba 453e 03b2 68be
00000380: 9ffa 7dbe b256 533e 551c 06bd bfe4 bbbd
00000390: eafe eebd 38bf e33d a85b 293e 18a2 bebd
000003a0: 8369 82be 2a86 9f3d 0142 e8bd 9962 f43d
000003b0: cd8e 383e f1ae 073d c528 873e 628d cc3d
000003c0: 3ecf ae3e a69a eb3d 8cb9 a0be 7938 b73d
000003d0: c48a 8abe 6878 9fbd 4bc0 fabd 6b44 313e
000003e0: 05d5 47be 3014 313e f8b6 bb3b 52fa 06be
000003f0: 88ba 4abe c9d4 393d 9833 e1be b9c3 553e
