trained_lstm_model.pth (torch, 222973 bytes, 13 tensors)

lstm.weight_ih_l0 f4 [256, 17]
-0.09912323 0.0057194824 -0.090265825 0.02735962 0.060468905 -0.0381434 0.0804075 0.072929084
0.08757223 0.0042297435 0.018035006 0.13039881 -0.14900918 0.045812007 -0.15310371 -0.13207933
-0.012282939 0.05595718 0.04440613 -0.026466018 -0.061316162 -0.08871609 -0.043824185 -0.010264414
-0.14729747 0.04362644 0.08903171 0.07288543 0.07091571 0.034845546 0.0018121604 0.026708953
-0.11182834 0.17764668 -0.16092534 -0.03395487 -0.076291844 0.093230344 -0.11092604 0.0830065
0.013499215 0.06700435 0.08242002 -0.036949597 0.07849666 -0.10060655 -0.16857842 -0.11499014
-0.06607955 0.09129796 -0.07016074 -0.060924254 0.040438075 0.07615416 -0.025953561 -0.106698245
0.062832996 0.11774014 0.040511347 0.0927474 0.107747614 0.07664191 -0.080019176 0.022088435
-0.091216326 -0.060663696 0.015757278 0.050451547 -0.014359771 0.023368573 0.07642607 -0.06633362
-0.09684885 -0.13522378 0.092096336 0.13406557 -0.15421577 0.016455496 -0.10604438 0.02641193
-0.1563675 0.15732487 -0.14720124 -0.12106345 -0.021418378 0.07175905 -0.07363417 -0.10224621
-0.01395412 -0.20837589 0.020592274 -0.017321799 -0.030832075 -0.058534972 0.07272579 -0.24391235
0.017439624 -0.112083614 0.1512891 -0.07277814 0.16221137 0.12598933 -0.05648881 0.05544806
-0.12953016 0.015840778 -0.016952945 -0.15036047 0.036501925 -0.061070114 0.11093146 -0.22456253
-0.08227774 0.09019133 0.22400449 0.15082996 -0.002301216 -0.12661196 -0.0016478476 -0.028372929
-0.004287414 -0.14251514 -0.0541302 -0.0998344 0.07662296 -0.0071366974 -0.037673105 -0.10212599
0.00038363668 0.06425591 -0.10237658 -0.057974875 -0.023380378 -0.05191503 0.044829633 0.16862838
-0.0041669817 -0.119537346 0.14539 0.1244172 -0.18934709 0.020558095 0.097460836 0.13111857
0.06730654 0.085881904 0.0664011 0.05338311 0.020557698 0.18410034 -0.07070091 0.08106647
-0.0272757 0.080500625 0.108623244 -0.05764467 0.14195408 0.050562605 -0.09491077 0.08575329
0.16062817 -0.04902354 0.069521904 0.10731757 -0.122487746 0.017074337 0.097431816 -0.0043955673
0.13967524 -0.08680656 0.114357606 -0.056210544 -0.06324244 -0.077099875 0.10047576 0.00013358919
0.04673727 0.07696984 -0.042703476 0.049477555 0.05362756 -0.040356174 -0.060231067 0.14650209
0.07296072 0.025863845 -0.047303278 -0.04770845 0.13495365 -0.08863531 -0.037880734 -0.12618567
-0.112701915 -0.082576975 -0.07077883 0.10931661 0.0503014 -0.084048755 0.021438174 0.109968774
-0.03151511 -0.040694624 -0.15376924 -0.0039346563 -0.16956426 -0.15896064 0.03519717 0.07073981
-0.028561413 -0.13934572 -0.012190237 0.062606625 0.10319594 0.061616406 0.02660492 -0.01399348
-0.19057445 -0.052586287 -0.19495703 -0.07508173 0.043418147 0.015848484 -0.074231006 0.12702951
0.07081149 -0.016031913 0.21345045 0.115051694 0.0023289998 -0.045436442 0.028811254 0.18276845
0.035055723 0.04888536 0.0060959 0.060405932 -0.09119332 0.14590798 0.02285249 -0.13823166
-0.015002973 0.0018998167 -0.04127374 0.09352481 0.016770128 -0.0708083 -0.027029695 -0.12401133
-0.006370284 0.098877855 0.071573645 -0.04656262 0.114438266 -0.10024029 -0.11457652 -0.042677578
00000000: 1f01 cbbd 7f6a bb3b 4add b8bd 4821 e03c
00000010: 3eae 773d 413c 1cbd b0ac a43d d85b 953d
00000020: 1259 b33d a999 8a3b 26be 933c 4487 053e
00000030: dd95 18be 5fa5 3b3d 38c7 1cbe ce3f 07be
00000040: 613e 49bc 5b33 653d 34e3 353d 43cf d8bc
00000050: a826 7bbd c8b0 b5bd fd80 33bd 132c 28bc
00000060: 26d5 16be a3b1 323d 4256 b63d f544 953d
00000070: 413c 913d 34ba 0e3d 0386 ed3a bccc da3c
00000080: 4206 e5bd 03e9 353e 9dc9 24be 4314 0bbd
00000090: e63e 9cbd 8def be3d 312d e3bd 50ff a93d
000000a0: d02b 5d3c 9439 893d d4cb a83d 7658 17bd
000000b0: dbc2 a03d cf0a cebd d29f 2cbe f37f ebbd
000000c0: b754 87bd 6dfa ba3d 6fb0 8fbd b68b 79bd
000000d0: 65a2 253d b6f6 9b3d 909c d4bc 9c84 dabd
000000e0: 96ae 803d be21 f13d 3aef 253d 59f2 bd3d
000000f0: c8aa dc3d 6ff6 9c3d 18e1 a3bd cef2 b43c
00000100: a0cf babd 7f7a 78bd 6815 813c 48a6 4e3d
00000110: 3f45 6bbc 736f bf3c 4585 9c3d ecd9 87bd
00000120: b158 c6bd 1a78 0abe 019d bc3d 7c48 093e
00000130: bdea 1dbe adcd 863c cc2d d9bd d55d d83c
00000140: cd1e 20be c519 213e ecbb 16be 1df0 f7bd
00000150: 9875 afbc 69f6 923d 83cd 96bd 7666 d1bd
00000160: d29f 64bc 7d60 55be 21b1 a83c 72e6 8dbc
00000170: 8c93 fcbc 5ec2 6fbd 42f1 943d 29c4 79be
00000180: 8bdd 8e3c 188c e5bd 88eb 1a3e b50c 95bd
00000190: bd1a 263e 5903 013e cf60 67bd 811d 633d
000001a0: 8ea3 04be 85c4 813c e7e0 8abc 18f8 19be
000001b0: 0b83 153d a824 7abd 0930 e33d b8f3 65be
000001c0: 3b81 a8bd 3bb6 b83d 6f61 653e 2b73 1a3e
000001d0: ffcf 16bb 91a6 01be 97fc d7ba 586e e8bc
000001e0: 6f7d 8cbb 7def 11be a1b7 5dbd fa75 ccbd
000001f0: 80ec 9c3d f5da e9bb 1d4f 1abd 6e27 d1bd
00000200: d822 c939 9a98 833d d0aa d1bd 1077 6dbd
00000210: 3588 bfbc dba4 54bd 479f 373d ebac 2c3e
00000220: 2d8b 88bb ffcf f4bd 1ee1 143e 72ce fe3d
00000230: 34e4 41be 7369 a83c 8c99 c73d f243 063e
00000240: 03d8 893d dae2 af3d 4dfd 873d 3fa8 5a3d
00000250: 9e68 a83c cd84 3c3e a4cb 90bd 2d06 a63d
00000260: 4a71 dfbc 83dd a43d dd75 de3d d11c 6cbd
00000270: 695c 113e bc1a 4f3d 9460 c2bd 6c9f af3d
00000280: b67b 243e e8cc 48bd 8061 8e3d 50c9 db3d
00000290: dbda fabd 7bdf 8b3c 558a c73d b108 90bb
000002a0: 0707 0f3e a3c7 b1bd 5234 ea3d 073d 66bd
000002b0: 4185 81bd 8ae6 9dbd 3cc6 cd3d 1314 0c39
000002c0: 946f 3f3d 5da2 9d3d d7e9 2ebd faa8 4a3d
000002d0: 93a8 5b3d 844c 25bd dab4 76bd a504 163e
000002e0: 6e6c 953d 6ae0 d33c 15c1 41bd f069 43bd
000002f0: 4a31 0a3e 6e86 b5bd d428 1bbd d136 01be
00000300: 43d0 e6bd 1e1e a9bd 7ef4 90bd 63e1 df3d
00000310: d708 4e3d c121 acbd 1c9f af3c 4f37 e13d
00000320: fd15 01bd 68af 26bd af75 1dbe 4aee 80bb
00000330: 41a2 2dbe 94c6 22be e82a 103d 09e0 903d
00000340: a0f9 e9bc a5b0 0ebe 8fb9 47bc e737 803d
00000350: 6558 d33d 7c61 7c3d 90f2 d93c e944 65bc
00000360: f325 43be b864 57bd d1a2 47be 73c4 99bd
00000370: 3ad7 313d aed4 813c 6d06 98bd 0614 023e
00000380: 9d05 913d 5c55 83bc c192 5a3e 39a0 eb3d
00000390: 22a2 183b 901b 3abd 9405 ec3c a727 3b3e
000003a0: 9796 0f3d 043c 483d 1ec0 c73b 366c 773d
000003b0: 90c3 babd e768 153e 2535 bb3c 9a8c 0dbe
000003c0: 08cf 75bc 4503 f93a a70e 29bd f089 bf3d
000003d0: 8261 893c f103 91bd 616d ddbc a7f9 fdbd
000003e0: d1bd d0bb 7980 ca3d 3495 923d 72b8 3ebd
000003f0: 9c5e ea3d c84a cdbd 18a7 eabd afce 2ebd

lstm.weight_hh_l0 f4 [256, 64]
-0.047595177 -0.078904204 0.04152511 0.03419853 -0.041301485 0.063419655 0.012675511 -0.13446209
0.11554123 0.020576261 -0.021559196 -0.07934879 -0.07145313 -0.00619261 -0.06901085 -0.00944695
-0.06871933 -0.01657138 -0.0007272519 -0.061707463 -0.10491976 -0.12115362 -0.010520884 -0.005363773
0.06151231 0.12467357 -0.15875791 -0.13101058 -0.057319857 0.07617284 -0.1529036 -0.058493003
-0.11139404 -0.066261835 -0.008002512 0.009225834 0.027166495 0.06811042 0.04231672 0.04697356
0.07201633 -0.05915382 -0.11836503 0.022878518 0.067692414 0.02215507 -0.080876924 -0.08480427
-0.09303852 -0.1008134 0.04857536 0.082488865 0.081357695 -0.017535498 0.020205263 -0.010063851
-0.08171766 0.060522154 -0.04112408 0.018568223 -0.0792543 -0.10140235 -0.1378616 0.039834727
-0.08773471 -0.047621127 0.005353619 -0.15228781 0.03016953 0.0908435 0.08617668 0.14084059
-0.06698407 0.07786254 0.07703518 0.031095112 -0.1282245 0.045006275 -0.11363552 -0.058050055
-0.022853743 -0.06867908 -0.049223963 0.028804602 -0.03313558 0.053428523 -0.21843615 -0.16493522
-0.13907707 0.053787872 -0.022346573 0.07139448 -0.15771262 0.12526959 -0.2031615 0.030697146
-0.19363189 0.10282558 0.053940065 -0.021632502 -0.11275611 -0.013048865 -0.13520621 0.028526057
-0.03707439 -0.00757592 0.004113175 -0.035052646 0.12158389 0.09443041 -0.10988646 0.046175215
0.03650731 -0.14802341 -0.09864901 0.020051872 -0.014171574 -0.14892517 -0.06950107 0.032493945
-0.092467286 -0.19995028 -0.020971557 -0.05312103 0.1765773 0.083529964 0.097612046 -0.054079153
-0.1164246 -0.046825137 0.06929242 0.066045545 -0.07444713 -0.099433064 0.09153882 0.0899274
-0.11808516 0.102456346 -0.021265985 -0.0044367085 0.09710597 0.031183163 -0.08554216 0.028926726
0.12123233 -0.042631917 0.013062957 0.038077272 -0.039031096 -0.106816486 0.007262009 -0.09904996
0.059814855 -0.1536386 0.08845234 0.069655545 0.16891535 -0.001362533 0.038523655 -0.1910132
-0.11651104 0.10018375 -0.02097942 -0.080264695 -0.07274335 -0.08026798 -0.06183207 -0.0427943
-0.12515591 -0.029759957 -0.07655128 0.017160108 0.06640738 0.0800388 -0.04945302 0.11147637
-0.11935206 0.11687586 0.032566093 -0.10376301 0.028229149 0.07661466 -0.12062655 -0.024037303
-0.09651604 -0.05526116 0.101745814 -0.18922462 0.011031077 -0.038650453 0.011880078 -0.09574447
-0.03366036 -0.07063501 0.02256536 -0.041533962 -0.12665406 0.041962687 0.084664464 -0.03209241
-0.085236534 -0.088822 0.097168446 0.038248677 0.006179872 -0.0044041593 0.13215151 -0.039624784
0.045712728 -0.14492372 -0.03734255 -0.14213635 -0.08704821 -0.08143494 0.016849304 0.10781474
0.055670194 -0.082006276 0.054551926 0.13892049 -0.036806203 0.14261113 0.023459423 -0.08842839
-0.066480204 0.1043451 0.046977937 0.029513726 -0.036396187 0.12625614 -0.03448754 0.1158755
-0.052443016 0.15039809 0.11144615 -0.014557963 0.026152818 0.018767137 -0.06792903 0.011636349
0.022013087 -0.032156978 -0.09119437 -0.07447633 -0.15150763 0.04168976 0.054562207 0.15879954
-0.09604503 0.11103936 0.05304328 0.01176008 0.0724023 0.070207484 -0.08213068 -0.024511933
00000000: 29f3 42bd 8798 a1bd 3c16 2a3d c213 0c3d
00000010: bf2b 29bd 2ae2 813d f2ac 4f3c 6eb0 09be
00000020: e1a0 ec3d 8c8f a83c e99c b0bc 9e81 a2bd
00000030: 0556 92bd 61eb cabb 8f55 8dbd 61c7 1abc
00000040: b8bc 8cbd b4c0 87bc 0da5 3eba f7c0 7cbd
00000050: 2ce0 d6bd 641f f8bd c95f 2cbc 97c2 afbb
00000060: 55f4 7b3d db54 ff3d 6f91 22be a327 06be
00000070: 3ac8 6abd 8200 9c3d c392 1cbe 5c96 6fbd
00000080: 8f22 e4bd 49b4 87bd f81c 03bc f427 173c
00000090: 458c de3c 7a7d 8b3d 4c54 2d3d 5967 403d
000000a0: 4c7d 933d 474b 72bd 5d69 f2bd bb6b bb3c
000000b0: 52a2 8a3d 8d7e b53c cda2 a5bd dcad adbd
000000c0: fb8a bebd 4177 cebd f5f6 463d ecef a83d
000000d0: dd9e a63d 9ba6 8fbc 8285 a53c dae2 24bc
000000e0: 975b a7bd 14e6 773d b971 28bd 631c 983c
000000f0: 1450 a2bd 09ac cfbd 972b 0dbe bd29 233d
00000100: 41ae b3bd 5f0e 43bd 696d af3b 56f1 1bbe
00000110: 1726 f73c 280c ba3d 667d b03d 8438 103e
00000120: f22e 89bd 6576 9f3d 9fc4 9d3d 2dbb fe3c
00000130: 494d 03be 8058 383d bdb9 e8bd e5c5 6dbd
00000140: c637 bbbc 9ea7 8cbd 119f 49bd a1f7 eb3c
00000150: 2db9 07bd ded7 5a3d baad 5fbe c7e4 28be
00000160: 386a 0ebe ac50 5c3d 2910 b7bc 4537 923d
00000170: 6b7f 21be ac46 003e 9109 50be 9578 fb3c
00000180: 7047 46be 3896 d23d 42f0 5c3d a536 b1bc
00000190: adec e6bd e8ca 55bc 7f73 0abe 7aaf e93c
000001a0: 51db 17bd 6c3f f8bb d0c7 863b 5d93 0fbd
000001b0: f900 f93d bb64 c13d 270c e1bd 3922 3d3d
000001c0: b088 153d 7393 17be 7e08 cabd d343 a43c
000001d0: e42f 68bc d77f 18be 9456 8ebd 5f18 053d
000001e0: 7d5f bdbd c4bf 4cbe 8bcc abbc 7095 59bd
000001f0: aed0 343e c211 ab3d d3e8 c73d 1a82 5dbd
00000200: 0570 eebd b7cb 3fbd 2fe9 8d3d e342 873d
00000210: bd77 98bd 90a3 cbbd b478 bb3d db2b b83d
00000220: a2d6 f1bd a2d4 d13d 0136 aebc cf61 91bb
00000230: 7fdf c63d d573 ff3c ba30 afbd bef7 ec3c
00000240: a848 f83d ce9e 2ebd 0306 563c eaf6 1b3d
00000250: 12df 1fbd 9ac2 dabd 26f6 ed3b b5da cabd
00000260: 6c00 753d 7053 1dbe 8026 b53d 91a7 8e3d
00000270: 25f8 2c3e 0597 b2ba fbca 1d3d f798 43be
00000280: 579d eebd 232d cd3d 08dd abbc d161 a4bd
00000290: 77fa 94bd 8a63 a4bd a043 7dbd 1349 2fbd
000002a0: df28 00be 27cb f3bc ebc6 9cbd 5b93 8c3c
000002b0: 9800 883d 62eb a33d 408f 4abd b94d e43d
000002c0: da6e f4bd 9c5c ef3d 0664 053d b381 d4bd
000002d0: d140 e73c 26e8 9c3d 0d0b f7bd e1e9 c4bc
000002e0: 34aa c5bd 8759 62bd 1c60 d03d 19c4 41be
000002f0: b1bb 343c f04f 1ebd a9a4 423c ad15 c4bd
00000300: 72df 09bd 17a9 90bd fdda b83c 841f 2abd
00000310: 9ab1 01be 11e1 2b3d 9064 ad3d 5573 03bd
00000320: 7e90 aebd 4fe8 b5bd 4000 c73d a5aa 1c3d
00000330: 8680 ca3b c450 90bb ba52 073e 994d 22bd
00000340: 453d 3b3d e266 14be 80f4 18bd 318c 11be
00000350: 5546 b2bd 5dc7 a6bd 8d07 8a3c f9cd dc3d
00000360: 6e06 643d e8f2 a7bd d771 5f3d 2c41 0e3e
00000370: 1ac2 16bd a708 123e fa2d c03c f219 b5bd
00000380: c626 88bd e2b2 d53d f06b 403d c5c6 f13c
00000390: 2b14 15bd 4a49 013e cf42 0dbd 2250 ed3d
000003a0: 7dce 56bd f501 1a3e e13d e43d 8684 6ebc
000003b0: 6f3e d63c 8abd 993c 601e 8bbd 63a6 3e3c
000003c0: ca54 b43c 09b7 03bd 1dc4 babd 0c87 98bd
000003d0: d124 1bbe e2c2 2a3d 9f7c 5f3d 599c 223e
000003e0: 42b3 c4bd 9b68 e33d e943 593d 5aad 403c
000003f0: a847 943d f1c8 8f3d 2134 a8bd 40cd c8bc

lstm.bias_ih_l0 f4 [256]
-0.04651043 0.10541141 -0.086597264 0.07522378 -0.106636204 0.10640575 -0.043372776 -0.05036666
-0.10876299 -0.009795479 -0.0072195944 0.037685975 0.014566053 0.0471414 -0.108672395 -0.04804584
0.07851017 -0.026182503 0.06096698 -0.037328623 -0.028482135 0.0869796 0.021267608 -0.046708737
0.088928916 0.0064783175 0.16592668 0.06661672 -0.018582107 0.033127513 0.073762394 0.04840132
0.052960325 0.08649032 -0.06742865 -0.08537486 -0.13891782 0.009258229 0.073789746 0.09972069
-0.053874496 -0.07650534 -0.086892895 -0.039950274 -0.07874606 -0.08211841 0.14855438 0.011745649
0.10019624 0.039800618 0.0044127773 -0.16728032 -0.096797995 0.08635509 -0.018378519 -0.05984675
0.008840933 -0.0108250715 0.08518843 0.122194104 0.0867826 0.104162484 -0.09731252 0.05152227
0.14891934 0.058039144 0.033918656 -0.053207062 -0.091305465 0.05234519 0.07920692 -0.0012470605
0.116044 -0.093800664 0.02203071 -0.11694472 -0.1048587 0.08131554 0.02816358 -0.04498691
0.056594178 0.0085789915 -0.027055904 0.14932893 -0.09633833 -0.02457214 0.0924516 0.04792358
0.07712006 -0.032169458 0.094078176 -0.025308121 0.18162762 0.105181575 0.040014993 0.078485414
-0.11010526 0.04124106 0.10091482 -0.01686573 0.07362944 0.1582258 0.120997295 -0.065059744
0.12517518 0.042972412 -0.035733346 -0.0045839422 0.00026214524 -0.12267003 -0.03102426 -0.078337856
0.12254841 0.12137134 0.0059924494 -0.10843584 0.088661894 0.021515766 -0.025603091 -0.09240327
0.023728842 -0.030760132 -0.059677612 -0.030844087 -0.008154746 -0.08885606 0.014654753 0.13004643
-0.054684598 0.020629276 -0.036213163 -0.12999713 0.060736887 -0.0814786 0.008002025 0.008784727
-0.106758185 -0.05122468 0.036092382 0.06518426 0.00382245 0.16569892 -0.060156923 -0.0904008
-0.09187101 -0.0698719 0.029688628 -0.038253367 0.056901857 -0.06418147 -0.13838366 -0.0137442
-0.09532163 0.05613517 -0.13596533 0.07983891 0.009391413 0.036338493 -0.11327135 -0.047990296
0.020678304 0.08043654 0.08773656 0.08664782 0.021404164 0.098984644 0.07146352 0.07791097
-0.06479098 -0.10885627 0.07210349 0.0060612056 0.088441364 0.012043863 -0.03157197 -0.076047875
-0.10157857 -0.08952582 0.10265491 0.013959865 -0.13372503 -0.064567275 -0.06794705 0.14611839
-0.116441436 0.038800325 -0.055690683 0.105865136 0.15243793 0.09721455 0.015261768 0.010300151
-0.120292984 0.07463438 -0.05982489 0.013761365 -0.015479558 -0.015632758 -0.051823054 -0.044942044
-0.048627578 -0.046702005 -0.01740997 -0.10428754 0.11715243 -0.03158551 -0.084315024 0.08044265
-0.058643386 0.016792009 0.0085681975 -0.043984536 0.032893594 0.18192773 0.005880548 -0.013308812
-0.066328235 -0.08643239 -0.08202241 0.12905237 0.04859185 -0.0156006925 -0.019840093 0.0359549
0.025768448 0.014463452 -0.034813672 0.030988207 0.06698214 0.12411672 -0.097786404 0.11827403
-0.081443146 0.062137086 -0.027910175 -0.14157832 0.07061385 -0.025418965 0.0035194207 0.05814475
0.025093196 0.017787712 0.103369676 0.02462202 -0.0010086566 0.088962324 -0.057325628 -0.11866572
-0.047579236 -0.076233014 -0.13386633 -0.0222125 0.15148637 0.034753498 -0.08175937 -0.013816112
00000000: b881 3ebd f0e1 d73d e859 b1bd ed0e 9a3d
00000010: 1564 dabd 42eb d93d a7a7 31bd 454d 4ebd
00000020: 21bf debd 377d 20bc 5992 ecbb 9c5c 1a3d
00000030: 74a6 6e3c 5717 413d a28f debd b7cb 44bd
00000040: f1c9 a03d b07c d6bc 83b8 793d e6e5 18bd
00000050: 5e53 e9bc 5c22 b23d 6839 ae3c a951 3fbd
00000060: 5d20 b63d 1148 d43b afe8 293e 596e 883d
00000070: 8139 98bc b7b0 073d bd10 973d 7640 463d
00000080: edec 583d d621 b13d 0818 8abd 04d9 aebd
00000090: 7940 0ebe d4af 173c 141f 973d 5c3a cc3d
000000a0: 81ab 5cbd d5ae 9cbd e7f4 b1bd e6a2 23bd
000000b0: 9d45 a1bd b22d a8bd a41e 183e d370 403c
000000c0: b033 cd3d f905 233d 0f99 903b 884b 2bbe
000000d0: 073e c6bd f0da b03d 8c8e 96bc de21 75bd
000000e0: 90d9 103c a45b 31bc 4677 ae3d e740 fa3d
000000f0: 13bb b13d 2453 d53d c94b c7bd 0409 533d
00000100: 507e 183e 74ba 6d3d 4aee 0a3d a6ef 59bd
00000110: 5cfe babd e967 563d 3d37 a23d 6874 a3ba
00000120: 7aa8 ed3d 901a c0bd bf79 b43c b780 efbd
00000130: 28c0 d6bd c388 a63d 4fb7 e63c 3244 38bd
00000140: 4ccf 673d e68e 0c3c 58a4 ddbc afe9 183e
00000150: 084d c5bd 834b c9bc 4457 bd3d 844b 443d
00000160: 1ff1 9d3d 1fc4 03bd 0fac c03d fa52 cfbc
00000170: 97fc 393e 7069 d73d c3e6 233d f6bc a03d
00000180: de7e e1bd 63ec 283d 6eac ce3d 002a 8abc
00000190: 08cb 963d f205 223e 6ecd f73d 0b3e 85bd
000001a0: ec2d 003e d703 303d 215d 12bd e534 96bb
000001b0: 8a70 8939 6d3a fbbd 9726 febc 996f a0bd
000001c0: a9fa fa3d 8991 f83d 4f5c c43b 9c13 debd
000001d0: 5e94 b53d d541 b03c 93bd d1bc ed3d bdbd
000001e0: fd62 c23c acfc fbbc 8370 74bd bdac fcbc
000001f0: 7c9b 05bc 2afa b5bd 7d1a 703c e42a 053e
00000200: f5fc 5fbd bafe a83c 4154 14bd f81d 05be
00000210: 3ec7 783d 41de a6bd ed1a 033c d1ed 0f3c
00000220: 09a4 dabd f8d0 51bd 9bd5 133d 537f 853d
00000230: 1282 7a3b faac 293e 1b67 76bd 0e24 b9bd
00000240: de26 bcbd 0019 8fbd 9135 f33c 90af 1cbd
00000250: ec11 693d 9371 83bd 72b4 0dbe 5a2f 61bc
00000260: fd37 c3bd feed 653d 7f3a 0bbe 9582 a33d
00000270: 71de 193c acd7 143d cffa e7bd 7991 44bd
00000280: 8c65 a93c eabb a43d 3aaf b33d 6a74 b13d
00000290: c957 af3c 76b8 ca3d 775b 923d c98f 9f3d
000002a0: 22b1 84bd 09f0 debd ffaa 933d 149d c63b
000002b0: bf20 b53d 9f53 453c 9c51 01bd fdbe 9bbd
000002c0: 6d08 d0bd 5059 b7bd bd3c d23d ebb7 643c
000002d0: 37ef 08be d93b 84bd d327 8bbd 0fa0 153e
000002e0: d978 eebd 17ed 1e3d ea1b 64bd d2cf d83d
000002f0: b018 1c3e 6c18 c73d 7f0c 7a3c f7c1 283c
00000300: 2b5c f6bd e9d9 983d f20a 75bd 5977 613c
00000310: f99d 7dbc 4510 80bc 6944 54bd 2615 38bd
00000320: b62d 47bd 9a4a 3fbd 5a9f 8ebc b594 d5bd
00000330: 9ded ef3d cf5f 01bd 5bad acbd 1ebf a43d
00000340: 0c34 70bd 658f 893c a061 0c3c 2129 34bd
00000350: 6fbb 063d 434b 3a3e 9db1 c03b 340d 5abc
00000360: 19d7 87bd 7703 b1bd 5efb a7bd 4e26 043e
00000370: 3f08 473d 0c9a 7fbc b187 a2bc 7245 133d
00000380: 5a18 d33c 1df8 6c3c c898 0ebd fbda fd3c
00000390: ef2d 893d e830 fe3d 3d44 c8bd a839 f23d
000003a0: aacb a6bd 7583 7e3d e1a3 e4bc e8f9 10be
000003b0: ff9d 903d 6f3b d0bc 15a6 663b 3029 6e3d
000003c0: 3f90 cd3c 89b7 913c 7bb3 d33d 1eb4 c93c
000003d0: e634 84ba e131 b63d 47ce 6abd 0307 f3bd
000003e0: 72e2 42bd 0e20 9cbd 4114 09be fdf6 b5bc
000003f0: 3e1f 1b3e af59 0e3d 7571 a7bd f95c 62bc

lstm.bias_hh_l0 f4 [256]
-0.110458285 0.16031621 -0.06135058 0.0150775 -0.017284425 -0.03913014 0.024527496 0.013249742
-0.066613615 0.0142457755 0.106379695 0.0441446 0.0949369 0.055328656 0.052482124 0.0685173
0.108628206 -0.020526476 0.016629646 0.03527732 -0.081141755 -0.04699459 -0.11073322 -0.0062294193
0.032741666 0.022046082 0.11952149 -0.114736676 0.16598545 -0.12852232 0.026222983 -0.04217338
0.03174227 0.022679023 -0.08768044 0.04864654 -0.13399257 0.12847753 0.004175388 -0.016487407
-0.12104716 0.01329207 -0.06722517 0.0020330562 -0.039130617 -0.09418029 0.06906712 0.024300205
0.03609035 -0.08334161 -0.06619063 -0.08377867 -0.068399176 -0.050248392 0.08571169 -0.096028194
0.07906481 -0.05832753 0.016938964 0.10729466 0.0065096244 0.10191823 0.00889877 0.02287406
0.0849186 -0.033901602 -0.07837132 -0.09348568 0.050339486 -0.02707439 -0.027302794 0.12481719
-0.024153698 -0.0032551533 -0.013833784 -0.0127754025 0.020055486 -0.036248803 0.06427893 0.000721431
0.07271815 -0.08721625 0.056453362 0.036440663 -0.14715004 0.0010617436 0.12831725 -0.011975643
-0.024168048 0.005015301 0.08112504 0.056129977 0.15779576 0.053801116 -0.022356732 0.21197991
-0.10664755 -0.122155756 -0.002550005 -0.05414223 0.074065 0.008624543 -0.07797161 -0.048006553
0.019268215 0.0671387 -0.01511981 -0.029355256 -0.0033410136 -0.13700812 0.011177794 -0.0297628
0.011789698 -0.04419816 0.09427975 -0.03781062 0.12497497 0.07158895 -0.11257519 -0.040730283
0.09724064 0.17057598 0.08855658 -0.04486336 -0.06413218 -0.11486609 0.006103674 0.0945586
-0.11319402 -0.087554455 0.13433221 0.026427945 -0.017626377 -0.014636628 -0.03634294 0.04306839
0.018443545 -0.08653508 -0.09302419 0.04657157 0.009133207 0.11808485 -0.05138411 -0.00057373696
0.01648614 0.031324796 -0.12972784 -0.047956172 0.02964145 -0.005550189 -0.07562621 -0.1014949
0.06323398 0.1482993 -0.0043121427 -0.0043750326 -0.014058233 -0.025702871 0.013173548 -0.10210965
0.014981362 -0.04059003 0.019556778 0.042294644 -0.13405788 0.049894586 0.09580763 -0.055567775
0.03874618 -0.06726852 0.028775666 0.0579388 0.0041269828 0.10429 -0.09689525 0.07661097
-0.024401452 -0.0926087 0.012981274 -0.12164306 -0.026889635 -0.09998326 -0.020040767 0.04430784
0.063751385 -0.10995747 0.081329554 -0.08932936 0.018767266 0.02837675 0.07137665 0.003119637
0.1010252 0.17336588 0.05231627 -0.020771436 0.10679431 0.10782862 0.07659567 0.035100672
0.010970908 -0.050720736 0.017627938 -0.124481514 0.022294488 0.17310654 -0.042232387 0.052240644
0.11392331 -0.035649642 -0.10736714 -0.052905645 -0.1131434 0.113848746 -0.09330517 -0.12651916
-0.0067047533 0.047911018 -0.06724605 0.0057975617 0.123903766 0.078066215 0.050620295 0.012633407
0.0796103 -0.009625019 0.03640432 0.022018673 -0.009991349 -0.059148245 -0.010684937 -0.057931527
-0.12039144 -0.07361643 -0.107127964 0.092647046 0.0023054683 0.0924356 -0.071886405 0.03644191
0.14138363 0.086656034 0.10490563 0.011728058 7.531096e-05 -0.117350355 0.08492496 -0.01638663
0.043618403 0.14013697 0.03310968 -0.09543117 0.119647615 0.03464773 -0.010947554 -0.019573087
00000000: f437 e2bd ef29 243e bf4a 7bbd 9e07 773c
00000010: 1198 8dbc ed46 20bd e3ed c83c 7215 593c
00000020: b86c 88bd 1d67 693c 99dd d93d f8d0 343d
00000030: 476e c23d 4da0 623d 7ff7 563d cc52 8c3d
00000040: 7778 de3d 2427 a8bc e53a 883c f37e 103d
00000050: a62d a6bd 667d 40bd 19c8 e2bd 2820 ccbb
00000060: 201c 063d fc99 b43c afc7 f43d 10fb eabd
00000070: 17f8 293e 5b9b 03be 95d1 d63c febd 2cbd
00000080: 2f04 023d 5cc9 b93c cd91 b3bd 9841 473d
00000090: 5935 09be 9d8f 033e b1d1 883b 9910 87bc
000000a0: 93e7 f7bd fbc6 593c 5aad 89bd 063d 053b
000000b0: 6d47 20bd 99e1 c0bd 1073 8d3d 3911 c73c
000000c0: 7ad3 133d 02af aabd f48e 87bd 2794 abbd
000000d0: de14 8cbd 42d1 4dbd 9c89 af3d 6eaa c4bd
000000e0: bbec a13d d9e8 6ebd 95c3 8a3c 4dbd db3d
000000f0: b04e d53b 81ba d03d 26cc 113c 6162 bb3c
00000100: cee9 ad3d 68dc 0abd 2581 a0bd 6c75 bfbd
00000110: c730 4e3d 1ccb ddbc 1caa dfbc 28a0 ff3d
00000120: fadd c5bc 6954 55bb 18a7 62bc ec4f 51bc
00000130: 674b a43c a079 14bd aca4 833d 6a1e 3d3a
00000140: 41ed 943d 6f9e b2bd a43b 673d ce42 153d
00000150: 80ae 16be 342a 8b3a 9965 033e 7d35 44bc
00000160: 12fc c5bc 6557 a43b e324 a63d 8ce8 653d
00000170: 3695 213e 8f5e 5c3d 7725 b7bc 4311 593e
00000180: 086a dabd cc2c fabd fc1d 27bb 3ec4 5dbd
00000190: 64af 973d f54d 0d3c 94af 9fbd 85a2 44bd
000001a0: 60d8 9d3c 0480 893d 14b9 77bc 6f7a f0bc
000001b0: e8f4 5abb db4b 0cbe 1123 373c 1ed1 f3bc
000001c0: 9429 413c 2109 35bd be15 c13d 4fdf 1abd
000001d0: e1f2 ff3d 3a9d 923d d28d e6bd ccd4 26bd
000001e0: 1a26 c73d 78ab 2e3e 275d b53d a4c2 37bd
000001f0: bb57 83bd ea3e ebbd 5401 c83b f0a7 c13d
00000200: 44d2 e7bd c04f b3bd 628e 093e 6b7f d83c
00000210: 3165 90bc 78ce 6fbc 56dc 14bd 7b68 303d
00000220: eb16 973c 4e39 b1bd 7783 bebd d5c1 3e3d
00000230: 72a3 153c 78d6 f13d 2578 52bd d666 16ba
00000240: f10d 873c 6e4e 003d 60d7 04be b16d 44bd
00000250: a0d2 f23c 5cde b5bb eae1 9abd 8fdc cfbd
00000260: d180 813d c6db 173e e04c 8dbb 6f5c 8fbb
00000270: 8154 66bc d48e d2bc ddd5 573c dd1e d1bd
00000280: 6374 753c bb41 26bd 8935 a03c 263d 2d3d
00000290: 7846 09be 445e 4c3d ca36 c43d 099b 63bd
000002a0: 50b4 1e3d 14c4 89bd f2ba eb3c 3c51 6d3d
000002b0: a43b 873b ff95 d53d 0471 c6bd 36e6 9c3d
000002c0: 8ee5 c7bc a1a9 bdbd 69af 543c ff1f f9bd
000002d0: a747 dcbc 06c4 ccbd 892c a4bc 237c 353d
000002e0: 1690 823d 6231 e1bd 1c90 a63d 50f2 b6bd
000002f0: cfbd 993c 5c76 e83c ec2d 923d d372 4c3b
00000300: 4de6 ce3d d386 313e 9649 563d dc28 aabc
00000310: fab6 da3d 40d5 dc3d 31de 9c3d b9c5 0f3d
00000320: 53bf 333c 8cc0 4fbd 7768 903c 2af0 febd
00000330: eea2 b63c d742 313e defb 2cbd 49fa 553d
00000340: a050 e93d 5c05 12bd 4ee3 dbbd 97b3 58bd
00000350: bab7 e7bd 8829 e93d c816 bfbd 3d8e 01be
00000360: 8cb3 dbbb 583e 443d 4cb8 89bd 79f9 bd3b
00000370: 42c1 fd3d 2ee1 9f3d 3a57 4f3d 59fc 4e3c
00000380: ba0a a33d 41b2 1dbc b21c 153d 8160 b43c
00000390: c1b2 23bc 6e45 72bd e00f 2fbc 9c49 6dbd
000003a0: ca8f f6bd 36c4 96bd e865 dbbd bcbd bd3d
000003b0: 5717 173b e04e bd3d 2e39 93bd 1d44 153d
000003c0: dfc6 103e b878 b13d c3d8 d63d 0a27 403c
000003d0: 44f0 9d38 6255 f0bd 23ed ad3d 413d 86bc
000003e0: 36a9 323d 1180 0f3e 049e 073d 6b71 c3bd
000003f0: cf09 f53d c7ea 0d3d 5f5d 33bc bd57 a0bc

lstm.weight_ih_l1 f4 [256, 64]
0.049682282 -0.047616594 0.012329969 -0.0965303 -0.04129611 -0.01524094 -0.09250339 0.037421715
-0.1071442 -0.0007733183 -0.019865496 -0.0077913613 -0.03245108 -0.06928791 -0.04503535 -0.11407481
-0.0824738 0.10035414 0.10451467 0.074342035 0.06692276 0.056937408 -0.0013318901 -0.08244669
0.029165871 -0.0777408 0.020182906 0.11756069 0.03125826 -0.006387409 -0.012671912 -0.045090884
-0.053549383 -0.10136957 -0.08853817 0.09987041 0.032282118 -0.025216496 -0.0611736 -0.049328424
-0.048341785 0.029831 -0.08946514 -0.0065470617 -0.04585848 -0.114730686 -0.038990866 -0.060786042
-0.034030806 0.03146047 -0.068059966 0.04549892 0.07544252 -0.11190724 0.013387502 0.0126607185
-0.12664843 -0.11357558 -0.09530784 -0.004683954 0.082141526 -0.11021428 0.06411343 -0.03101021
0.009160426 0.034104966 0.09305852 -0.041615933 -0.09222241 -0.120428726 0.10109507 0.06493617
0.090516485 0.15054302 -0.12281245 -0.15323809 -0.07172266 0.015505297 -0.09970276 -0.05257271
0.08290482 0.08015466 0.043574236 0.030678209 -0.07959145 -0.064641126 0.004808176 0.0019610797
-0.062335566 -0.00087538693 -0.0011576606 0.08354502 -0.07403334 0.016310195 0.059689227 -0.14103247
0.05170284 0.00089895277 0.146392 0.052073456 0.09706433 -0.12283781 -0.075960815 -0.066723414
0.14238207 0.026617398 0.06480675 0.10454904 -0.1697638 -0.014123451 0.0862676 -0.024282709
-0.08887764 0.050711103 -0.023398094 0.086312704 -0.023914658 -0.08820451 -0.065689184 0.090901494
-0.099719435 0.031146208 -0.019295609 -0.12684335 0.0063541746 0.05856068 0.21173823 0.1859218
0.08999551 -0.043757252 0.009777701 -0.115461595 0.012434312 -0.05994745 -0.028281132 -0.12292155
-0.034624126 0.062272895 -0.019901061 -0.0010953627 0.13431807 -0.119699776 -0.017234579 0.024601515
0.016931787 0.13201143 -0.03212114 0.013177536 -0.04679851 0.06598658 0.076724775 0.070538685
-0.088517815 0.10050144 0.009843759 0.07144703 0.10293765 0.04990756 -0.041039646 -0.03895878
0.042032152 0.15752855 -0.19712694 0.05475575 -0.037933458 0.072090246 0.06344619 -0.022507755
0.12243384 -0.021086745 -0.13029547 0.14069858 0.056879967 -0.058904752 -0.010389845 0.06694868
0.025166277 0.17110519 -0.01287891 0.12804706 -0.05062723 -0.014317582 0.04172314 -0.07347137
-0.033817437 0.05171181 0.057881817 -0.04541329 -0.15058608 -0.10747108 -0.09497004 -0.083918445
-0.041946124 -0.07004466 0.0006737539 0.22703856 -0.039486192 -0.15302375 0.18576488 -0.06693195
0.0834595 0.11204466 -0.06952665 0.007812583 0.006480067 0.15707064 -0.098035075 0.10220158
0.021590361 0.018828163 -0.011330019 -0.05623021 -0.13773252 -0.11343041 0.019309094 0.14182107
0.05671187 0.043100566 0.036479652 -0.039390095 0.044018064 -0.124527104 0.1089611 -0.04076517
-0.0018562463 0.1366827 -0.010253388 -0.092493534 -0.146706 0.051936585 0.035257474 0.10279143
0.06804123 0.1302986 -0.054301526 0.0056322594 0.033504963 -0.004474206 0.113489285 0.18577407
0.037937887 -0.0259183 -0.029403292 -0.021260362 0.00799499 0.024302417 -0.07944466 0.11525133
-0.08719683 -0.11079354 0.117256954 -0.0752589 -0.09767794 0.21144392 0.037734553 -0.097729936
00000000: a67f 4b3d 9e09 43bd a303 4a3c aeb1 c5bd
00000010: 1c26 29bd 23b5 79bc 6b72 bdbd 8347 193d
00000020: 6b6e dbbd 83b8 4aba f7bc a2bc ad4e ffbb
00000030: 6ceb 04bd d2e6 8dbd fd76 38bd 0ea0 e9bd
00000040: 06e8 a8bd 7986 cd3d ca0b d63d a340 983d
00000050: cd0e 893d 3337 693d d192 aeba cfd9 a8bd
00000060: 44ed ee3c 9236 9fbd 9f56 a53c a9c3 f03d
00000070: a908 003d 784d d1bb da9d 4fbc 38b1 38bd
00000080: 9956 5bbd d99a cfbd 8053 b5bd dc88 cc3d
00000090: 413a 043d d392 cebc 2b91 7abd 9a0c 4abd
000000a0: 0902 46bd 2460 f43c 8039 b7bd bc88 d6bb
000000b0: 1ad6 3bbd ecf7 eabd e3b4 1fbd c9fa 78bd
000000c0: e363 0bbd b2dc 003d 0663 8bbd 135d 3a3d
000000d0: 9c81 9a3d 9f2f e5bd 4157 5b3c e76e 4f3c
000000e0: 20b0 01be 509a e8bd c230 c3bd db7b 99bb
000000f0: d139 a83d 06b8 e1bd e74d 833d 2009 febc
00000100: 9d15 163c a6b1 0b3d 7795 be3d 7875 2abd
00000110: 1adf bcbd 56a3 f6bd ef0a cf3d 41fd 843d
00000120: b560 b93d f327 1a3e 1885 fbbd 72ea 1cbe
00000130: 54e3 92bd ee09 7e3c f630 ccbd 7b56 57bd
00000140: 01ca a93d 2028 a43d e67a 323d de50 fb3c
00000150: d800 a3bd 9162 84bd e78d 9d3b 7585 003b
00000160: 9453 7fbd 397a 65ba a5bc 97ba a719 ab3d
00000170: cb9e 97bd f59c 853c b17c 743d d16a 10be
00000180: 5bc6 533d b3a7 6b3a c9e7 153e fa4a 553d
00000190: aac9 c63d 6492 fbbd 5891 9bbd 49a6 88bd
000001a0: 9bcc 113e bb0c da3c 67b9 843d cf1d d63d
000001b0: 90d6 2dbe 0c66 67bc 11ad b03d 88ec c6bc
000001c0: 7b05 b6bd 72b6 4f3d 5cad bfbc b7c4 b03d
000001d0: ace8 c3bc 91a4 b4bd 0d88 86bd 902a ba3d
000001e0: b439 ccbd 5526 ff3c d311 9ebc 39e3 01be
000001f0: ae36 d03b 53dd 6f3d e8d1 583e 4962 3e3e
00000200: 914f b83d ce3a 33bd a732 203c 2177 ecbd
00000210: 49b9 4b3c 758b 75bd d5ad e7bc 4bbe fbbd
00000220: 07d2 0dbd dd11 7f3d 8d07 a3bc 4692 8fba
00000230: ad8a 093e 2825 f5bd 882f 8dbc 1e89 c93c
00000240: 88b4 8a3c 012e 073e 7591 03bd 98e6 573c
00000250: cbaf 3fbd f923 873d e121 9d3d 9676 903d
00000260: d448 b5bd b3d3 cd3d b847 213c d252 923d
00000270: fad0 d23d df6b 4c3d 3019 28bd 3e93 1fbd
00000280: e829 2c3d 2a4f 213e a5db 49be 9147 603d
00000290: 1d60 1bbd 0da4 933d 13f0 813d 2f62 b8bc
000002a0: 98be fa3d 1cbe acbc 2d6c 05be 4a13 103e
000002b0: f8fa 683d 1c46 71bd 2b3a 2abc 641c 893d
000002c0: 8229 ce3c 3336 2f3e 1002 53bc c51e 033e
000002d0: 805e 4fbd 4b94 6abc e2e5 2a3d 2878 96bd
000002e0: 2784 0abd c3cf 533d 7c15 6d3d 4903 3abd
000002f0: 3d33 1abe cc19 dcbd a77f c2bd 6fdd abbd
00000300: b3cf 2bbd 9373 8fbd dc9e 303a cc7c 683e
00000310: 46bc 21bd 42b2 1cbe 2639 3e3e 9e13 89bd
00000320: d0ec aa3d ac77 e53d fd63 8ebd 5900 003c
00000330: be56 d43b 20d7 203e 9dc6 c8bd 104f d13d
00000340: 45de b03c 853d 9a3c 8ba1 39bc a651 66bd
00000350: c109 0dbe 344e e8bd 1b2e 9e3c 8b39 113e
00000360: b54a 683d 388a 303d b06b 153d 8257 21bd
00000370: 494c 343d 1108 ffbd ff26 df3d 61f9 26bd
00000380: 4a4d f3ba 8df6 0b3e d4fd 27bc 406d bdbd
00000390: 193a 16be 75bb 543d 246a 103d 5084 d23d
000003a0: 3359 8b3d ff6c 053e 476b 5ebd d18e b83b
000003b0: 803c 093d 5c9c 92bb 126d e83d 8f3b 3e3e
000003c0: c264 1b3d 9d52 d4bc 2cdf f0bc 362a aebc
000003d0: 6bfd 023c dd15 c73c e2b3 a2bd e408 ec3d
000003e0: 4094 b2bd b9e7 e2bd 6a24 f03d 5721 9abd
000003f0: 5f0b c8bd c184 583e 8c8f 1a3d a226 c8bd

lstm.weight_hh_l1 f4 [256, 64]
-0.12518194 0.0069428375 0.08946962 -0.083752625 0.13353388 0.06443886 -0.088112056 0.034678746
0.06197459 0.076356106 0.09723898 0.10587069 0.028131053 -0.108819656 -0.0034255793 -0.11228615
0.025669748 0.10236195 -0.10686058 0.0698053 0.08223436 0.08799856 -0.09508893 -0.08227183
0.13157016 -0.14187002 -0.010973623 -0.010106809 0.10102301 -0.117182285 -0.050639123 0.03460295
-0.0060922625 -0.037197053 0.09916274 -0.071642675 -0.08318353 0.08319846 -0.059391264 -0.05535049
0.074384466 -0.11009518 0.05445834 -0.08361728 -0.026849272 0.08361557 0.026780449 -0.0017316123
0.05273276 -0.1258259 -0.04381704 -0.11248342 0.1316544 -0.020256402 -0.08417964 0.024428507
0.08319393 0.124115884 -0.10529384 -0.076066375 -0.04190225 0.10299297 -0.07970824 -0.07627908
0.026498042 -0.03992543 0.00041081005 -0.029080829 0.11520219 0.0749857 -0.07172034 -0.08105961
0.07461796 0.010137842 -0.058837604 0.05112114 0.016528826 -0.07780795 0.09896327 -0.00097011536
-0.048592854 0.13474949 0.111300364 0.06959784 -0.078605376 0.14965563 0.037901416 0.033007786
0.017039953 0.0478809 0.007373685 0.113698 0.0665403 0.039468996 -0.08892261 -0.013778976
-0.035555664 0.06605523 0.09134782 0.055410057 0.100448385 -0.111833714 0.035211977 -0.041418433
0.07883203 0.13347286 -0.023150805 -0.08754916 -0.06359033 0.027581356 -0.0009156534 0.09800231
-0.055834696 -0.15342885 0.03337905 -0.06912528 -0.06462371 0.089091666 0.082335636 -0.0043519265
0.024103845 -0.20872031 -0.12817453 -0.17906554 0.090372816 -0.03412806 0.020698775 0.034331758
-0.022998948 -0.065389544 0.11327713 0.07116008 0.090743855 -0.02462988 -0.099701226 -0.0027238964
0.07715681 0.05487364 0.030094244 -0.16594659 -0.024078637 -0.03444348 -0.12783119 -0.01809081
0.11917895 -0.009243706 -0.068298265 -0.004891413 0.0033474308 0.027260372 0.033867214 -0.046006918
0.1433109 -0.02437322 0.12511156 0.019645065 0.155984 0.004613784 0.113823816 -0.032586843
-0.119037315 -0.10146453 0.0033288635 0.0221504 -0.03796252 -0.08584454 -0.09278557 0.032683596
0.014239557 0.064904384 0.050693043 -0.080262035 0.049665 0.10014458 -0.031930145 -0.07007853
0.008790341 0.106039494 0.09492405 0.012485744 -0.11932483 0.14926657 0.028296016 0.018344045
0.11002455 0.14534692 0.08226585 -0.019292723 -0.06480435 0.07904294 -0.12815692 -0.08478822
-0.07751397 -0.022698661 0.056124613 -0.009608651 0.03440571 -0.10083941 0.052510463 -0.14777172
0.1266926 0.073407635 -0.092719786 0.058440097 0.05279811 0.11092036 -0.25469407 0.051471625
-0.09909202 0.062304292 0.06292072 0.04359166 0.03181237 -0.12826607 0.114797466 0.039583296
-0.07121212 -0.008756179 -0.17544918 0.06533143 0.034241553 0.023715902 0.0692857 0.05729284
0.054842606 0.07911999 -0.06524619 0.0012167478 0.07670968 0.11365577 -0.0024200105 0.04161681
-0.061439745 -0.014714642 -0.13483626 -0.059695996 -0.08107476 -0.14615452 -0.009180054 0.054156817
0.14668725 0.100913964 0.03410015 -0.06921907 -0.112412035 -0.0593224 -0.0060095545 -0.04243742
-0.11806078 -0.15147336 -0.0040416582 -0.086598694 -0.061978333 -0.07279025 -0.040216222 0.09850726
00000000: b22f 00be be80 e33b d93b b73d 7f86 abbd
00000010: 1bbd 083e 85f8 833d 1874 b4bd 4d0b 0e3d
00000020: 11d9 7d3d 9760 9c3d 3b25 c73d bbd2 d83d
00000030: 1873 e63c d7dc debd af7f 60bb 48f6 e5bd
00000040: 5d49 d23c 24a3 d13d b8d9 dabd 15f6 8e3d
00000050: 7d6a a83d 9738 b43d fcbd c2bd 227e a8bd
00000060: 54ba 063e 6046 11be b6ca 33bc 0897 25bc
00000070: 27e5 ce3d 44fd efbd f86a 4fbd d3bb 0d3d
00000080: 9aa1 c7bb f05b 18bd d615 cb3d 65b9 92bd
00000090: 205c aabd f463 aa3d 4144 73bd 32b7 62bd
000000a0: e256 983d 9579 e1bd b50f 5f3d 893f abbd
000000b0: 01f3 dbbc a43e ab3d ac62 db3c 44f7 e2ba
000000c0: 4efe 573d 81d8 00be 7f79 33bd b55d e6bd
000000d0: 69d0 063e c1f0 a5bc 6066 acbd 4b1e c83c
000000e0: 9461 aa3d 7830 fe3d 4ca4 d7bd b0c8 9bbd
000000f0: b2a1 2bbd faed d23d 133e a3bd 3538 9cbd
00000100: 6c12 d93c d988 23bd fe61 d739 eb3a eebc
00000110: 20ef eb3d 1a92 993d 1de2 92bd 9502 a6bd
00000120: 4dd1 983d 3119 263c b3ff 70bd 6764 513d
00000130: 7667 873c c659 9fbd 41ad ca3d 574f 7eba
00000140: 4d09 47bd c5fb 093e 72f1 e33d 5089 8e3d
00000150: dbfb a0bd 533f 193e 843e 1b3d 2c33 073d
00000160: 5f97 8b3c c31e 443d f49e f13b 7fda e83d
00000170: 4846 883d 3eaa 213d 0f1d b6bd 37c1 61bc
00000180: d1a2 11bd f747 873d 9114 bb3d a8f5 623d
00000190: e2b7 cd3d 1309 e5bd 6f3a 103d 60a6 29bd
000001a0: b072 a13d 1cad 083e c2a6 bdbc f94c b3bd
000001b0: a63b 82bd 4cf2 e13c 7608 70ba 6fb5 c83d
000001c0: ecb2 64bd 741c 1dbe 79b8 083d 8e91 8dbd
000001d0: 7059 84bd b175 b63d 969f a83d 9b9a 8ebb
000001e0: 6d75 c53c c7ba 55be 2f40 03be f55c 37be
000001f0: 6215 b93d ddc9 0bbd 7a90 a93c 759f 0c3d
00000200: 4a68 bcbc f4ea 85bd d7fd e73d 60bc 913d
00000210: ead7 b93d 9ac4 c9bc 2830 ccbd 6683 32bb
00000220: 6404 9e3d 2fc3 603d 3488 f63c e7ed 29be
00000230: 9040 c5bc 9b14 0dbd 2ee6 02be 2e33 94bc
00000240: 1814 f43d ea72 17bc f6df 8bbd 2548 a0bb
00000250: 9260 5b3b 2551 df3c 59b8 0a3d c071 3cbd
00000260: 18c0 123e 59aa c7bc 3f1d 003e b0ee a03c
00000270: 45ba 1f3e 3a2f 973b 761c e93d c879 05bd
00000280: d6c9 f3bd a3cc cfbd 1029 5a3b c174 b53c
00000290: 967e 1bbd 43cf afbd 5c06 bebd 3cdf 053d
000002a0: 084d 693c 97ec 843d 82a3 4f3d 6c60 a4bd
000002b0: 876d 4b3d 9a18 cd3d 2fc9 02bd 5585 8fbd
000002c0: 5d05 103c 3c2b d93d 8a67 c23d 0291 4c3c
000002d0: 9460 f4bd 56d9 183e 0ccd e73c 4046 963c
000002e0: 8d54 e13d d3d5 143e ff7a a83d c60b 9ebc
000002f0: 25b8 84bd 44e1 a13d 913b 03be 72a5 adbd
00000300: a5bf 9ebd 8bf2 b9bc ece2 653d 9a6d 1dbc
00000310: 00ed 0c3d e584 cebd 3615 573d 7851 17be
00000320: b4bb 013e be56 963d dfe3 bdbd e25e 6f3d
00000330: d542 583d 372a e33d 4367 82be e9d3 523d
00000340: c2f0 cabd c932 7f3d 94dc 803d 2b8d 323d
00000350: b04d 023d 2e58 03be ef1a eb3d 1822 223d
00000360: a9d7 91bd 1476 0fbc f3a8 33be 7ccc 853d
00000370: df40 0c3d da47 c23c a9e5 8d3d e6ab 6a3d
00000380: a4a2 603d a909 a23d cb9f 85bd 487b 9f3a
00000390: f719 9d3d 5bc4 e83d 0a99 1ebb 6376 2a3d
000003a0: 3ea8 7bbd af15 71bc 8412 0abe ca83 74bd
000003b0: 860a a6bd 88a9 15be f067 16bc 8ad3 5d3d
000003c0: 2f35 163e fbab ce3d 99ac 0b3d bac2 8dbd
000003d0: 4838 e6bd 0bfc 72bd cceb c4bb dcd2 2dbd
000003e0: dac9 f1bd d51b 1bbe e36f 84bb a85a b1bd
000003f0: fedc 7dbd 0e13 95bd c4b9 24bd 2dbe c93d

lstm.bias_ih_l1 f4 [256]
0.008663288 0.030397827 0.070665635 0.008007704 -0.14620732 0.025272368 0.009627236 -0.05967897
-0.055453382 -0.039545227 -0.09086462 0.070680514 -0.100812756 -0.047076594 -0.08721227 0.0005519249
0.043111295 -0.14758639 -0.047241148 0.047765553 0.07683177 0.02520576 -0.031477362 -0.0242935
0.0123057775 -0.092983246 0.07632062 0.05442346 -0.042979155 -0.06697275 0.13796476 -0.10780793
0.015004169 -0.11012895 -0.08352542 0.038074475 -0.031952992 -0.050690114 -0.1153275 -0.02348464
0.08701954 -0.11421023 0.058352023 -0.11090534 0.08870666 -0.07933596 0.14126064 0.10660484
-0.14307825 -0.09724802 0.038878784 -0.098392874 -0.13176325 0.10108474 -0.030485861 -0.09597409
0.06898586 -0.12735792 -0.11425913 0.06382845 -0.0488579 -0.032811854 -0.11626042 0.03172464
-0.08108154 -0.054083318 0.19968244 0.06567456 -0.004096985 0.01366367 0.027686507 0.056704015
0.09600619 -0.07447113 -0.077813 -0.06316538 0.062059678 0.030176125 0.027684493 -0.0323794
0.10206325 0.035688322 -0.02397254 -0.115924515 -0.06988806 0.012055169 -0.023838079 -0.17826043
0.018808503 -0.09668515 0.11227069 0.082564086 -0.08381408 0.029185146 -0.08663177 -0.063313276
0.0066599073 -0.035555642 -0.13871285 -0.054083977 0.030793065 0.104167886 -0.09655755 0.04189586
-0.08331289 0.007663366 -0.13533169 -0.14385618 0.11222816 -0.12968229 -0.05170162 0.05479871
0.065479584 0.06685626 -0.06499171 0.16348924 -0.07452536 0.09881488 0.098285444 0.115993135
0.026780827 -0.1475134 -0.07970521 0.1573672 0.0903591 -0.10397654 -0.044923194 -0.13440086
0.10465436 -0.0654945 0.13208413 -0.07821007 0.0110741835 0.061866585 0.028737236 -0.061989315
-0.016134067 -0.01775794 0.06323387 -0.034241494 0.019165494 0.02636963 0.016998408 0.044500828
0.07602302 -0.021876713 0.06602773 0.05578203 -0.053234447 0.083064325 0.022258539 0.029960338
-0.089749694 -0.042149257 0.112453416 -0.06219885 -0.030331658 0.0950289 0.115600064 0.009126908
-0.059847634 -0.0066627273 -0.12889957 0.04305984 0.069056936 0.037524708 -0.0025713108 0.013520019
-0.0853474 0.095744334 -0.056537963 0.081743225 0.032772906 0.055919703 -0.08333124 -0.06863116
0.066815734 0.1056377 -0.016135247 0.0525595 0.09215274 -0.03583123 -0.080264084 0.112649575
0.07681307 -0.013839992 -0.095855616 -0.07046538 0.038869437 -0.113410905 -0.0040195878 0.09381445
-0.10459117 -0.10712648 -0.16203296 -0.0011767187 0.018758055 -0.006133893 0.036561117 0.12848847
0.024137318 0.016669067 -0.1487439 -0.03638142 -0.0825709 -0.15111911 -0.07146216 0.06402525
-0.05742854 -0.003660528 -0.085844226 -0.03851662 -0.007531955 0.059477165 0.01951458 -0.15783168
-0.11778624 -0.14080596 -0.029785028 0.08193389 -0.042505752 0.10275354 0.106691964 0.03704889
-0.044573955 0.06701072 -0.10767368 -0.13104022 -0.14448006 -0.11517566 -0.14739785 -0.15085389
0.05840383 -0.13616405 -0.09327442 -0.15449773 -0.15872745 -0.05966675 0.034467615 0.005999436
0.034767386 -0.017568069 -0.111852504 -0.044702504 -0.023257721 -0.09880548 -0.06910234 0.009903794
-0.023517352 -0.10063023 -0.15528962 -0.16130187 0.10864429 0.028366696 -0.10970689 0.030945785
00000000: 77f0 0d3c dd04 f93c 25b9 903d bf32 033c
00000010: 5fb7 15be ff07 cf3c 8ebb 1d3c f071 74bd
00000020: 1623 63bd 2dfa 21bd 3b17 babd f2c0 903d
00000030: eb76 cebd 63d3 40bd 599c b2bd 0eaf 103a
00000040: 7895 303d e320 17be ef7f 41bd d0a5 433d
00000050: fa59 9d3d 4f7c ce3c 68ee 00bd 2a03 c7bc
00000060: 2c9e 493c 006e bebd fc4d 9c3d 22eb 5e3d
00000070: e90a 30bd 0229 89bd a246 0d3e 67ca dcbd
00000080: 0cd4 753c 498b e1bd 600f abbd fbf3 1b3d
00000090: 24e1 02bd 70a0 4fbd d330 ecbd dc62 c0bc
000000a0: 4d37 b23d 0ee7 e9bd 8802 6f3d 5722 e3bd
000000b0: d6ab b53d e47a a2bd a1a6 103e a353 da3d
000000c0: 1b83 12be f829 c7bd 5c3f 1f3d 3482 c9bd
000000d0: f2ec 06be 8405 cf3d 7cbd f9bc 108e c4bd
000000e0: 7548 8d3d 1d6a 02be b100 eabd 7eb8 823d
000000f0: 391f 48bd b965 06bd f119 eebd b2f1 013d
00000100: 140e a6bd 7886 5dbd 8e79 4c3e 6280 863d
00000110: 0040 86bb 96dd 5f3c d0ce e23c 7842 683d
00000120: e59e c43d 5284 98bd 6c5c 9fbd da5c 81bd
00000130: 4a32 7e3d ec33 f73c 97ca e23c 43a0 04bd
00000140: 8a06 d13d eb2d 123d 0f62 c4bc d569 edbd
00000150: 7921 8fbd 0b83 453c 1348 c3bc e789 36be
00000160: 4a14 9a3c dd02 c6bd 2dee e53d 5c17 a93d
00000170: b7a6 abbd b015 ef3c ff6b b1bd 64aa 81bd
00000180: 5a3b da3b cba2 11bd be0a 0ebe 2987 5dbd
00000190: bd41 fc3c f955 d53d f7bf c5bd fe9a 2b3d
000001a0: f39f aabd f91c fb3b 6494 0abe 094f 13be
000001b0: e1d7 e53d 6fcb 04be 14c5 53bd 9d74 603d
000001c0: 291a 863d efeb 883d 601a 85bd b969 273e
000001d0: c0a0 98bd 755f ca3d e149 c93d cf8d ed3d
000001e0: 7763 db3c c10d 17be 7c3c a3bd de24 213e
000001f0: 310e b93d a7f1 d4bd 6201 38bd 61a0 09be
00000200: 0655 d63d fb21 86bd 1041 073e 9a2c a0bd
00000210: 7e70 353c d167 7d3d 5a6a eb3c 82e8 7dbd
00000220: 972b 84bc 1979 91bc c280 813d cf40 0cbd
00000230: f400 9d3c 1f05 d83c 3f40 8b3c 8046 363d
00000240: f5b1 9b3d cb36 b3bc 8c39 873d b37b 643d
00000250: 5d0c 5abd a11d aa3d 8a57 b63c 626f f53c
00000260: b0ce b7bd b3a4 2cbd fa4d e63d 39c4 7ebd
00000270: 197a f8bc 839e c23d babf ec3d 0789 153c
00000280: cb22 75bd 0253 dabb 40fe 03be 845f 303d
00000290: b96d 8d3d 82b3 193d 7083 28bb 1283 5d3c
000002a0: 9eca aebd 9b15 c43d 5a94 67bd fe68 a73d
000002b0: e23c 063d 0f0c 653d 92a9 aabd 7e8e 8cbd
000002c0: b0d6 883d 9458 d83d 112e 84bc a148 573d
000002d0: 93ba bc3d c5c3 12bd 7f61 a4bd d2b4 e63d
000002e0: 2c50 9d3d 22c1 62bc f34f c4bd 2750 90bd
000002f0: 8f35 1f3d fa43 e8bd bfb6 83bb ca21 c03d
00000300: e533 d6bd 2165 dbbd f8eb 25be 213c 9aba
00000310: 7eaa 993c d3fe c8bb 1cc1 153d 7b92 033e
00000320: a0bb c53c 918d 883c 5250 18be af04 15bd
00000330: ef1a a9bd f8be 1abe c15a 92bd ac1f 833d
00000340: 303a 6bbd 78e5 6fbb 19cf afbd 9ac3 1dbd
00000350: 9ece f6bb 549e 733d 0add 9f3c a19e 21be
00000360: ea39 f1bd 702f 10be bbff f3bc f5cc a73d
00000370: 831a 2ebd 7370 d23d 5181 da3d 94c0 173d
00000380: 2e93 36bd eb3c 893d 0584 dcbd 682f 06be
00000390: 95f2 13be 37e1 ebbd 76ef 16be 7179 1abe
000003a0: db38 6f3d 976e 0bbe a906 bfbd a734 1ebe
000003b0: 7389 22be 1f65 74bd ea2d 0d3d eb96 c43b
000003c0: 3f68 0e3d e9ea 8fbc ed12 e5bd f919 37bd
000003d0: fa86 bebc 875a cabd 8785 8dbd 8643 223c
000003e0: 76a7 c0bc 3917 cebd 3e04 1fbe 512c 25be
000003f0: e680 de3d 4661 e83c 02ae e0bd 0482 fd3c
