trained_lstm_model.pth (torch, 427979 bytes, 39 tensors)

lstm.weight_ih_l0 f4 [128, 309]
0	0x3d6a122c	0.057146236
1	0x3d202d78	0.039105862
2	0x3e19530d	0.14973088
3	0xbd6217a0	-0.05519831
4	0x3e1c748b	0.15278833
5	0xbe1e291c	-0.1544537
6	0xbdfbcdf6	-0.12295143
7	0x3df988f6	0.12184326
8	0x3e26d7d3	0.16293268
9	0x3e0ce03f	0.13757418
10	0xbda4bf1e	-0.08044265
11	0xbc402cc0	-0.011729419
12	0xbd1c05e4	-0.038091555
13	0xbd0e8d6c	-0.03480284
14	0xbe0dc34e	-0.13844034
15	0x3e238577	0.15968882
16	0x3e24d0a3	0.16095214
17	0xbdfb4e5d	-0.12270806
18	0xbd2067dc	-0.039161548
19	0xbde126e4	-0.10993746
20	0x3d64b900	0.055840492
21	0xbe217704	-0.15768057
22	0xbda082d9	-0.07837457
23	0xbd4a2e58	-0.049360603
24	0xbce90280	-0.028443575
25	0xbdd841cc	-0.10559425
26	0xbdd23c81	-0.102654465
27	0x3e0ec477	0.13942133
28	0xbd190a98	-0.03736362
29	0xbc6533d0	-0.013989404
30	0xbd58497c	-0.052804455
31	0xbdb27264	-0.087132245
32	0xbd5adef6	-0.05343529
33	0x3b1f0fc0	0.0024270862
34	0x3d963492	0.07334246
35	0x3da72156	0.08160655
36	0xbcd6da20	-0.026227057
37	0xbd8c9db6	-0.068660185
38	0xbe08b86e	-0.13351604
39	0x3e06b59f	0.1315522
40	0xbd8a0c72	-0.06740655
41	0x3da469ee	0.08028017
42	0xbe22afc7	-0.15887366
43	0xbd73df58	-0.05953917
44	0xbe0465fe	-0.12929532
45	0x3e14f369	0.14545979
46	0xbe276d1c	-0.16350216
47	0x3dbaf2da	0.091283515
48	0x3d68a0c0	0.05679393
49	0xbcb8b950	-0.022549301
50	0x3c427db0	0.011870787
51	0xbde1bc0f	-0.110221975
52	0xbd9471c6	-0.07248263
53	0x3cfd0530	0.030886263
54	0x3aac0800	0.0013124943
55	0xbca020c0	-0.019546866
56	0x3d850c8a	0.06496532
57	0xbdc01df3	-0.09380712
58	0x3d0dfcfc	0.034665093
59	0x3de5ecae	0.11226784
60	0xbd3b2cbc	-0.04569696
61	0xbe279a43	-0.1636744
62	0x3e04f40f	0.12983726
63	0xbd9f2335	-0.07770387
64	0xbde70680	-0.11280537
65	0xbe188f41	-0.14898397
66	0x3d02de5c	0.03195034
67	0x3e283501	0.1642647
68	0xbe1e7a3f	-0.1547632
69	0xbcd08260	-0.025452793
70	0xbda4d0f0	-0.08047664
71	0xbe08be32	-0.13353804
72	0x3d880dbc	0.066432446
73	0xbce041c8	-0.027375117
74	0x3d7fbf74	0.062438443
75	0x3e2f3899	0.17111434
76	0xbe0eb430	-0.13935924
77	0xbddcbbd7	-0.10778015
78	0xbdb30aea	-0.08742316
79	0x3d9e9962	0.07744099
80	0x3d5a2684	0.053259388
81	0xbe130c59	-0.14360179
82	0x3d89825c	0.06714317
83	0x3e21e453	0.15809755
84	0xbd4cf588	-0.050038844
85	0xbdb4c2e7	-0.08826237
86	0x3e25ebf5	0.16203292
87	0xbcd8c1c0	-0.026459575
88	0xbdaaeaeb	-0.08345588
89	0x3e08f12b	0.13373248
90	0x3d5505a0	0.052007318
91	0x3e1c86bd	0.15285774
92	0xbdd1aebb	-0.10238405
93	0x3e1d2e29	0.1534964
94	0x3d829366	0.0637577
95	0xbdb3bcfc	-0.0877628
96	0x3d8de744	0.06928876
97	0xbded5442	-0.115883365
98	0xbe295f70	-0.16540313
99	0x3de4b01e	0.11166404
100	0xbdf27f61	-0.11840702
101	0xbdbbbdf5	-0.09167091
102	0xbd12f5c0	-0.035878897
103	0x3db62b96	0.08895032
104	0xbde6d5e8	-0.11271268
105	0x3dd0fd6a	0.10204585
106	0xbd7ba9ea	-0.06144134
107	0x3d7d18c4	0.061791196
108	0xbe2a4688	-0.16628468
109	0xbc7b72c0	-0.015347183
110	0xbc22f730	-0.009946629
111	0x3d888a44	0.06666997
112	0xbe3501d3	-0.17676477
113	0xbe3230d7	-0.17401443
114	0xbdbef404	-0.09323886
115	0x3b3aa6c0	0.0028480738
116	0xbdd95aaa	-0.10612996
117	0x3e05641f	0.13026474
118	0xbe0648fa	-0.13113776
119	0xbdca00f0	-0.0986346
120	0xbd3a0a30	-0.04541987
121	0x3d98107a	0.07425018
122	0x3dacffe2	0.08447243
123	0x3dc6cbba	0.097068265
124	0x3dcfbafa	0.10143085
125	0x3e121be1	0.14268447
126	0x3dfaf432	0.12253608
127	0x3db0d36e	0.08634077
128	0xbdcfae5a	-0.10140677
129	0xbc958d60	-0.01825589
130	0xbd836046	-0.06414847
131	0xbdc9a8ce	-0.0984665
132	0xbd89b822	-0.06724574
133	0xbd952a3e	-0.07283448
134	0xbd62216a	-0.055207647
135	0xbdbd9ea6	-0.092587754
136	0x3e1cb08b	0.15301721
137	0xbd9041a2	-0.070437685
138	0xbe0aae52	-0.1354306
139	0xbcee1880	-0.029064417
140	0xbd684ea4	-0.056715623
141	0xbe2accbd	-0.16679664
142	0xbe29d6b5	-0.1658581
143	0xbe2a9a13	-0.16660337
144	0x3dec4c56	0.115379974
145	0x3c9a1f80	0.018813848
146	0x3d3836b8	0.04497406
147	0xbdb5b894	-0.08873096
148	0x3e134335	0.14381106
149	0x3e229393	0.15876608
150	0x3df446fe	0.11927603
151	0x3e0a5b61	0.13511421
152	0x3d4093cc	0.04701595
153	0x3d843b28	0.06456596
154	0xbdf2b579	-0.118510194
155	0xbe117511	-0.14204814
156	0xbe240c83	-0.16020398
157	0xbdec7ae4	-0.11546877
158	0xbc54d350	-0.012989834
159	0xbdbfb0c7	-0.093598895
160	0x3c192f40	0.009349644
161	0xbe1c0faa	-0.1524035
162	0x3d1cb854	0.038261726
163	0xbd515318	-0.051104635
164	0x3df6d8ca	0.12053068
165	0xbdcf6081	-0.101258285
166	0xbc3e3b80	-0.011610866
167	0x3d1b5ed4	0.037932232
168	0x3d92b816	0.07164018
169	0x3e2b48d7	0.16727005
170	0x3e2e0c75	0.1699694
171	0x3dc0df76	0.09417622
172	0x3df5dde2	0.120052114
173	0xbdaa0392	-0.08301462
174	0xbd1af750	-0.03783351
175	0xbd9c7213	-0.076389454
176	0x3dee30f6	0.11630432
177	0xbd16b6bc	-0.036795363
178	0xbda07594	-0.07834926
179	0x3deca896	0.11555593
180	0xbc237c80	-0.009978414
181	0x3da74b0e	0.081686124
182	0xbce9dda0	-0.028548062
183	0xbe1fe0ed	-0.15613146
184	0xbe0d63a6	-0.13807544
185	0xbd2f7e18	-0.04284486
186	0xbd55652c	-0.05209844
187	0xbe153370	-0.14570403
188	0xbe0c2555	-0.13686116
189	0x3e32e797	0.17471157
190	0x3e3431c9	0.17597117
191	0xbd3bf594	-0.0458885
192	0xbe22f1ae	-0.15912506
193	0x3a681700	0.0008853525
194	0x3e2c694f	0.16837047
195	0xbc5f83b0	-0.013642237
196	0xbe14f9d5	-0.14548428
197	0xbd8f4116	-0.06994836
198	0x3e149cd1	0.14512946
199	0xbdb88c6c	-0.09011158
200	0xbd9c22a3	-0.07623794
201	0xbdf7d9ce	-0.1210209
202	0x3da87f46	0.082274005
203	0xbe215c84	-0.15757948
204	0xbd8ef9a9	-0.06981213
205	0x3e0aceb5	0.13555415
206	0x3dfbd3c2	0.12296249
207	0x3dcc2ee2	0.0996988
208	0xbe2d9eaa	-0.16955057
209	0x3ddd2e52	0.107998505
210	0x3db47c5a	0.08812781
211	0x3e21b467	0.15791474
212	0x3cc286e0	0.023745954
213	0xbd6af088	-0.057358295
214	0xbe2e52d7	-0.17023788
215	0xbd7f6d36	-0.06236001
216	0xbdc33cdf	-0.095330946
217	0xbc724580	-0.014787078
218	0x3dda1d82	0.106501594
219	0xbe1d93fd	-0.15388484
220	0xbd9c613a	-0.07635732
221	0xbd24d2f8	-0.040240258
222	0xba351200	-0.0006907284
223	0xbdb716e5	-0.08939914
224	0x3d8b563c	0.06803557
225	0x3e1472df	0.14496945
226	0xbda37d4f	-0.07982885
227	0x3d03e8ac	0.032204315
228	0x3de6e0c2	0.11273338
229	0xbe1546ae	-0.14577743
230	0xbb846f20	-0.0040415674
231	0x3cc050b8	0.02347599
232	0xbdca2930	-0.09871137
233	0x3dfff726	0.12498312
234	0xbe084350	-0.13306928
235	0x3db50cde	0.08840345
236	0x3e071bc1	0.13194181
237	0xbdcde87d	-0.10054109
238	0x3d4890f8	0.048966378
239	0xbd8c543a	-0.068520024
240	0x3e00accd	0.12565918
241	0xbd99c60f	-0.0750848
242	0xbd88599c	-0.06657717
243	0xbdf6bc50	-0.120476365
244	0x3de9ff12	0.11425604
245	0x3e1e7727	0.1547514
246	0xbe1e3bf4	-0.15452558
247	0x3dd9e3ea	0.10639174
248	0xbd727b3a	-0.05919955
249	0xbcec85d0	-0.0288724
250	0x3d60c678	0.054876775
251	0xbd2076fc	-0.039175972
252	0xbc906e88	-0.01763083
253	0xbdf64080	-0.12024021
254	0x3bc8baa0	0.006125763
255	0xbe2bac7f	-0.16765021

lstm.weight_hh_l0 f4 [128, 32]
0	0x3c2aa9a0	0.010416418
1	0xbd71320c	-0.05888562
2	0xbc8eec48	-0.017446652
3	0xbe050821	-0.12991382
4	0xbdcd2003	-0.100158714
5	0x3de45532	0.11149062
6	0xbb5f35c0	-0.0034059137
7	0x3c418020	0.011810333
8	0xbd79d6e4	-0.06099595
9	0xbd979881	-0.07402135
10	0xbca26ac0	-0.019826293
11	0x3de07b42	0.109610096
12	0x3e1512e3	0.14557986
13	0x3e0bb8ed	0.13644762
14	0x3bbd99c0	0.0057861507
15	0x3e1fc595	0.15602715
16	0xbdda9e63	-0.10674741
17	0x3e0782e7	0.13233529
18	0x3e2b4c57	0.1672834
19	0x3e2e965f	0.1704955
20	0xbd81441f	-0.06311821
21	0x3e08be91	0.13353945
22	0xbe0e2eab	-0.1388499
23	0x3e0d8c41	0.13823034
24	0x3dfde1a6	0.12396555
25	0xbd982974	-0.074297816
26	0x3c98ba60	0.018643558
27	0xbd834e5a	-0.06411429
28	0x3e1c76a7	0.15279637
29	0xbd808364	-0.06275061
30	0x3de92e5e	0.11385797
31	0xbd014e30	-0.031568706
32	0xbd05da2c	-0.032678768
33	0x3aaa6900	0.0013001263
34	0x3d009d54	0.03140004
35	0xbd412af0	-0.04716009
36	0xbd39dd98	-0.045377344
37	0x3dcd964a	0.10038431
38	0xbdbbcef6	-0.09170334
39	0xbe17707b	-0.14789002
40	0x3de70a92	0.11281313
41	0x3e027dd9	0.1274332
42	0x3da3da12	0.08000578
43	0x3ab30b80	0.0013660043
44	0xbe29c39e	-0.16578528
45	0xbd744d14	-0.05964382
46	0x3e0070d5	0.12543042
47	0xbd7e798c	-0.062127635
48	0x3dd8e54a	0.105906084
49	0x3d517db0	0.051145256
50	0xbe064893	-0.13113622
51	0xbdc7a6df	-0.09748625
52	0x3ba77f80	0.0051116347
53	0x3d94e122	0.07269503
54	0x3de30c26	0.110863015
55	0x3e340beb	0.17582671
56	0xbd9621d4	-0.07330671
57	0xbd7ee5e4	-0.06223096
58	0x3cb75370	0.022378653
59	0x3d4d41f0	0.05011171
60	0x3e33bf4d	0.17553444
61	0xbd83ad02	-0.06429483
62	0x3d0a98c8	0.03383711
63	0x3deab96e	0.11461149
64	0xbc3745c0	-0.011186063
65	0xbdb46eae	-0.08810173
66	0xbd4b44f4	-0.049626306
67	0x3d997c6a	0.07494433
68	0xbe185e02	-0.14879611
69	0x3c88ddf0	0.01670739
70	0x3de1fdaa	0.11034711
71	0xbe11acdc	-0.14226097
72	0x3e34c60b	0.17653672
73	0xbd5049bc	-0.05085157
74	0x3d8c60ce	0.068544015
75	0xbd8425cd	-0.064525224
76	0xbd850150	-0.06494391
77	0x3c817f78	0.015807852
78	0x3ddbf316	0.10739724
79	0xbce067e0	-0.027393281
80	0x3e2710f5	0.16315062
81	0x3de92e5a	0.11385794
82	0xbe258ff7	-0.161682
83	0xbb0c9100	-0.0021448731
84	0x3ddc1186	0.1074553
85	0x3e0d63ed	0.1380765
86	0x3e1b3ad3	0.15159158
87	0xbe0711b1	-0.13190342
88	0x3d8b3b5a	0.0679843
89	0x3b249b00	0.0025116801
90	0x3e0d7d3d	0.13817306
91	0xbd056af4	-0.0325727
92	0x3de51bd2	0.11186947
93	0x3d6d8400	0.057987213
94	0x3ddc54e6	0.107583806
95	0x3e088dbf	0.13335322
96	0x3e276ff1	0.16351296
97	0x3e2d64c7	0.16932975
98	0x3e1402e9	0.14454235
99	0x3e11f634	0.14254075
100	0x3df5418a	0.11975391
101	0x3e34f25b	0.17670576
102	0xbe1db3ea	-0.15400663
103	0x3cd5ab00	0.026082516
104	0x3e159b4b	0.14610021
105	0xbd940909	-0.07228286
106	0x3dca6366	0.0988224
107	0xbe30e468	-0.1727463
108	0x3d37bd20	0.044858098
109	0x3d23c8bd	0.03998636
110	0xbd1b0090	-0.037842333
111	0xbe118067	-0.14209138
112	0x3c3d30fe	0.011547325
113	0x3e1459d2	0.14487389
114	0x3dbde646	0.09272437
115	0xbd2d23c4	-0.042270437
116	0x3d9ac0fa	0.075563386
117	0xbd825cfa	-0.0636539
118	0x3d04192f	0.03225058
119	0x3d0f9ed9	0.0350636
120	0x3e016035	0.12634356
121	0x3d7ead63	0.062177073
122	0x3e17ee0b	0.148369
123	0xbdb880cb	-0.0900894
124	0x3d9fb662	0.07798459
125	0xbe0bc971	-0.13651063
126	0xbdef48ac	-0.11683783
127	0xbde6d31d	-0.112707354
128	0x3cb39480	0.021921396
129	0xb95de800	-0.00021162629
130	0x3d80c844	0.06288198
131	0x3de959fa	0.11394115
132	0xbe2180ad	-0.15771742
133	0xbdebe55a	-0.11518355
134	0xbd964fc7	-0.07339435
135	0x3b1b4e80	0.0023697913
136	0xbdaa34f2	-0.0831088
137	0xbda64204	-0.0811806
138	0x3e0fcd49	0.14043154
139	0x3da5d84a	0.080978945
140	0x3df4d016	0.11953752
141	0xbde44ccb	-0.111474596
142	0x3d1fe6d4	0.039038494
143	0x3e1deb6f	0.15421842
144	0x3da8ba6e	0.08238684
145	0xbe1d6897	-0.15371929
146	0xbbe9f1e0	-0.0071394295
147	0xbdcfd73b	-0.10148474
148	0xbde1d32c	-0.11026606
149	0x3d2c6678	0.04208991
150	0x3debe4b6	0.115182325
151	0xbda78da9	-0.081813164
152	0x3e0e4f1f	0.1389737
153	0x3da75f92	0.081725255
154	0xbc258570	-0.010102615
155	0xbe10b87d	-0.14132877
156	0xbdecea0a	-0.11568077
157	0xbe10df3e	-0.1414766
158	0xbd2121b0	-0.039338768
159	0xbdcb0aef	-0.09914195
160	0xbe01827c	-0.12647432
161	0xbd517cb8	-0.05114433
162	0xbe06f79a	-0.1318039
163	0xbdc37ae5	-0.09544925
164	0x3c2582e0	0.010102004
165	0x3d96e2a2	0.073674455
166	0x3c2ad130	0.010425851
167	0xbdc04e38	-0.09389919
168	0x3e0fbf6b	0.14037864
169	0x3e1c9d2f	0.15294336
170	0xbe0ec76c	-0.13943261
171	0xbe0f96fa	-0.14022437
172	0x3e21173f	0.15731524
173	0x3bb92e00	0.0056512356
174	0xbdc44e74	-0.09585276
175	0x3d82ce78	0.06387037
176	0x3dca2f52	0.09872307
177	0xbdde9dec	-0.10869965
178	0x3d82d192	0.063876286
179	0xbcb00660	-0.021487415
180	0xbd8112ef	-0.063024394
181	0x3e15a483	0.14613537
182	0xbc8a5808	-0.01688768
183	0x3e1a772b	0.15084521
184	0xbdfc3fc9	-0.123168536
185	0xbd807d53	-0.06273904
186	0x3c3d1010	0.011539474
187	0x3d96be7e	0.07360552
188	0x3e119455	0.1421674
189	0x3e18e057	0.14929329
190	0x3deddab2	0.116139784
191	0x3def826e	0.11694799
192	0xbe0f4c53	-0.13993959
193	0x3e102737	0.1407746
194	0x3d9e4dae	0.0772966
195	0x3ceee990	0.029164106
196	0x3e1585fb	0.1460189
197	0x3e114ec5	0.14190204
198	0xbbea8c94	-0.0071578715
199	0x3d1f6df4	0.03892322
200	0xbd8ae84d	-0.06782589
201	0x3e01d215	0.12677796
202	0x3d895456	0.06705539
203	0xbd0c604c	-0.034271523
204	0x3e069923	0.13144355
205	0x3da2f785	0.07957367
206	0xbe034ac0	-0.12821484
207	0x3d0b5a60	0.034021735
208	0x3d612b75	0.054973084
209	0xbe2ebba8	-0.17063773
210	0xbe1a70bd	-0.15082069
211	0xbe2b88a0	-0.16751337
212	0x3c92d9f0	0.017926186
213	0xbdab176e	-0.08354078
214	0xbe0cc08a	-0.13745323
215	0x3e032d07	0.12810145
216	0x3d26911d	0.040665735
217	0xbdb978cf	-0.090562455
218	0xbe0540cc	-0.13013
219	0xbdd8109a	-0.105500415
220	0xbe2df827	-0.16989194
221	0xbded7228	-0.11594039
222	0x3be448a0	0.0069666654
223	0x3d8122b4	0.06305447
224	0xbdee4cc6	-0.11635737
225	0xbdcbc16c	-0.09949002
226	0xbdd44141	-0.10364009
227	0xbb8a7f00	-0.0042265654
228	0xbcd73d08	-0.02627422
229	0x3e20196d	0.15634699
230	0x3d70d564	0.058797255
231	0xbe000b78	-0.12504375
232	0xbc01b2e0	-0.007916182
233	0xbdbbb0d5	-0.091645874
234	0xbb278f40	-0.0025567561
235	0xbe129bb1	-0.14317204
236	0x3db3a7c2	0.08772232
237	0x3dc39aa6	0.09550981
238	0x3d0d6be8	0.034526736
239	0x3e1bd14d	0.1521656
240	0x3c090890	0.008363858
241	0xbe2f8d1c	-0.17143673
242	0x3d168728	0.03674999
243	0xbc69c520	-0.01426819
244	0x3de49d7e	0.11162852
245	0xbe301c5f	-0.17198323
246	0xbd3c73dc	-0.04600893
247	0xbe18f98c	-0.14938945
248	0xbdb57a87	-0.08861261
249	0xbd64a746	-0.055823587
250	0xbd8aa45a	-0.06769629
251	0xbd8ee7e7	-0.069778256
252	0xbdf53600	-0.1197319
253	0x3e1822b1	0.14856984
254	0x3a57fa00	0.0008238852
255	0x3e18af65	0.14910658

lstm.bias_ih_l0 f4 [128]
0	0x3e1ed0d3	0.15509348
1	0x3e12c469	0.14332737
2	0x3da70aee	0.081563815
3	0xbe266a0f	-0.16251396
4	0xbe199e05	-0.15001686
5	0xbc233040	-0.009960234
6	0xbd8da48f	-0.06916153
7	0x3e01d657	0.1267942
8	0xbe0adf1e	-0.13561675
9	0xbe10337b	-0.14082138
10	0x3e11a299	0.14222182
11	0x3e0c7b41	0.13718893
12	0x3e2db7fd	0.16964717
13	0xbdb4ba27	-0.08824568
14	0xbde38b3f	-0.111105435
15	0xbda68789	-0.0813132
16	0xbd26e791	-0.040748183
17	0x3ce86a58	0.028371021
18	0x3bcafd20	0.0061947256
19	0xbda3236b	-0.0796574
20	0xbda1d974	-0.07902804
21	0xbe275ace	-0.16343233
22	0xbcaea088	-0.021316782
23	0xbd84e9a3	-0.06489875
24	0xbe1293ed	-0.14314242
25	0x3cb94418	0.022615477
26	0x3d94ead2	0.07271351
27	0xbda40f1d	-0.08010695
28	0x3cb980db	0.02264445
29	0x3d72663c	0.05917953
30	0x3dade0ee	0.084901676
31	0x3daa2c12	0.08309187
32	0x3dc9ec0a	0.09859474
33	0x3e0e48e9	0.13895
34	0xbda334e5	-0.07969073
35	0x3df88a74	0.12135783
36	0xbd9d4599	-0.0767929
37	0xbde0981a	-0.10966511
38	0xbdbfdfde	-0.09368871
39	0xbd3e6d0c	-0.046490714
40	0xbe03e67e	-0.12880895
41	0xbe02c0d9	-0.12768878
42	0x3ddabf6a	0.106810406
43	0xbcc3e858	-0.023914501
44	0x3e199d0f	0.1500132
45	0x3e0e6515	0.13905747
46	0x3dcbc28e	0.09949218
47	0xbcc58410	-0.024110824
48	0x3e27254c	0.16322821
49	0xbdf20c38	-0.11818737
50	0x3da00bc2	0.078147426
51	0xbd391404	-0.045185104
52	0x3ddcfe9a	0.10790749
53	0xbe10ea0b	-0.1415178
54	0xbe345ee8	-0.17614329
55	0x3d9b2c6d	0.07576833
56	0x3dbdb142	0.09262325
57	0xbd3d67c4	-0.046241537
58	0x3d8062f1	0.062688716
59	0xbd88fc0b	-0.066886984
60	0x3db6165e	0.08890985
61	0x3d245eb4	0.04012938
62	0xbe2568bb	-0.16153233
63	0xbe1ebf4a	-0.15502658
64	0x3dedd92e	0.11613689
65	0x3d6c935c	0.05775772
66	0xbd3ae738	-0.045630664
67	0x3d1140f0	0.03546232
68	0xbe305547	-0.1722003
69	0x3da34eae	0.07973991
70	0x3d37e90c	0.044899985
71	0x3e14a961	0.14517738
72	0x3d3a4868	0.04547921
73	0xbe045184	-0.1292172
74	0xbd86f323	-0.065893434
75	0x3d6510c4	0.055924192
76	0x3de2074a	0.110365465
77	0x3e051177	0.12994944
78	0x3e1532a1	0.14570095
79	0x3dcd841e	0.10034965
80	0x3dc454a6	0.09586458
81	0xbe17b6f9	-0.14815892
82	0xbe0a3af7	-0.13499056
83	0xbe0a244f	-0.13490413
84	0xbe162507	-0.14662562
85	0xbcac2ba0	-0.021016896
86	0xbd66c933	-0.056344222
87	0x3a4b4942	0.0007754752
88	0x3d319f50	0.043364823
89	0xbe0c198b	-0.13681619
90	0x3daa2b69	0.08309061
91	0xbd380094	-0.044922426
92	0xbc61bcf0	-0.013777956
93	0xbe0a0fdf	-0.13482617
94	0x3c3ea2d0	0.011635497
95	0x3e2ceb43	0.1688662
96	0xbc45a740	-0.012063801
97	0x3e333312	0.1749995
98	0xbc07b6d0	-0.008283332
99	0xbd48332c	-0.048876926
100	0x3e34d6c7	0.17660056
101	0x3d1d5a3c	0.038416132
102	0xbd9da1e2	-0.07696892
103	0xbcd65cec	-0.026167355
104	0xbe18451c	-0.14870113
105	0x3e06faad	0.13181563
106	0xbdb665c3	-0.08906128
107	0xbe08d88a	-0.13363853
108	0x3e1b7230	0.15180278
109	0xbdfc97f8	-0.12333673
110	0xbd950913	-0.072771214
111	0xbe25e78d	-0.16201611
112	0xbdd85484	-0.10562995
113	0xbe30c907	-0.17264186
114	0x3d89d292	0.06729616
115	0xbe0a8f7a	-0.13531294
116	0xbe158df0	-0.14604926
117	0x3da40018	0.080078304
118	0xbdbacf70	-0.09121597
119	0xbc8fe8e0	-0.017567098
120	0x3de9f96e	0.11424528
121	0xbdbb6afe	-0.091512665
122	0xbcb06e68	-0.02153702
123	0xbe1ce72a	-0.15322557
124	0xbd722bb8	-0.059123725
125	0xbe105ebc	-0.14098638
126	0xbd8d8e9a	-0.06911965
127	0xbe1e8806	-0.15481576

lstm.bias_hh_l0 f4 [128]
0	0x3e1ec873	0.15506153
1	0x3e0884e9	0.13331951
2	0x3e2a52b1	0.16633107
3	0xbd5e41b7	-0.05426189
4	0x3c541da0	0.012946516
5	0x3dfc110a	0.123079374
6	0x3d84e168	0.06488305
7	0x3e13099b	0.14359133
8	0xbd9fb525	-0.077982225
9	0xbe20c4b5	-0.15700038
10	0x3dad3082	0.08456518
11	0x3deef702	0.11668207
12	0x3d826b18	0.06368083
13	0x3d165120	0.03669846
14	0xbd944fd0	-0.072417855
15	0x3d932772	0.07185258
16	0xbd44c711	-0.048041407
17	0xbe30f063	-0.172792
18	0xbe0bb55c	-0.13643402
19	0x3c29a373	0.010353911
20	0x3d947408	0.07248694
21	0x3e0f927d	0.14020725
22	0xbd8b7e4c	-0.068111986
23	0xbe182dec	-0.14861268
24	0xbd761c7e	-0.060085766
25	0xbde2bfa5	-0.110717095
26	0x3d15c83b	0.036567908
27	0xbe0ac18c	-0.13550395
28	0xbdbc448d	-0.091927625
29	0xba329f00	-0.0006813854
30	0xbe0aa9f1	-0.1354139
31	0xbd04df54	-0.032439545
32	0xbc794a00	-0.015215397
33	0x3d80226a	0.06256564
34	0xbbdbb800	-0.006705284
35	0x3dc20c7c	0.094750375
36	0x3e0a594f	0.13510631
37	0x3e0292b5	0.12751277
38	0xbd84d7a3	-0.06486442
39	0xbca5d548	-0.020243302
40	0xbe1a418e	-0.1506407
41	0xbe115695	-0.14193185
42	0xbc8bf400	-0.017084122
43	0x3dffc5ea	0.12488921
44	0xbe117568	-0.14204943
45	0x3ce50099	0.027954387
46	0x3e1d2827	0.15347348
47	0xbe17b82a	-0.14816347
48	0x3e29a014	0.16564971
49	0xbdf97a3f	-0.1218152
50	0xbcd16e70	-0.025565356
51	0xbd943768	-0.072371304
52	0x3e08e5bb	0.13368885
53	0x3d8c782e	0.0685886
54	0x3e179b71	0.1480539
55	0xbbbd1762	-0.0057706097
56	0xbdbe66e7	-0.09296971
57	0x3dfd75a2	0.12375952
58	0xbdfb548d	-0.12271986
59	0x3dc8f78e	0.09812842
60	0xbdab13a7	-0.08353358
61	0x3b6b5740	0.003591016
62	0x3e091311	0.1338618
63	0xbe02e181	-0.12781335
64	0xbe171c68	-0.1475693
65	0xbdaf3806	-0.085556075
66	0xbd5d85b2	-0.05408258
67	0x3c285920	0.010275155
68	0x3cf8a120	0.030350268
69	0x3e227847	0.15866195
70	0x3d71704c	0.058944985
71	0x3ddaffae	0.10693298
72	0xbd4b4e0c	-0.04963498
73	0x3b657bc0	0.0035016388
74	0xbd855458	-0.06510228
75	0x3db04efa	0.086088136
76	0x3db0d44e	0.08634244
77	0xbde1dde4	-0.110286504
78	0x3d0b6974	0.034036115
79	0xbd3dc144	-0.04632689
80	0x3ded6fbe	0.11593579
81	0x3db25ee6	0.08709507
82	0xbdf8e1e6	-0.12152462
83	0xbddfd682	-0.10929586
84	0x3dfa758a	0.1222945
85	0x3c5dc54b	0.013535808
86	0x3c97659b	0.018481066
87	0x3e1e7d94	0.15477592
88	0x3c87b7a8	0.016567066
89	0xbe2efa80	-0.17087746
90	0x3d7e39b4	0.06206675
91	0xbd751260	-0.059831977
92	0xbd8eb5bb	-0.06968256
93	0x3e1b0485	0.15138443
94	0xbdb09994	-0.08623043
95	0x3db4cb46	0.08827834
96	0x3d17ff00	0.03710842
97	0x3d38ea61	0.045145396
98	0xbdb5f344	-0.0888429
99	0xbe14b667	-0.14522706
100	0x3ddebf46	0.10876326
101	0xbd96a710	-0.073560834
102	0x3e32fa91	0.17478396
103	0x3dca772c	0.098860115
104	0xbcd829f8	-0.0263872
105	0x3e285b33	0.1644104
106	0xbd80b1c6	-0.062839076
107	0xbd3bdba4	-0.045863762
108	0x3d4227dc	0.047401294
109	0xbcd2aee9	-0.02571817
110	0x3c466050	0.012107924
111	0x3d31f584	0.043447033
112	0x3d7cbbd7	0.061702576
113	0xbc569de4	-0.0130991675
114	0xbe0cccb8	-0.13749969
115	0x3d024c30	0.03181094
116	0xbd6a55a8	-0.057210594
117	0x3df63c38	0.120232046
118	0x3d6c1b3c	0.05764316
119	0x3d7162e0	0.058932185
120	0xbbacdf00	-0.005275607
121	0x3df47d0d	0.11937914
122	0xbd006f34	-0.03135605
123	0xbdc15d86	-0.09441666
124	0xbde0c27e	-0.109745964
125	0xbd378af0	-0.044810236
126	0x3e239c7f	0.15977667
127	0xbe339e46	-0.17540845

lstm.weight_ih_l1 f4 [128, 32]
0	0xbc42ba80	-0.011885285
1	0x3e0cfe0a	0.13768783
2	0x3e1b3125	0.15155466
3	0x3e2e9662	0.17049554
4	0xbc592930	-0.013254449
5	0x3ddf4606	0.10902028
6	0xbe1670ee	-0.14691517
7	0xbd343624	-0.043996945
8	0x3d01809c	0.031616792
9	0x3e168b7d	0.14701648
10	0xbd0f7680	-0.03502512
11	0x3d2d1d48	0.042264253
12	0x3d953558	0.07285565
13	0xbdfde567	-0.12397271
14	0x3dd39156	0.10330455
15	0x3e01e99f	0.12686776
16	0xbb70ea03	-0.0036760576
17	0xbda2eda3	-0.07955482
18	0x3d847df4	0.06469336
19	0xbe19eaf4	-0.15031034
20	0xbd97b8e1	-0.0740831
21	0x3da948ac	0.08265814
22	0x3e026474	0.12733632
23	0x3e3935bb	0.18086903
24	0xbddbaaa0	-0.107259035
25	0x3ce02be5	0.02736468
26	0xbddc6b3b	-0.1076264
27	0xbd9f7924	-0.077867776
28	0xbc353e92	-0.011062281
29	0x3e12e181	0.14343835
30	0x3b9772a0	0.0046218187
31	0xbc957250	-0.018242985
32	0xbaf82480	-0.0018931776
33	0x3d063cf1	0.032772962
34	0xbe2dd8b7	-0.16977201
35	0x3e120f32	0.14263609
36	0xbdf2a60f	-0.118480794
37	0xbe1a11e4	-0.15045887
38	0xbe0c4f61	-0.13702156
39	0x39a000c2	0.00030518143
40	0x3cd429a0	0.025898755
41	0xbdc95cd6	-0.0983216
42	0xbd8a7c61	-0.06762005
43	0xbdab3ebb	-0.08361574
44	0x3da4e6e7	0.080518536
45	0xbd87dc2a	-0.0663379
46	0xbcc61770	-0.024181098
47	0xbd894951	-0.06703437
48	0xbe0a60ad	-0.13513441
49	0xbdcc7e68	-0.099850476
50	0xbe301330	-0.1719482
51	0xbd859a2f	-0.06523549
52	0x3e170d75	0.14751227
53	0xbcd70f14	-0.026252307
54	0xbd09ca9d	-0.033640493
55	0xbb8c032f	-0.0042728405
56	0xbe017c2d	-0.12645026
57	0xbe1e0cb2	-0.1543453
58	0xbd9685eb	-0.073497616
59	0xbe14cd9e	-0.14531562
60	0x3d2e863c	0.042608485
61	0xbda63709	-0.08115966
62	0xbde71d86	-0.11284928
63	0xbccea678	-0.025225863
64	0xbd6cd088	-0.05781606
65	0x3e083fba	0.1330556
66	0x3d71fb70	0.05907768
67	0xbd168ddc	-0.03675638
68	0xbc8c2aa0	-0.017110169
69	0xbe06953f	-0.1314287
70	0x3c7c351b	0.015393521
71	0x3deea5b7	0.11652701
72	0xbd24531c	-0.04011832
73	0x3e2f9481	0.17146493
74	0xbe0d42b9	-0.13794984
75	0x3e25fd71	0.16209961
76	0xbe2ed798	-0.1707443
77	0x3e1559fd	0.14585109
78	0x3ddff4ee	0.109353885
79	0xbdf77f9b	-0.12084886
80	0xbdac7598	-0.08420867
81	0xbda686d3	-0.081311844
82	0xbe31c88c	-0.17361659
83	0xbd59a11e	-0.05313217
84	0x3e34a04d	0.17639275
85	0x3e1e5b4e	0.15464517
86	0x3b37a2d8	0.0028020646
87	0xbd73da97	-0.059534635
88	0x3e1557e1	0.14584304
89	0xbc92a0f6	-0.017899018
90	0x3d0f5e9d	0.03500234
91	0xbe0c5f30	-0.13708186
92	0x3e1afb6f	0.15134977
93	0xbe2d466a	-0.16921392
94	0xbd179330	-0.037005603
95	0x3ddf861a	0.1091425
96	0x3c2ad7d0	0.01042743
97	0x3d878bd0	0.06618464
98	0xbd917e7c	-0.07104203
99	0xbe3dd607	-0.18538676
100	0xbe2ec772	-0.1706827
101	0x3db890fe	0.0901203
102	0xbccd1964	-0.025036521
103	0xbc2038c4	-0.009779159
104	0xbda25641	-0.07926608
105	0xbca03198	-0.019554898
106	0x3a555300	0.0008137673
107	0xbdbff0cb	-0.093720995
108	0xbe03a028	-0.12854064
109	0xbe1d6311	-0.15369822
110	0xbd943239	-0.07236142
111	0xbc98a1f8	-0.01863192
112	0x3c092e3d	0.0083728405
113	0x3cc38adf	0.02386993
114	0xbe042b58	-0.1290716
115	0x3e1f622f	0.15564798
116	0xbd931b48	-0.07182938
117	0x3e234a83	0.15946393
118	0x3dbafed4	0.09130636
119	0x3dfcc162	0.12341572
120	0xbd300480	-0.04297304
121	0xbdd0adb8	-0.10189384
122	0x3dbc5a24	0.091968805
123	0x3e077c50	0.13231015
124	0xbdb8a67a	-0.09016128
125	0xbca5e720	-0.02025181
126	0xbe058900	-0.13040543
127	0x3c02fba0	0.007994562
128	0xbd2c2510	-0.042027533
129	0x3da2b782	0.079451576
130	0x3e1c9a5f	0.15293263
131	0x3def99b7	0.11699241
132	0x3d17fb78	0.037105054
133	0x3d09f090	0.033676684
134	0xbdc2de71	-0.095150836
135	0x3e23edeb	0.16008727
136	0x3dd3155a	0.10306807
137	0x3df8e56e	0.12153135
138	0x3db4f4aa	0.088357285
139	0x3e175c5f	0.1478133
140	0x3dd3339f	0.1031258
141	0x3e0df9b8	0.13864791
142	0x3d1ac1c8	0.03778246
143	0x3d850dc0	0.06496763
144	0x3dc0b50e	0.094095334
145	0xbdf0b457	-0.11753147
146	0x3d38c264	0.04510726
147	0xbd641a5c	-0.0556892
148	0xbd922ba0	-0.07137227
149	0xbc88bb73	-0.016690945
150	0xb95f456e	-0.00021292802
151	0x3e17c18e	0.14819929
152	0x3d5b74aa	0.053578056
153	0xbd4d0b0e	-0.05005937
154	0x3cb1de22	0.021712366
155	0xbce01a5b	-0.027356317
156	0xbdcaa1b1	-0.098941214
157	0x3d4037a8	0.046928078
158	0xbe283d7a	-0.16429701
159	0x3dc9bcba	0.0985045
160	0xbc3f4380	-0.011673808
161	0xbe096bf5	-0.13420089
162	0xbe005453	-0.12532167
163	0xbe2bf20f	-0.16791557
164	0x3d684d18	0.056714147
165	0x3dbb525a	0.09146567
166	0xbd2657c3	-0.04061104
167	0x3deb04f0	0.11475551
168	0x3e0bfd6f	0.13670896
169	0xbd29a8d0	-0.041420758
170	0xbe0c1c5b	-0.13682692
171	0x3e2b38c3	0.16720872
172	0x3e30c79c	0.17263645
173	0xbe20d031	-0.15704419
174	0xbdef0e61	-0.116726644
175	0xbcad66a0	-0.0211671
176	0xbe2bde95	-0.16784127
177	0xbe1b5df9	-0.15172566
178	0x3e306917	0.17227589
179	0x3e1f214d	0.15540047
180	0xbde1bddf	-0.11022543
181	0x3de03532	0.10947646
182	0x3d09c1f1	0.033632223
183	0xbd514791	-0.05109364
184	0xbe21b0e0	-0.15790129
185	0x3d7172cb	0.058947366
186	0x3db889db	0.09010669
187	0xbe2074e7	-0.15669595
188	0xbd738174	-0.059449628
189	0xbd97e663	-0.0741699
190	0xbd8d1dfc	-0.06890485
191	0x3e0ac8a7	0.13553105
192	0x3e2882cd	0.16456147
193	0xbe08be92	-0.13353947
194	0xbe200527	-0.15626965
195	0x3e4c56f4	0.19955045
196	0xbc042f30	-0.008067891
197	0x3e02437b	0.12721054
198	0x3dd7eb59	0.10542936
199	0xbdc41d7f	-0.095759384
200	0xbe1e868f	-0.15481018
201	0x3de0d6c6	0.10978465
202	0xbdb3c4ad	-0.08777747
203	0x3e1c749d	0.1527886
204	0x3e161759	0.14657344
205	0xbcbe3ec6	-0.023223292
206	0x3e2547bd	0.16140647
207	0x3ba43b20	0.005011931
208	0xbdcf2120	-0.1011374
209	0xbddb40fe	-0.10705756
210	0x3d37ae5c	0.044844016
211	0x3d8c3bee	0.06847368
212	0xbe30567c	-0.17220491
213	0x3e58026b	0.21094672
214	0x3e014bbc	0.12626547
215	0xbdc7a5f8	-0.09748453
216	0x3d2e0db1	0.042493526
217	0xbb5b5960	-0.003347002
218	0x3e3b6656	0.18300757
219	0xbdb54f14	-0.088529736
220	0xbe16b512	-0.1471751
221	0x3c9eb4c0	0.019373298
222	0x3e05c0db	0.1306185
223	0x3da66cbe	0.0812621
224	0x3d47a4d8	0.04874119
225	0x3db1dc02	0.08684541
226	0x3c0e12c0	0.008671463
227	0xbd2667cb	-0.04062633
228	0x3d92f578	0.07175726
229	0xbc309110	-0.010776773
230	0xbde710df	-0.11282515
231	0xbd62935e	-0.05531632
232	0xbd88f920	-0.06688142
233	0x3dffedae	0.12496506
234	0x3d0fd960	0.035119414
235	0x3d8225fc	0.06354901
236	0x3ddaa1e0	0.106754065
237	0x3dd6aaf9	0.10481829
238	0x3e14b02b	0.14520328
239	0x3ddfaec2	0.10922004
240	0xbe1bda8d	-0.1522009
241	0xbd9938fa	-0.074815705
242	0xbe1fa489	-0.15590109
243	0xbcb17b53	-0.02166525
244	0x3d074e38	0.03303358
245	0x3e0fe8dd	0.14053674
246	0x3e14978c	0.14510936
247	0xbdf458df	-0.11931013
248	0x3dbeabc2	0.09310104
249	0x3e4db393	0.20088033
250	0xbd49f73b	-0.049308043
251	0xbe0e374c	-0.13888282
252	0xbd0e11de	-0.03468501
253	0xbd752622	-0.05985082
254	0x3e2a57a9	0.16635002
255	0xbd99b3a1	-0.075049646

lstm.weight_hh_l1 f4 [128, 32]
0	0x3db901a5	0.09033517
1	0x3d0348a4	0.032051697
2	0x3dd123e9	0.102119274
3	0xbe25f74d	-0.16207619
4	0xbe45302a	-0.19256654
5	0xbda2dddb	-0.07952472
6	0x3e10436f	0.14088224
7	0xbdab13a9	-0.08353359
8	0x3e1a2b47	0.15055571
9	0xbca86561	-0.020556154
10	0x3d261f97	0.04055747
11	0x3e16f4cd	0.14741822
12	0x3ca1d9fc	0.019757263
13	0x3dcc28ee	0.09968744
14	0xbe28e767	-0.16494523
15	0x3dae7ad7	0.085195236
16	0x3e1c6b73	0.15275364
17	0xbcd21836	-0.02564631
18	0xbb8ab6be	-0.0042332103
19	0x3c3a27f5	0.011362066
20	0x3e10dde3	0.14147143
21	0x3e2626c9	0.16225733
22	0xbdf9bc8c	-0.121941656
23	0xbe44176e	-0.19149563
24	0xbd83e41c	-0.06439993
25	0xbd9a69f5	-0.07539741
26	0x3cc57615	0.024104157
27	0xbdf107ac	-0.117690414
28	0xbca0b7e1	-0.01961893
29	0x3d99c312	0.0750791
30	0x3de386bd	0.11109684
31	0x3e03b971	0.12863709
32	0x3d9d634d	0.07684956
33	0xbde52b51	-0.111899026
34	0xbd370b11	-0.044688288
35	0x3d972f4c	0.07382068
36	0xbd3c98db	-0.04604421
37	0xbcabc66a	-0.020968635
38	0xbe019baa	-0.12657037
39	0xbe46602d	-0.19372626
40	0x3d25478e	0.040351443
41	0xbd73c517	-0.05951413
42	0xbdd714d9	-0.10502023
43	0xbddc4de5	-0.10757045
44	0xbdfda294	-0.12384525
45	0xbd49a4d4	-0.049229458
46	0xbdca1671	-0.098675616
47	0xbcf4d4ca	-0.029886622
48	0x3d32a41c	0.04361354
49	0xbe0b9ed8	-0.13634813
50	0x3d99e431	0.07514227
51	0x3e32e9e7	0.17472039
52	0xbdb8ecb0	-0.090295196
53	0x3e38adc7	0.18035041
54	0x3d084816	0.03327187
55	0x3d12fb30	0.035884082
56	0xbdfb0c40	-0.12258196
57	0x3d36416b	0.04449598
58	0x3d23555f	0.039876338
59	0xbd1f96eb	-0.038962286
60	0xbc8b3897	-0.016994758
61	0x3dfcb568	0.12339288
62	0xbdb06001	-0.08612061
63	0xbd4159de	-0.047204845
64	0xbba03d4e	-0.0048901206
65	0x3d7ac006	0.061218284
66	0xbe1645eb	-0.14675109
67	0xbdb353a1	-0.08756185
68	0xbdcecfa4	-0.10098198
69	0xbd92f527	-0.07175665
70	0xbddf25a5	-0.10895852
71	0xbe2ace12	-0.16680172
72	0x3d6882ff	0.056765553
73	0xbd1ff5b6	-0.039052688
74	0xbd5f0ccd	-0.054455567
75	0x3e0fb74d	0.14034767
76	0x3df02089	0.117249556
77	0xbd807285	-0.06271843
78	0xbd0aa5c0	-0.033849478
79	0xbe3e1f85	-0.18566711
80	0xba398855	-0.0007077505
81	0xbe05330a	-0.13007751
82	0xbe301f82	-0.1719952
83	0xbce39c02	-0.027784351
84	0x3bcd4d67	0.0062653306
85	0xbdbb86bf	-0.0915656
86	0xbe1b2fbf	-0.15154932
87	0x3e006abf	0.1254072
88	0x3d908e80	0.0705843
89	0xbdf55c8d	-0.11980543
90	0x3db1e96a	0.08687098
91	0xbda267e8	-0.07929975
92	0x3d15beaa	0.036558785
93	0xbe52593a	-0.2054185
94	0xbd8a95f4	-0.067668825
95	0xbdbb6c92	-0.091515675
96	0x3dab6dbc	0.083705395
97	0xbe1d20d8	-0.1534456
98	0xbd245be5	-0.0401267
99	0x3e200ac0	0.15629101
100	0xbdd626c7	-0.10456615
101	0xbcf8dfd6	-0.03038017
102	0x3e498a19	0.19681586
103	0x3db05e47	0.08611732
104	0x3e4da4a8	0.20082343
105	0xbd49c9ed	-0.049264837
106	0x3da0d69f	0.07853436
107	0x3d3c0031	0.04589862
108	0xbe0a7b5f	-0.13523625
109	0xbad5dc5b	-0.0016316281
110	0x3e4959b3	0.19663124
111	0xbcd14df9	-0.025549876
112	0x3e0dd857	0.13852058
113	0x3e70d98e	0.2352049
114	0xbdbb0aee	-0.09132944
115	0x3e162ec4	0.14666277
116	0x3e41498a	0.18875709
117	0xbde122f3	-0.10992994
118	0xbdb7a877	-0.08967679
119	0xbd130423	-0.035892617
120	0xbd9eff73	-0.07763567
121	0xbdb927ab	-0.09040769
122	0xbd33ffa7	-0.04394498
123	0xbd89ff75	-0.06738178
124	0x3dc3ec3b	0.09566542
125	0x3da0cb2a	0.078512505
126	0xbe23ea66	-0.16007385
127	0xbd7f9807	-0.062400844
128	0xbcbd53fa	-0.023111332
129	0xbe431541	-0.19051076
130	0x3e076314	0.13221389
131	0xbc8c0aac	-0.017094932
132	0x3da38fdd	0.07986424
133	0xbbd32b0a	-0.0064443396
134	0x3dfc0967	0.12306481
135	0xbe26f222	-0.16303304
136	0x3ce7b153	0.028282797
137	0x3d730f67	0.05934086
138	0x3dc0c70e	0.09412967
139	0x3d805d8a	0.06267841
140	0x3e1bcc72	0.15214708
141	0x3d816d6b	0.06319698
142	0x3cf1202a	0.029434282
143	0xbe3723c8	-0.17884743
144	0xbd9b1afd	-0.07573507
145	0xbe0ee61b	-0.13954966
146	0xbe3ce07f	-0.18445013
147	0x3d096979	0.033547852
148	0x3cbfe3c5	0.023424039
149	0x3de74a26	0.112934396
150	0xbd3cfbe4	-0.04613866
151	0x3c72c55f	0.014817565
152	0xbd840414	-0.0644609
153	0xbdbea676	-0.09309094
154	0xbdcba323	-0.09943225
155	0xbd837224	-0.06418255
156	0x3b493acf	0.0030705219
157	0xbd7f0ccc	-0.062268063
158	0xbe12a5ba	-0.14321032
159	0x3dda05d7	0.10645645
160	0x3d83f4c7	0.06443172
161	0x3e15acbe	0.14616677
162	0x3de2e3fd	0.110786416
163	0xbdae52e5	-0.085119046
164	0xbbe148c1	-0.006875128
165	0x3d8e004c	0.069336504
166	0xbd4cc824	-0.049995556
167	0x3dc7fa12	0.09764494
168	0x3e37c6f2	0.17946985
169	0x3d8bd9c2	0.068286434
170	0xbdb66335	-0.08905641
171	0xbdf727d2	-0.12068142
172	0xbcec9c6a	-0.028883178
173	0xbe04071e	-0.1289334
174	0xbdec8ab8	-0.11549896
175	0x3d19f69b	0.037588697
176	0x3e381957	0.17978416
177	0x3d56f65c	0.05248104
178	0x3db3f028	0.087860405
179	0x3e13240c	0.1436922
180	0x3dd25491	0.10270036
181	0x3cb61ec7	0.022231473
182	0x3d0d6e5d	0.03452908
183	0x3d85afea	0.065276936
184	0x3d6976ed	0.056998182
185	0x3e2b5b18	0.16733968
186	0x3df8d4d9	0.121499725
187	0xbde5d4ab	-0.11222204
188	0xbd8ec517	-0.06971186
189	0x3e03aff5	0.12860091
190	0xbdfe97da	-0.12431307
191	0x3dad7ce1	0.084710844
192	0x3e578bce	0.21049425
193	0xbdd95a6b	-0.10612949
194	0x3c03d2f7	0.008045903
195	0xbd9ff950	-0.078112245
196	0x3d0b2a9c	0.033976182
197	0x3defdd0a	0.11712082
198	0xbd2e0550	-0.042485535
199	0x3ddb8a0d	0.107196905
200	0xbd5e9cc7	-0.054348733
201	0xbba04a8b	-0.0048916987
202	0xbdf31c03	-0.11870577
203	0x3c9cfbe5	0.019163081
204	0x3c78fa9b	0.015196468
205	0x3d2cd715	0.042197306
206	0xbc7faaca	-0.015604684
207	0xbe139cb7	-0.1441525
208	0xbc1fac50	-0.009745672
209	0x3c9377b1	0.01800141
210	0x3e31df0b	0.1737024
211	0xbdf00493	-0.117196225
212	0x3d96ef8a	0.07369907
213	0x3e1bc8a0	0.15213251
214	0xbe0ebfbf	-0.13940333
215	0xbe1c9b8a	-0.15293708
216	0xbdf473e3	-0.11936166
217	0x3e01ff8a	0.12695137
218	0x3da54759	0.08070249
219	0xbe1ac3ed	-0.15113802
220	0xbcc82f61	-0.024436655
221	0xbe044f22	-0.12920812
222	0xbccfaadc	-0.025350027
223	0xbd881da0	-0.066462755
224	0x3dd21333	0.10257568
225	0xbd50a4d4	-0.050938442
226	0x3ddd5851	0.10807861
227	0xbe09e80e	-0.13467428
228	0x3dfe870e	0.124281034
229	0xbcba181e	-0.022716578
230	0x3cc18027	0.023620678
231	0xbdaa2c39	-0.08309216
232	0xbd4b5b3c	-0.049647555
233	0xbd9471ae	-0.07248245
234	0xbe0878af	-0.13327287
235	0xbde0b8b4	-0.10972729
236	0x3e0e9edd	0.13927789
237	0x3bfe4da2	0.0077607194
238	0xbdb3ba7a	-0.08775802
239	0xbd789c23	-0.06069578
240	0x3e12cf93	0.14336996
241	0x3d14eb1d	0.036357034
242	0xbe16a90f	-0.14712928
243	0x3e4f2129	0.20227493
244	0x3d62154f	0.055196103
245	0x3d966965	0.07344321
246	0xbdada797	-0.08479231
247	0x3dfb438d	0.12268744
248	0xbe151fc6	-0.14562902
249	0xbe1529f5	-0.14566787
250	0xbe0d4ec8	-0.13799584
251	0xbd8d5eda	-0.06902857
252	0xbb125fe5	-0.002233499
253	0x3e329ba8	0.1744219
254	0x3e14c9db	0.14530127
255	0xbd8560ee	-0.065126285

lstm.bias_ih_l1 f4 [128]
0	0xbd8f45d4	-0.069957405
1	0x3d151dc9	0.03640536
2	0x3e05f226	0.13080654
3	0x3dcd59e6	0.100269124
4	0xbce9c48f	-0.02853611
5	0x3e30a8e0	0.1725192
6	0xbdc86420	-0.09784722
7	0xbc18b449	-0.009320327
8	0xbe0160c2	-0.12634566
9	0x3da66474	0.08124629
10	0x3d8aeb1a	0.06783123
11	0xbde7fab1	-0.113271125
12	0x3d0a0868	0.033699423
13	0xbcdba46a	-0.026811797
14	0x3e23ea3f	0.16007327
15	0x3df377c2	0.11888076
16	0x3e2f70c4	0.1713286
17	0xbe0691f7	-0.13141619
18	0xbd4ce4c1	-0.050022844
19	0x3d90a90c	0.07063493
20	0xbc27cb44	-0.010241333
21	0xbd2c46b2	-0.042059608
22	0x3d9979a9	0.07493908
23	0xbe1d0630	-0.15334392
24	0x3e090904	0.13382345
25	0x3df45816	0.119308636
26	0x3e0787dc	0.1323542
27	0xbd9a622b	-0.07538255
28	0x3bbc00f8	0.00573742
29	0x3da7e215	0.081974186
30	0xbdf31a8b	-0.11870297
31	0xbdffc6dc	-0.12489101
32	0x3cf2944a	0.029611725
33	0x3d5ec42c	0.054386303
34	0x3e2767d7	0.16348206
35	0x3da0f203	0.0785866
36	0x3d6d4eb5	0.05793639
37	0xbd87d63d	-0.066326596
38	0x3e2ee467	0.17079316
39	0xbdf0bf14	-0.11755195
40	0x3b8afddc	0.004241688
41	0xbdb25ef7	-0.08709519
42	0xbd0bc78d	-0.034125853
43	0xbc7b29a4	-0.015329752
44	0xbd30688a	-0.043068446
45	0x3d7ed8c4	0.062218443
46	0x3b93661d	0.004498257
47	0x3da7303c	0.08163497
48	0xbd98a384	-0.07453063
49	0x3e261a64	0.16221005
50	0xbe0f148b	-0.1397268
51	0x3d9889a1	0.07448126
52	0xbbd4fbb6	-0.006499733
53	0xbcfce678	-0.030871615
54	0xbc8c0188	-0.017090574
55	0x3ce4ac13	0.027914083
56	0xbdc394c8	-0.09549862
57	0x3e1cf13d	0.153264
58	0x3d083593	0.033254217
59	0x3dbd6010	0.09246838
60	0xbda8c874	-0.082413584
61	0x3e249568	0.16072619
62	0xbdcd7e77	-0.10033887
63	0x3c75cfd4	0.015003163
64	0x3e1e97f0	0.15487647
65	0xbde17e68	-0.11010438
66	0xbde4c0c5	-0.1116958
67	0x3e200744	0.15627772
68	0xbded3c3f	-0.11583757
69	0xbdd26870	-0.10273826
70	0x3e025eda	0.12731495
71	0x3cf2dbf4	0.029645897
72	0x3e141bb4	0.14463693
73	0xbdac64c5	-0.08417658
74	0xbd452ff3	-0.04814143
75	0x3d95db5e	0.073172316
76	0x3c278cca	0.010226438
77	0xbcda38f5	-0.026638487
78	0x3e1dbf10	0.15404916
79	0x3d7a3cce	0.061093144
80	0x3d5883ec	0.052860186
81	0xbd70b447	-0.058765676
82	0x3d261154	0.04054387
83	0x3dc6485e	0.09681772
84	0x3d8364f6	0.06415741
85	0x3d85af82	0.06527616
86	0xbd353438	-0.044239253
87	0xbd0ce44d	-0.034397412
88	0xbdbc82ac	-0.09204611
89	0x3d072cde	0.033001773
90	0xbdd10eeb	-0.102079235
91	0x3e09467d	0.13405795
92	0xbd828f7e	-0.06375025
93	0xbd8a2010	-0.06744397
94	0xbd562e47	-0.052290227
95	0x3e08c47b	0.13356201
96	0xbe225039	-0.15850915
97	0x3e113537	0.14180456
98	0x3e13a961	0.14420082
99	0xbded865a	-0.11597891
100	0xbe1c0492	-0.15236118
101	0x3d56e5c4	0.052465215
102	0x3daaba21	0.083362825
103	0x3e15c5a5	0.14626177
104	0x3c84b057	0.016197367
105	0xbe1870ef	-0.14886831
106	0xbdcfbbbf	-0.101432316
107	0x3e2cb1b4	0.16864663
108	0x3e1528fc	0.14566416
109	0xbc9c544f	-0.01908317
110	0xbe16ee60	-0.1473937
111	0x3d137eb8	0.03600952
112	0xbdb021ec	-0.0860022
113	0x3def3afb	0.116811715
114	0x3e16f419	0.14741553
115	0x3d46b918	0.048516363
116	0xbd53869a	-0.051642038
117	0x3e3712a2	0.17878202
118	0xbdf9959d	-0.121867396
119	0x3e261a7c	0.1622104
120	0xbe108b66	-0.14115676
121	0xbe2083cf	-0.15675281
122	0xbd99715d	-0.074923255
123	0x3e1111a6	0.14166889
124	0x3d65c15b	0.0560926
125	0xbc300c06	-0.010745054
126	0x3e0dc8fb	0.13846199
127	0x3d848802	0.06471254

lstm.bias_hh_l1 f4 [128]
0	0xbdafeffe	-0.08590697
1	0xbdae365c	-0.08506462
2	0x3dfe15e4	0.12406519
3	0x3e0232f9	0.12714757
4	0xbd3e3b46	-0.046443246
5	0x3e11ad1a	0.1422619
6	0xbe1ba073	-0.15197925
7	0x3d471afd	0.048609722
8	0xbdebc523	-0.1151221
9	0xbc89992e	-0.016796675
10	0x3e16e543	0.14735894
11	0x3dc79aef	0.09746348
12	0x3d0fc746	0.03510215
13	0x3d34ed2e	0.044171505
14	0x3d81c218	0.063358486
15	0x3e371225	0.17878015
16	0x3e64e732	0.22353819
17	0x3d6945ca	0.05695132
18	0xbdafdd00	-0.08587074
19	0x3d9a7b4a	0.07543047
20	0x3e18d715	0.14925797
21	0x3dfbfe1a	0.123043254
22	0x3e188a85	0.14896591
23	0xbcb62e0a	-0.02223875
24	0xbd2ce7a2	-0.04221309
25	0x3dcfa15e	0.101382
26	0x3d544d85	0.05183174
27	0x3e4300e2	0.19043306
28	0x3e3caf88	0.18426335
29	0xbd38a655	-0.0450805
30	0x3dfe184a	0.124069765
31	0x3c8fd43a	0.017557252
32	0xbdf12061	-0.11773754
33	0x3d869141	0.06570674
34	0xbe1ce8c2	-0.15323165
35	0xbcdda8b2	-0.02705798
36	0xbd40ddb1	-0.04708642
37	0x3e1e969c	0.1548714
38	0x3e11efec	0.14251679
39	0xbd8e627c	-0.06952378
40	0x3e3db3a0	0.18525553
41	0xbdededc7	-0.11617618
42	0xbdc73d47	-0.097284846
43	0xbd92a376	-0.07160084
44	0x3d97c298	0.07410163
45	0xbc586826	-0.013208425
46	0xbdc99bbe	-0.098441586
47	0x3df9fab8	0.12206024
48	0xbcdfb36a	-0.027307231
49	0xbde51d79	-0.11187262
50	0xbd7f5699	-0.062338445
51	0x3d52404d	0.051330853
52	0x3e49eb68	0.19718707
53	0x3d30a1a7	0.043122914
54	0xbd31da43	-0.04342104
55	0x3e149f6c	0.1451394
56	0x3e0b5301	0.13605882
57	0xbd3ede36	-0.046598636
58	0x3e1b5f13	0.15172987
59	0x3dcadea5	0.09905747
60	0xbdb75d8f	-0.08953392
61	0x3e21087c	0.15725893
62	0x3e265519	0.162434
63	0x3e195c97	0.14976726
64	0xbdc5c12a	-0.09655984
65	0xbc52e23a	-0.012871319
66	0x3d60a9f5	0.054849584
67	0xbe310ad0	-0.17289281
68	0x3e215443	0.157548
69	0xbbe95a0f	-0.0071213315
70	0xbdcdc332	-0.10046996
71	0x3d1c5702	0.038168915
72	0xbcf39bf4	-0.02973745
73	0xbdb03c9e	-0.08605312
74	0xbdaa9f95	-0.08331219
75	0xbdec8159	-0.115481086
76	0xbdb4b83d	-0.08824203
77	0xbddb2070	-0.10699546
78	0x3dde9dc0	0.10869932
79	0x3d8da8d9	0.06916971
80	0xbe0aeb4d	-0.13566323
81	0x3d29b931	0.041436378
82	0xbd1507b2	-0.036384292
83	0xbdd9aeef	-0.10629069
84	0x3cc56357	0.02409522
85	0x3df2a02d	0.11846957
86	0x3e16383c	0.14669889
87	0xbe233604	-0.15938574
88	0x3d54a24a	0.051912583
89	0x3dd1b67a	0.10239883
90	0x3d4661b8	0.048433036
91	0x3de0bed8	0.109739006
92	0x3e0b9b77	0.13633524
93	0x3e0219f1	0.12705208
94	0x3e1f2d4a	0.1554462
95	0xbdb5ee65	-0.08883361
96	0xbd12aac8	-0.0358074
97	0xbcf3ffb0	-0.029785007
98	0x3d6de144	0.05807616
99	0x3e2afc02	0.16697696
100	0x3de404ea	0.1113375
101	0x3df2078e	0.11817847
102	0x3e12bb9e	0.14329383
103	0x3ddfde99	0.10931129
104	0xbd567f69	-0.0523676
105	0xbdf9a8ba	-0.12190385
106	0x3d52482a	0.051338352
107	0xbbd204bd	-0.0064092563
108	0x3c9951fd	0.018715853
109	0x3db36484	0.08759406
110	0xbd430a7f	-0.04761743
111	0x3e236479	0.15956296
112	0x3d68ebbb	0.056865435
113	0x3b88bf86	0.004173222
114	0x3b90b675	0.004416282
115	0x3e3a9b6c	0.18223351
116	0x3bfd1ced	0.0077243955
117	0x3c85f69c	0.016352944
118	0xbd6968da	-0.05698476
119	0x3e21982e	0.15780708
120	0xbe1bffee	-0.15234348
121	0xbd0ee1bb	-0.034883242
122	0xbd0e690d	-0.034768153
123	0x3e428d26	0.18999156
124	0xbd9288b7	-0.071549825
125	0x3cfe2ab3	0.03102622
126	0x3d93655e	0.07197069
127	0xbe29e6f2	-0.16592005

lstm.weight_ih_l2 f4 [128, 32]
0	0xbda6c805	-0.081436194
1	0xbe0ed597	-0.13948666
2	0x3d0f3840	0.034965754
3	0xbdd20199	-0.10254211
4	0x3cc1fbf9	0.02367972
5	0x3d8671d2	0.06564678
6	0xbe11936b	-0.14216392
7	0xbd904fb8	-0.07046455
8	0x3d6926b7	0.056921687
9	0xbde03b59	-0.1094882
10	0xbcff669a	-0.031176854
11	0x3dfe6122	0.1242087
12	0xbd0cd146	-0.034379266
13	0x3d8a12a8	0.0674184
14	0x3e3658b1	0.1780727
15	0x3c14df59	0.009086453
16	0x3d24a535	0.040196616
17	0x3e2e9d85	0.17052276
18	0xbe49e29b	-0.1971535
19	0xbdc25e70	-0.09490669
20	0xbc3ad0a2	-0.011402281
21	0xbdf3dfb7	-0.119079046
22	0xbbb31f35	-0.0054663667
23	0x3e0f6fa6	0.14007434
24	0x3e312ee0	0.17303038
25	0xbc81dc0a	-0.015851993
26	0xbdd51857	-0.10405033
27	0xbdf0cbc2	-0.11757614
28	0x3ab373df	0.0013691148
29	0xbe063d99	-0.13109435
30	0xbd103584	-0.035207286
31	0xbdd05fc7	-0.10174518
32	0x3c3bdcf8	0.011466257
33	0x3e1c1e65	0.1524597
34	0xbe0d66d8	-0.13808763
35	0x3d3e8c29	0.046520386
36	0xbcc15416	-0.023599666
37	0x3d158483	0.036503326
38	0x3df33958	0.11876172
39	0xbd621eff	-0.05520534
40	0x3df2fa5d	0.11864159
41	0xbe139ff9	-0.14416493
42	0xbdc5f256	-0.096653625
43	0x3e37f9ed	0.17966433
44	0x3b164b0a	0.002293291
45	0x3e3eeb2e	0.18644401
46	0x3ae3fb53	0.0017393626
47	0xbdd963bd	-0.10614727
48	0xbd90c631	-0.07069052
49	0x3ce02928	0.027363375
50	0x3d48df70	0.04904121
51	0xbe3ac7e6	-0.18240318
52	0x3d9621e7	0.07330685
53	0xbd9fddd7	-0.078059845
54	0xbe123e1a	-0.14281502
55	0xbe1d3513	-0.15352277
56	0x3d3da2b4	0.046297744
57	0x3db2e9b4	0.087359816
58	0xbdee7574	-0.11643496
59	0x3d839269	0.0642441
60	0x3ccae7df	0.024768768
61	0xbdb0a725	-0.0862563
62	0x3a633ed1	0.0008668723
63	0x3c6965f9	0.014245504
64	0xbc1de6ec	-0.009637576
65	0xbe04c39c	-0.12965244
66	0x3e0c00ee	0.1367223
67	0xbdffb65c	-0.12485954
68	0x3c3d0e36	0.011539033
69	0xbe18ee33	-0.14934616
70	0x3d1bdab4	0.03805037
71	0x3d8aae8c	0.067715734
72	0x3e45a727	0.19302045
73	0xbe3449b3	-0.17606239
74	0xbdbc3c45	-0.09191183
75	0xbcf57e23	-0.029967373
76	0xbe0814f4	-0.13289243
77	0xbb11e99d	-0.0022264489
78	0x3c4c51bf	0.012470662
79	0x3dd958bb	0.10612627
80	0x3e4e2c34	0.2013405
81	0xbd0a2948	-0.033730775
82	0xbd1131f8	-0.035448045
83	0xbd10590e	-0.03524118
84	0x3de2c53b	0.11072775
85	0x3e021d8e	0.12706587
86	0x3d173f63	0.036925685
87	0xbd8769ec	-0.06612
88	0x3d88a1a3	0.06671455
89	0x3e4b744d	0.19868584
90	0xbe067e4b	-0.13134114
91	0x3e4e3efb	0.20141213
92	0xbda67e4f	-0.0812956
93	0x3e1ae139	0.15124978
94	0x3de1cbb5	0.11025182
95	0x3de15daf	0.11004197
96	0x3ddda030	0.10821569
97	0x3d92db69	0.071707554
98	0xbe175b08	-0.1478082
99	0xbe0cd298	-0.1375221
100	0xbe4781c9	-0.19483103
101	0xbe0037ee	-0.12521335
102	0x3af6ef4f	0.001883963
103	0xbe2a35b9	-0.16622056
104	0xbccd4fbe	-0.025062438
105	0x3d65d864	0.05611457
106	0x3db5691b	0.08857938
107	0x3cbfb060	0.023399532
108	0xbbc33adc	-0.0059579443
109	0xb9587108	-0.00020641473
110	0x3dbc5533	0.09195938
111	0xbcfc0654	-0.030764736
112	0xbc55b67a	-0.013043994
113	0x3e0a55e6	0.1350933
114	0x3e102244	0.14075571
115	0x3e0aca0c	0.13553637
116	0x3d52e53e	0.051488154
117	0x3e00cf3c	0.12579054
118	0x3b8006c3	0.003907056
119	0xbd0223e0	-0.031772494
120	0xbd95c9c2	-0.07313873
121	0x3d850522	0.0649512
122	0x3d066a45	0.03281619
123	0xbd8c6e28	-0.06856948
124	0x3e3284d9	0.1743349
125	0x3dd366dd	0.10322354
126	0xbe0a2f0f	-0.13494514
127	0xbc397d8c	-0.011321437
128	0x3de2fdcc	0.11083564
129	0xbe40c820	-0.18826342
130	0x3cfe1b15	0.031018773
131	0x3dd1eb60	0.10249972
132	0xbc9a47e5	-0.01883311
133	0x3e1b958f	0.15193771
134	0x3deadfdc	0.11468479
135	0xbe2234c2	-0.15840438
136	0xbdc255eb	-0.09489044
137	0xbe1cc755	-0.15310414
138	0x3e12b57b	0.14327042
139	0xbdd7dcfc	-0.10540196
140	0x3dbdc4a5	0.092660226
141	0xbd660c6b	-0.056164186
142	0x3cc41bfd	0.023939127
143	0xbd87fe55	-0.06640307
144	0x3d15b5b8	0.036550254
145	0xbd391f43	-0.04519583
146	0x3cfebc10	0.031095535
147	0xbd0a4981	-0.033761505
148	0xbb1e838d	-0.0024187297
149	0x3a798036	0.0009517701
150	0x3e1e2e1b	0.15447275
151	0xbd7599ad	-0.05996101
152	0xbdf336df	-0.118757
153	0x3d52e2ae	0.05148571
154	0x3d33602d	0.043792892
155	0x3e001846	0.1250926
156	0x3e0b3546	0.13594541
157	0x3e1ececc	0.15508574
158	0x3e0bcd9b	0.13652651
159	0xbdb2fa07	-0.08739095
160	0xbcf1b3a0	-0.029504597
161	0x3dd94e3b	0.106106244
162	0xbd368888	-0.0445638
163	0xbdd720bd	-0.10504291
164	0xbdca64d7	-0.09882515
165	0x3d5089b4	0.050912574
166	0xbe05b286	-0.13056383
167	0x3c099789	0.008397945
168	0xbcb67633	-0.022273159
169	0x3d0ffc6e	0.035152845
170	0xbe4c7d44	-0.1996966
171	0x3e5b961f	0.21443985
172	0xbdd45812	-0.103683606
173	0x3cc1cdde	0.023657735
174	0xbbf49866	-0.0074644564
175	0x39e9b4cf	0.00044575936
176	0x3e18d459	0.14924754
177	0x3e023a3a	0.12717524
178	0xbd90b364	-0.07065466
179	0x3cf03655	0.029322783
180	0xbdee8826	-0.11647062
181	0xbe3227ff	-0.1739807
182	0xbc814b59	-0.015782999
183	0x3c8ea8d7	0.017414493
184	0x3b44f2d9	0.0030051975
185	0xbdc19ca6	-0.094537064
186	0xbe052a54	-0.13004428
187	0x3e0119c4	0.12607485
188	0x3d9823b5	0.074286856
189	0xbe1d8a9d	-0.15384908
190	0x3d531f87	0.05154374
191	0x3cf84023	0.03030402
192	0xbd646072	-0.05575604
193	0x3d64743e	0.05577492
194	0x3e31e1d3	0.17371301
195	0xbe0452d8	-0.12922227
196	0x3d6034f6	0.054738007
197	0xbe06e5e5	-0.13173635
198	0x3e12c1db	0.14331762
199	0x3b4f1354	0.0031597214
200	0xbccfe9cc	-0.025380038
201	0x3db3a843	0.08772328
202	0x3daec57d	0.08533762
203	0x3cf9ba77	0.030484421
204	0xbde21d2b	-0.110407196
205	0xbbbd5005	-0.0057773613
206	0xbd7ea472	-0.062168546
207	0xbe1cd0c8	-0.15314019
208	0xbdb5ff7b	-0.0888662
209	0xbe24468e	-0.1604254
210	0x3dd7eaa8	0.10542804
211	0xbd310337	-0.043215957
212	0x3d9b9790	0.07597268
213	0x3e278dfe	0.1636276
214	0x3e3c5289	0.1839086
215	0x3d6451f7	0.05574223
216	0xbd060b0d	-0.032725383
217	0x3e22c803	0.15896611
218	0xbbd20da0	-0.0064103156
219	0x3e4893ce	0.19587633
220	0xbcbca462	-0.023027603
221	0x3e002d86	0.12517366
222	0xbe371288	-0.17878163
223	0x3cc4885e	0.023990806
224	0xbd8153dc	-0.06314823
225	0xbe38020d	-0.17969532
226	0x3d53ee4f	0.05174094
227	0x3ce4a771	0.027911874
228	0x3e0ea4ec	0.139301
229	0xbbbb3bd8	-0.005713921
230	0x3e473b83	0.19456296
231	0x3c7663e4	0.015038464
232	0xbd9d76d3	-0.076886795
233	0xbcf5fbb1	-0.030027242
234	0xbde7144d	-0.11283169
235	0x3ce0b6a6	0.027430844
236	0xbe0bbb8f	-0.13645767
237	0x3dc27297	0.094945125
238	0x3e1cf4f3	0.15327816
239	0x3bcb748d	0.0062089623
240	0x3d69ec8a	0.057110347
241	0x3e28990b	0.16464631
242	0xbe162a67	-0.14664613
243	0xbe261bb6	-0.16221508
244	0xbdca9500	-0.09891701
245	0x3d3a323b	0.04545806
246	0x3d34cd2e	0.044140987
247	0xbd8ec7f1	-0.069717295
248	0xbcb6b49f	-0.022302924
249	0xbcff99ab	-0.031201204
250	0x3d31057d	0.043218125
251	0x3e152e90	0.14568543
252	0x3e414d53	0.18877153
253	0x3e154af6	0.14579377
254	0x3dbf9cf8	0.09356111
255	0x3db7b3af	0.08969819
