trained_lstm_model.pth (torch, 222973 bytes, 13 tensors)

lstm.weight_ih_l0 f4 [256, 17]
-0.10888071 -0.06879198 0.036888782 -0.042892262 0.077956684 -0.047124974 0.16797142 -0.2054712
0.01280803 -0.25663406 -0.09000385 -0.12055712 -0.055503123 0.06510517 -0.089675836 -0.20908698
0.30119127 -0.76249164 0.5394566 -0.08246525 -2.0820248 0.20596273 0.17619863 -1.6242096
-0.09187639 -0.4315098 0.22592013 -0.75770676 -0.753665 -0.051834945 -1.3835738 -0.9073424
-0.09556729 -0.7578599 0.112360984 0.030574288 -0.0132714175 -0.021925414 0.06676263 0.0934588
0.08604428 -0.13344303 -0.05983923 0.030814145 0.26389918 -0.07223258 -0.18020874 -0.22247973
0.07882886 0.050273173 -0.035079673 -0.39801508 -0.277372 -0.07010307 0.23048776 -0.05972192
-0.15479742 -0.608532 -0.24157323 -0.20268677 0.012486855 0.03654509 -0.38271263 -0.18631773
-0.28622687 -0.2714051 -0.3929016 0.05049691 -0.009980101 -0.13528162 -0.18555786 -0.08101455
0.21774332 0.18274765 -0.2762667 -0.28470445 -0.017058894 0.15549068 -0.109588794 -0.066266604
-0.089980274 0.19745146 -0.06856568 -0.25227553 -0.2521501 0.010145935 -0.14246619 -0.016786335
-0.15949373 -0.15799257 -0.1279721 -0.029357677 -0.06752701 -0.16208996 -0.11827057 -0.13740113
-0.10162475 -0.19915125 -0.0033378967 -0.098214656 -0.18380797 0.1035095 0.26179066 -0.07094737
-0.05236545 -0.14475635 -0.13988666 -0.18755496 -0.12993243 -0.3358621 -0.01771095 -0.050809745
-0.041752506 0.09221232 0.014374342 0.4902985 -0.24540089 -0.00533873 0.1440851 -0.11134268
-0.28800178 -1.0216702 0.46792403 0.0030475191 -0.106323026 0.3037601 -0.3136312 0.22199899
-0.6102609 -0.14891905 0.038596205 -0.22758229 -0.3068852 0.21168579 -0.42417035 -0.062758885
0.18006834 -0.759486 -0.36911216 0.058400664 -0.19790736 -0.06983422 -0.53995913 -0.37948495
-0.18992051 0.021782111 -0.029361052 0.2857674 0.23195459 0.30754024 0.19199778 0.00088381104
0.2551866 -0.05879573 -0.38162822 -0.0745504 0.32432964 0.0040589077 0.10895805 -0.40497532
-0.31017396 -0.22493137 0.09527969 -0.18615924 0.06585962 -0.025971828 0.5960613 0.14554778
-0.014019818 -0.16651501 -0.17769654 -0.022682844 0.673038 0.4309617 -0.21791284 -0.08675407
0.29074603 0.5224349 -0.38536507 -0.12090793 -0.93403345 0.25054044 0.3842419 0.037466712
0.21877381 0.47426626 0.9375655 -0.16520064 -0.04011386 -0.28424048 -0.05569614 0.17332824
0.10507651 0.03988927 -0.19417101 0.015259792 -0.0025430305 0.055495407 -0.070368305 -0.31125805
-0.056100138 0.065483436 0.061192796 -0.63041234 -0.19517943 -0.21687275 -0.08961867 -0.18222405
0.022099432 0.07905529 -0.31162366 -0.13523701 -0.011048705 0.24009684 0.13732609 0.17112274
-0.097496256 -0.0080596125 -0.17376487 -0.31470257 -0.26199517 0.07940567 -0.13514008 -0.10632657
-0.05212186 -0.15980767 -0.021373905 0.109148495 -0.158762 -0.13431397 -0.07656156 0.13156241
0.04896663 -0.13946462 0.039504092 -0.036810603 -0.043739777 -0.0037502078 0.009944727 -0.11266235
0.1400542 -0.3241912 -0.117362365 0.033197667 -0.004329328 0.006162396 0.11049758 0.06354376
0.023198484 -0.16606572 0.075077996 -0.17710714 -0.4640332 -0.09476923 -0.11770987 0.295076
00000000: dafc debd cfe2 8cbd b118 173d ccaf 2fbd
00000010: c1a7 9f3d 1e06 41bd b300 2c3e 0b67 52be
00000020: c5d8 513c 8a65 83be f053 b8bd a7e6 f6bd
00000030: 3e57 63bd dc55 853d f7a7 b7bd e61a 56be
00000040: be35 9a3e a732 43bf d419 0a3f 8ae3 a8bd
00000050: e53f 05c0 e5e7 523e 6a6d 343e 1ae6 cfbf
00000060: b029 bcbd daee dcbe 9b57 673e 12f9 41bf
00000070: 30f0 40bf e150 54bd f218 b1bf 9747 68bf
00000080: c9b8 c3bd 1b03 42bf 841d e63d ee76 fa3c
00000090: 5c70 59bc ed9c b3bc d9ba 883d 5467 bf3d
000000a0: fc37 b03d 4aa5 08be fb19 75bd f26d fc3c
000000b0: cb1d 873e adee 93bd a488 38be bad1 63be
000000c0: 0671 a13d 3eeb 4d3d b4af 0fbd a2c8 cbbe
000000d0: b403 8ebe 3392 8fbd fc04 6c3e f99e 74bd
000000e0: 3783 1ebe c1c8 1bbf f95e 77be 1f8d 4fbe
000000f0: aa95 4c3c 4eb0 153d e9f2 c3be 13ca 3ebe
00000100: 548c 92be 9cf5 8abe 662a c9be d9d5 4e3d
00000110: 9483 23bc 4487 0abe e102 3ebe f5ea a5bd
00000120: 1bf8 5e3e 3322 3b3e d472 8dbe c8c4 91be
00000130: 18bf 8bbc f338 1f3e 1770 e0bd c9b6 87bd
00000140: 9447 b8bd b730 4a3e 2a6c 8cbd 422a 81be
00000150: d119 81be 233b 263c a8e2 11be 7f83 89bc
00000160: 5352 23be cec8 21be 1e0b 03be 837f f0bc
00000170: 9a4b 8abd e9fa 25be d737 f2bd e2b2 0cbe
00000180: a320 d0bd 4eee 4bbe 9dc0 5abb c424 c9bd
00000190: 2838 3cbe cafc d33d 6d09 863e db4c 91bd
000001a0: 277d 56bd 023b 14be 733e 0fbe 680e 40be
000001b0: 020d 05be 1ef6 abbe 8e16 91bc e11d 50bd
000001c0: ad04 2bbd d0d9 bc3d 5c82 6b3c 6808 fb3e
000001d0: 5f4a 7bbe 83f0 aebb 0b8b 133e a207 e4bd
000001e0: f874 93be 17c6 82bf bd93 ef3e e3b8 473b
000001f0: e3bf d9bd 7286 9b3e 4594 a0be b453 633e
00000200: 0f3a 1cbf 3c7e 18be 0e17 1e3d 550b 69be
00000210: 0f20 9dbe 29c4 583e db2c d9be bb87 80bd
00000220: d663 383e ad6d 42bf 45fc bcbe 8935 6f3d
00000230: 3aa8 4abe 3e05 8fbd c33a 0abf da4b c2be
00000240: 867a 42be 6670 b23c 9786 f0bc 1b50 923e
00000250: 8185 6d3e ea75 9d3e 119b 443e 8eaf 673a
00000260: d1a7 823e cbd3 70bd c664 c3be e1ad 98bd
00000270: 890e a63e 9600 853b 6625 df3d ed58 cfbe
00000280: 1fcf 9ebe 6954 66be 0022 c33d 87a0 3ebe
00000290: 69e1 863d dfc2 d4bc 7997 183f 7a0a 153e
000002a0: 61b3 65bc e982 2abe 15f6 35be 5fd1 b9bc
000002b0: 384c 2c3f 03a7 dc3e 8b24 5fbe 1eac b1bd
000002c0: aadc 943e 4bbe 053f 924e c5be 949e f7bd
000002d0: d11c 6fbf d646 803e 5bbb c43e b276 193d
000002e0: 3e06 603e 07d3 f23e 4b04 703f 5b2a 29be
000002f0: 6e4e 24bd f887 91be a321 64bd f57c 313e
00000300: 5a32 d73d ee62 233d c4d4 46be 3504 7a3c
00000310: f9a8 26bb 274f 633d 421d 90bd 375d 9fbe
00000320: 42c9 65bd 2e1c 863d 4ca5 7a3d b462 21bf
00000330: 1edd 47be e413 5ebe fe89 b7bd f198 3abe
00000340: de09 b53c bde7 a13d 238d 9fbe 927b 0abe
00000350: a105 35bc f2db 753e 369f 0c3e cd3a 2f3e
00000360: 1eac c7bd 770c 04bc 6bef 31be b220 a1be
00000370: 3b24 86be 719f a23d 2962 0abe bfc1 d9bd
00000380: bb7d 55bd 9fa4 23be 5418 afbc 3f89 df3d
00000390: 8192 22be 9a89 09be 4fcc 9cbd 4cb8 063e
000003a0: 3c91 483d d0cf 0ebe 0bcf 213d b7c6 16bd
000003b0: 7b28 33bd 0cc6 75bb 35ef 223c 85bb e6bd
000003c0: 5e6a 0f3e 64fc a5be ae5b f0bd 47fa 073d
000003d0: 09dd 8dbb eded c93b 8e4c e23d 3b23 823d
000003e0: bf0a be3c 220d 2abe 7ec2 993d 935b 35be
000003f0: c295 edbe 5f16 c2bd df11 f1bd 3414 973e

lstm.weight_hh_l0 f4 [256, 64]
0.25690535 -0.20430617 -0.13816014 -0.017592078 -0.123026535 -0.18819907 -0.06938246 -0.11045876
0.17075655 -0.19760491 -0.02166013 -0.24745968 -0.018627746 0.041197255 -0.13796711 -0.14119266
-0.084033474 0.016805276 0.36534902 0.3664422 -0.121589445 0.032412168 -0.3224861 -0.171858
-0.14244317 -0.07627556 0.023948826 0.04153476 -0.098160855 0.24414068 -0.11129715 -0.06147103
-0.12440025 0.22455035 0.167736 0.15806207 0.042832922 -0.26763535 0.094643414 0.018342782
-0.27575722 0.007963788 -0.11192044 0.08507958 -0.2899205 -0.13935977 0.12978444 -0.24160653
0.2495938 0.029779032 -0.10825416 0.23723292 -0.084362365 0.10391188 -0.086499915 -0.26541883
0.053168412 -0.13291335 -0.036311552 0.12731244 -0.17382227 0.093405314 -0.39617875 0.18051766
0.23155507 -0.3801068 -0.40743366 -0.009803491 -0.22822437 0.13473792 0.20876196 -0.4939929
0.3628052 -0.3312279 -0.2012304 -0.24519852 0.14206813 0.09925011 -0.2727977 -0.3412417
-0.10867011 -0.3465698 0.23119284 0.47021168 0.1224455 0.24738531 -0.3527937 -0.07603425
-0.083222106 -0.25546318 0.1526622 0.13163458 -0.113866016 0.38388017 -0.08060921 -0.02979059
-0.101848155 0.3157721 0.25765592 0.04583109 0.1578619 -0.31120536 -0.21692434 -0.26702303
-0.1583082 0.48301062 -0.3849572 0.027986953 -0.05637463 -0.23975758 0.20721437 0.2512917
0.45476207 -0.006812469 0.15502079 0.39073905 0.3471611 -0.96536857 -0.2779722 -0.37835658
-0.2520407 0.03617027 -0.20566404 -0.051446386 -0.2438082 -0.371676 -0.43402302 0.22782788
0.1213062 0.047776453 0.028743949 -0.06653025 -0.08222768 0.1478713 -0.04670151 0.04369398
-0.22882847 0.115530774 0.19379269 0.18256417 0.009391945 -0.09027835 0.21398121 -0.07608134
-0.11626003 0.25103748 -0.0907373 -0.14557964 0.14784308 0.016206864 0.14332977 -0.053766828
0.14624421 -0.05911583 -0.14341752 -0.20038201 0.07342212 -0.050074615 0.20465665 0.07407181
0.049402334 -0.2391277 0.013792683 -0.11937952 -0.2001425 0.19957478 0.058368478 -0.057135474
0.08524367 -0.051516246 -0.009604494 -0.11127803 0.29341483 0.07135819 -0.05599351 -0.06884746
-0.055486787 -0.06264867 0.030639917 -0.18956228 0.09241823 0.005497268 -0.06736645 0.13414457
0.18926607 0.11775197 0.037209187 0.111321546 0.067354426 0.07893551 0.17440058 -0.10523246
0.1873364 -0.42621678 -0.067662336 0.2627881 -0.10866175 0.1423657 -0.15112548 -0.20671822
0.14506847 -0.15832202 0.15159103 -0.2717171 0.23476239 -0.08026141 0.027655097 -0.1264893
0.053678352 0.15437445 0.39694518 0.33662462 -0.21713768 0.08992402 -0.28207988 -0.21257612
-0.26182655 -0.39345932 -0.06629558 0.1116637 0.023010658 0.4805386 -0.099738605 0.045071494
-0.21309704 0.35401997 0.23790702 -0.18333396 0.077314995 -0.1426951 -0.02156683 -0.27625832
-0.24171926 0.037961602 -0.27213606 0.188775 -0.24954689 -0.20558652 0.31941113 0.0095740175
0.4866768 0.0741881 -0.0064221085 0.39740095 0.21231295 -0.16539408 -0.092605226 -0.43129936
0.11193977 0.15557794 -0.13226318 0.13057432 -0.33804524 -0.07556876 -0.09889683 0.24221183
00000000: 1989 833e a335 51be da79 0dbe 431d 90bc
00000010: 56f5 fbbd 42b7 40be 6418 8ebd 3438 e2bd
00000020: ceda 2e3e f158 4abe 9670 b1bc 1266 7dbe
00000030: 3799 98bc 74be 283d 4047 0dbe cf94 10be
00000040: be19 acbd 38ab 893c 070f bb3e 509e bb3e
00000050: e303 f9bd 9fc2 043d e61c a5be 8bfb 2fbe
00000060: 9fdc 11be 5c36 9cbd 5430 c43c 5a20 2a3d
00000070: 8f08 c9bd 0400 7a3e c3ef e3bd 0cc9 7bbd
00000080: 8fc5 febd 87f0 653e fcc2 2b3e 06db 213e
00000090: 9371 2f3d 8007 89be 68d4 c13d 9a43 963c
000000a0: 0d30 8dbe 8c7a 023c 8b36 e5bd 343e ae3d
000000b0: 7670 94be 54b4 0ebe 36e6 043e b467 77be
000000c0: 8495 7f3e 28f3 f33c 5bb4 ddbd 30ed 723e
000000d0: 2dc6 acbd c0cf d43d de26 b1bd fae4 87be
000000e0: 1fc7 593d 701a 08be 6cbb 14bd 315e 023e
000000f0: 77fe 31be 494b bf3d f1d7 cabe 9fd9 383e
00000100: c61c 6d3e 5c9d c2be 259b d0be d29e 20bc
00000110: a6b3 69be bdf8 093e b2c5 553e a3ec fcbe
00000120: 9ac1 b93e b496 a9be 580f 4ebe 5215 7bbe
00000130: 4f7a 113e a443 cb3d 24ac 8bbe 3bb7 aebe
00000140: 6f8e debd 9971 b1be d1bd 6c3e 96bf f03e
00000150: b5c4 fa3d 9352 7d3e 60a1 b4be d8b7 9bbd
00000160: 5a70 aabd 12cc 82be 7b53 1c3e 37cb 063e
00000170: 9632 e9bd f18b c43e 7116 a5bd 650b f4bc
00000180: c495 d0bd e1ac a13e 7aeb 833e 62b9 3b3d
00000190: 8da6 213e 4f56 9fbe 6a21 5ebe 3eb7 88be
000001a0: 8b1b 22be 2b4d f73e 1c19 c5be e544 e53c
000001b0: 16e9 66bd 0383 75be 0130 543e 4ea9 803e
000001c0: 93d6 e83e 223b dfbb c5bd 1e3e f30e c83e
000001d0: 1abf b13e 6522 77bf 5f52 8ebe f4b7 c1be
000001e0: 7b0b 81be 4727 143d 9899 52be 72b9 52bd
000001f0: dba8 79be 514c bebe 4438 debe b64b 693e
00000200: 636f f83d 3eb1 433d 6e78 eb3c 0341 88bd
00000210: fc66 a8bd 936b 173e 154a 3fbd 75f8 323d
00000220: 0352 6abe 669b ec3d 9771 463e 1af2 3a3e
00000230: ace0 193c dbe3 b8bd e41d 5b3e 89d0 9bbd
00000240: bd19 eebd fc87 803e 7ad4 b9bd d412 15be
00000250: 2d64 173e 42c4 843c 0ac5 123e 9b3a 5cbd
00000260: 0bc1 153e 7123 72bd 0bdc 12be f130 4dbe
00000270: 565e 963d 0a1b 4dbd 8391 513e f6b2 973d
00000280: 1a5a 4a3d e4dd 74be b5fa 613c 407d f4bd
00000290: 28f2 4cbe 555d 4c3e c913 6f3d e306 6abd
000002a0: 3c94 ae3d b302 53bd 2b5c 1dbc bce5 e3bd
000002b0: 783a 963e 3e24 923d 7359 65bd e6ff 8cbd
000002c0: 1d46 63bd f24d 80bd 9000 fb3c 9d1c 42be
000002d0: c545 bd3d 6d22 b43b 6cf7 89bd 325d 093e
000002e0: f7ce 413e f227 f13d a968 183d 8dfc e33d
000002f0: 1ef1 893d f1a8 a13d 1196 323e 1e84 d7bd
00000300: 1dd5 3f3e 1639 dabe 8d92 8abd 298c 863e
00000310: 0d8a debd 50c8 113e a3c0 1abe f1ad 53be
00000320: d48c 143e 2b1f 22be ae3a 1b3e 811e 8bbe
00000330: 8d65 703e 1860 a4bd f18c e23c 6986 01be
00000340: d5dd 5b3d 5614 1e3e 663c cb3e 105a ac3e
00000350: 5759 5ebe 162a b83d c66c 90be 8ead 59be
00000360: 210e 86be 8073 c9be fac5 87bd f0af e43d
00000370: d980 bc3c 2809 f63e c143 ccbd e39c 383d
00000380: 1c36 5abe 1b42 b53e e69d 733e e6bb 3bbe
00000390: 5357 9e3d aa1e 12be ecac b0bc bb71 8dbe
000003a0: 4185 77be a07d 1b3d 6b55 8bbe 3c4e 413e
000003b0: 3889 7fbe 4685 52be db89 a33e 57dc 1c3c
000003c0: b42d f93e eeef 973d 8d70 d2bb 2378 cb3e
000003d0: 9168 593e 115d 29be cfa7 bdbd 45d3 dcbe
000003e0: ae40 e53d d34f 1f3e 0070 07be 46b5 053e
000003f0: 4414 adbe cbc3 9abd 6c8a cabd 6106 783e

lstm.bias_ih_l0 f4 [256]
-0.28575757 -0.51636213 0.17974585 -0.22409752 -0.3508238 -0.10182987 0.074586615 -0.3362758
0.05011828 -0.051650126 -0.33314985 -0.05103411 -0.07109031 -0.22681218 -0.26575008 -0.051759794
-0.17934085 -0.20004368 0.11592011 0.09560269 -0.105191424 -0.23211232 0.054449495 -0.29754508
0.04321155 0.04458757 0.27085215 -0.10030884 -0.2629241 0.1297508 -0.050661582 -0.23018818
-0.19200468 -0.07979715 -0.012876702 0.0043116263 -0.25332186 0.14302702 -0.27099118 -0.1665026
0.16834319 -0.0943533 0.054671336 -0.024120713 -0.0026848328 -0.08626814 -0.042927902 -0.22812344
0.03786145 -0.38011387 -0.32852495 0.21591814 0.19548313 0.18571956 0.029606992 0.0343743
-0.028700355 -0.23430723 -0.3608502 -0.27157462 0.5454662 -0.16076687 0.25752717 0.0667668
-0.15945564 0.6700177 -0.018550746 -0.13943431 -0.20609279 -0.11717933 -0.014002277 -0.09782849
-0.258819 -0.030463193 -0.008698661 -0.20143981 -0.043941837 -0.066059686 0.056257676 -0.1658066
-0.0918182 -0.3169221 0.2590211 0.08666003 -0.23308665 -0.15591696 0.20583847 -0.23831661
-0.09547603 0.17948774 -0.07421268 0.0044064815 -0.06442074 0.10912275 -0.18660754 -0.1780349
-0.035592303 0.08523012 -0.104255214 -0.11112771 -0.04156455 0.08613217 -0.09230972 -0.17138603
0.20723327 -0.16097108 0.07952804 -0.15074354 0.14191419 0.037402116 -0.21956852 -0.20584929
0.27891776 -0.24396262 -0.25561786 0.15252087 0.09039666 0.033200234 -0.060951665 0.059744604
-0.11469189 -0.14380023 -0.17469439 -0.024387144 -0.21597962 -0.43458694 -0.42739153 0.08422168
-0.26846942 0.21511325 0.38682285 -0.029095849 0.1269263 -0.11168199 0.26476228 -0.022657335
-0.095029876 0.029448075 0.15760376 0.19884025 -0.14319766 0.011425356 0.014978749 0.04455683
-0.16415437 -0.13639003 -0.0026491191 -0.054956138 0.14034432 -0.07727832 0.22481535 0.20462413
0.17375544 0.019637669 -0.18141414 -0.0013086979 -0.16671768 -0.06887408 0.029964093 -0.093020216
-0.13548122 0.062494814 -0.25082424 0.05472586 0.010068781 0.0883386 -0.041152537 0.03810742
0.09137402 0.09528686 0.1383952 -0.22784334 0.03029179 -0.033711907 -0.12860104 0.15975225
-0.13935651 -0.23533621 0.04793384 0.002257621 -0.031149326 -0.100489266 0.029870752 0.10604244
-0.228512 -0.15776882 -0.21939845 -0.112548865 0.1474566 -0.19879061 0.026176475 -0.047483195
-0.00094507413 0.014524543 -0.48341924 -0.3776381 -0.0071016294 -0.17975737 -0.29734215 -0.20146637
-0.022196328 -0.14425743 -0.088010006 -0.12134677 -0.2545359 -0.059311587 -0.15026936 -0.008452866
-0.038833573 -0.17016771 0.46671912 0.047810484 -0.30876043 -0.12909396 -0.042599402 -0.23007213
-0.4083405 -0.28292182 -0.21779826 -0.21538208 -0.2420502 0.26040268 -0.16429338 -0.2188397
-0.29089844 -0.34497425 -0.124418356 -0.08068141 -0.16589239 0.15980521 -0.115491286 -0.14294615
-0.13136822 -0.21430601 -0.057066463 -0.42924803 -0.1541375 -0.17165908 -0.13135798 -0.1829337
0.2682341 -0.06937826 -0.14230411 0.3713937 -0.007751621 -0.06224327 -0.076343 0.3732988
-0.1560629 -0.078054965 -0.33366543 0.1862815 0.48325536 -0.32545972 0.22272396 -0.19706658
00000000: d14e 92be 4f30 04bf 4c0f 383e d279 65be
00000010: 2d9f b3be 2e8c d0bd dec0 983d 572c acbe
00000020: d348 4d3d 158f 53bd 9e92 aabe 2509 51bd
00000030: cc97 91bd 7441 68be 6510 88be 1402 54bd
00000040: 21a5 37be 40d8 4cbe 8667 ed3d 58cb c33d
00000050: 9a6e d7bd daae 6dbe 6f06 5f3d d457 98be
00000060: 98fe 303d 75a1 363d 22ad 8a3e b96e cdbd
00000070: fd9d 86be 65dd 043e 8582 4fbd 73b6 6bbe
00000080: e09c 44be b06c a3bd cdf8 52bc 8b48 8d3b
00000090: 67b3 81be ad75 123e 5bbf 8abe a87f 2abe
000000a0: 2862 2c3e 4e3c c1bd 0def 5f3d cd98 c5bc
000000b0: 05f4 2fbb 5aad b0bd 2bd5 2fbd 3199 69be
000000c0: 9c14 1b3d 499e c2be 6c34 a8be a519 5d3e
000000d0: bb2c 483e 452d 3e3e 5d8a f23c 11cc 0c3d
000000e0: 021d ebbc 3cee 6fbe 5bc1 b8be d40b 8bbe
000000f0: aca3 0b3f 12a0 24be 9ada 833e 08bd 883d
00000100: 5748 23be 4886 2b3f bcf7 97bc dec7 0ebe
00000110: fd09 53be b7fb efbd ce69 65bc 4e5a c8bd
00000120: ed83 84be f28d f9bc d484 0ebc 3d46 4ebe
00000130: 5bfc 33bd 4d4a 87bd 736e 663d 35c9 29be
00000140: 2e0b bcbd 9d43 a2be 6a9e 843e d07a b13d
00000150: 44ae 6ebe b2a8 1fbe 52c7 523e 4509 74be
00000160: f088 c3bd a2cb 373e d1fc 97bd 3f64 903b
00000170: 05ef 83bd c07b df3d 0c16 3fbe c84e 36be
00000180: 3cc9 11bd 218d ae3d c283 d5bd ed96 e3bd
00000190: 973f 2abd 1066 b03d e10c bdbd d27f 2fbe
000001a0: f534 543e 9ad5 24be 99df a23d 845c 1abe
000001b0: f451 113e f632 193d 92d6 60be 28ca 52be
000001c0: 4fce 8e3e 56d1 79be 58e0 82be 6e2e 1c3e
000001d0: e221 b93d f8fc 073d 74a8 79bd c2b6 743d
000001e0: 95e3 eabd 5e40 13be 16e3 32be 8cc7 c7bc
000001f0: c329 5dbe 2e82 debe 10d3 dabe 6b7c ac3d
00000200: d374 89be a646 5c3e a50d c63e 6b5a eebc
00000210: f8f8 013e 87b9 e4bd ec8e 873e e09b b9bc
00000220: 069f c2bd 173d f13c e162 213e c79c 4b3e
00000230: 68a2 12be 6b31 3b3c 6d69 753c 3981 363d
00000240: 1518 28be d4a9 0bbe d89c 2dbb b019 61bd
00000250: 6cb6 0f3e 1944 9ebd ff35 663e fd88 513e
00000260: f2ec 313e 2ddf a03c a1c4 39be 9d88 abba
00000270: 0ab8 2abe db0d 8dbd 4277 f53c 6281 bebd
00000280: 97bb 0abe 90fa 7f3d 096c 80be 3928 603d
00000290: 87f7 243c deea b43d 908f 28bd 8716 1c3d
000002a0: 4d22 bb3d c225 c33d 79b7 0d3e c44f 69be
000002b0: 7d26 f83c 7f15 0abd feaf 03be 1896 233e
000002c0: 79b3 0ebe fafb 70be 4656 443d 98f4 133b
000002d0: df2c ffbc 51cd cdbd 82b3 f43c c72c d93d
000002e0: 0dff 69be 268e 21be fda9 60be 0580 e6bd
000002f0: ddfe 163e c48f 4bbe 0c70 d63c bd7d 42bd
00000300: dabe 77ba 59f8 6d3c ba82 f7be c859 c1be
00000310: c9b4 e8bb 5112 38be 3b3d 98be 334d 4ebe
00000320: 13d5 b5bc 38b8 13be 973e b4bd a884 f8bd
00000330: 8852 82be b5f0 72bd 36e0 19be e47d 0abc
00000340: f40f 1fbd 7240 2ebe cff5 ee3e edd4 433d
00000350: d915 9ebe 3531 04be b67c 2ebd 0798 6bbe
00000360: 0212 d1be 21db 90be 8206 5fbe 1f8d 5cbe
00000370: 02dc 77be 8053 853e 863c 28be 8417 60be
00000380: a4f0 94be 77a0 b0be 0dcf febd 4c3c a5bd
00000390: b2df 29be faa3 233e b286 ecbd 7a60 12be
000003a0: 6485 06be 0973 5bbe 86be 69bd 66c6 dbbe
000003b0: 39d6 1dbe 66c7 2fbe b582 06be f952 3bbe
000003c0: fb55 893e 3016 8ebd 2bb8 11be 5127 be3e
000003d0: 4f01 febb cdf2 7ebd b859 9cbd 0521 bf3e
000003e0: f4ce 1fbe 48db 9fbd 32d6 aabe 94c0 3e3e
000003f0: 3f6d f73e a8a2 a6be c011 643e d2cb 49be

lstm.bias_hh_l0 f4 [256]
-0.10945318 -0.5220173 0.16720834 -0.3497318 -0.30610943 -0.23357122 0.04563654 -0.19949721
-0.10133218 -0.2060284 -0.213909 -0.027133975 -0.29773116 -0.14968888 -0.19171265 -0.18289095
-0.21348907 -0.26425782 0.10200243 0.015443361 -0.15735494 -0.21993534 0.23780718 -0.14248379
-0.087369844 0.02068594 0.2296258 -0.002026745 -0.25930074 0.06776095 -0.06932811 -0.22520208
-0.27690217 -0.17952532 0.056878157 0.030326454 -0.19549333 0.12935835 -0.35438696 -0.059499044
0.22578432 -0.2517739 0.11276972 -0.019850092 -0.012628951 0.15178843 -0.20652223 -0.163115
0.16726115 -0.363248 -0.09834717 0.2458826 0.28632775 0.25342456 -0.08777264 0.22413309
-0.16942367 -0.25692183 -0.21185356 -0.26420376 0.54297465 -0.21304806 0.1939025 0.17306124
-0.19627106 0.48857614 0.046271797 -0.20748089 -0.2332181 -0.15938887 0.03411648 -0.08465022
-0.027504742 -0.09794079 -0.041839857 -0.13345271 -0.15969668 -0.15155338 -0.066386126 -0.042135797
-0.08515988 -0.32002348 0.28445378 0.021850517 -0.18355909 -0.111742735 0.14895082 -0.17342566
-0.14588916 0.1322311 -0.084378704 -0.003571544 -0.0012518975 0.19055821 -0.12890925 -0.143832
-0.023823038 0.0403688 -0.05218608 -0.053086534 -0.13648157 0.28900802 -0.050841745 -0.08943645
0.12745757 -0.10293643 0.11286955 -0.14362244 0.22635804 0.18534817 -0.2487712 -0.22023918
0.17817906 -0.30013394 -0.05348241 0.19888884 0.20838286 -0.13639554 -0.004316604 0.0488468
-0.15021834 -0.13297011 -0.1460575 0.00969692 -0.28443784 -0.44739363 -0.46957248 0.1441307
-0.061115574 0.11807854 0.175512 0.004460926 0.118249886 -0.073574625 0.259697 0.046006702
-0.035810925 0.03632115 0.14549017 0.11108052 -0.1687147 -0.114035964 0.16771251 0.065606356
-0.16009958 -0.15009013 -0.086996295 -0.12950213 0.014215459 -0.15756138 0.047874063 0.11629986
0.1761006 0.182724 0.05086522 -0.15475757 -0.081024 0.011846844 0.15984473 -0.052660402
-0.019974168 -0.06950981 -0.12139213 0.050402414 -0.08466478 -0.054858416 -0.0595917 0.06215921
0.1512916 0.012474578 0.10874426 -0.28264174 0.11990874 0.07944029 -0.0044062585 0.13739447
-0.13598247 -0.26701525 -0.057561804 -0.10004734 -0.06267954 -0.12297686 0.038179424 0.008250066
-0.118251406 -0.15741344 -0.1347083 -0.020925684 0.14568058 -0.08329824 0.012343493 -0.12383382
0.0063206884 0.1116 -0.49984005 -0.1892586 -0.026950687 -0.18494695 -0.32724917 -0.37436518
-0.1575037 -0.022251084 -0.13006464 -0.15614302 -0.12963681 -0.19141906 -0.06952111 -0.0016313669
-0.19538993 0.01055845 0.400228 0.0925452 -0.081088684 -0.16726772 -0.027674004 -0.14466141
-0.4049832 -0.18536334 -0.14885026 -0.1055623 -0.24104285 0.103445426 -0.19060057 -0.22420761
-0.15017524 -0.22284734 -0.2446368 -0.14877494 -0.08069825 0.20106423 -0.31318736 -0.17952606
-0.12798178 -0.14794144 -0.28228533 -0.22309244 -0.00939483 -0.15907069 -0.359755 -0.001001608
0.12737581 -0.042811677 -0.2751812 0.18570296 -0.098787576 -0.16172495 -0.19151275 0.26465312
-0.18604544 -0.21044363 -0.29931298 0.05811783 0.57153827 -0.09538155 0.1126878 -0.17393644
00000000: fd28 e0bd eda2 05bf aa38 2b3e 0c10 b3be
00000010: 60ba 9cbe 4b2d 6fbe 61ed 3a3d ff48 4cbe
00000020: 3f87 cfbd 1cf9 52be f60a 5bbe 1248 debc
00000030: 3870 98be 0b48 19be 5250 44be c447 3bbe
00000040: e19c 5abe cd4c 87be a6e6 d03d 2706 7d3c
00000050: a721 21be bb36 61be ba83 733e 45e7 11be
00000060: f6ee b2bd 8f75 a93c 0723 6b3e 23d3 04bb
00000070: 11c3 84be 41c6 8a3d e5fb 8dbd 609b 66be
00000080: 1fc6 8dbe 7cd5 37be 12f9 683d 2f6f f83c
00000090: 672f 48be 8476 043e 3572 b5be 45b5 73bd
000000a0: 0134 673e 82e8 80be d0f3 e63d a99c a2bc
000000b0: a9e9 4ebc 6d6e 1b3e 907a 53be 9e07 27be
000000c0: 8246 2b3e a4fb b9be 3e6a c9bd a6c8 7b3e
000000d0: 8d99 923e ddc0 813e 24c2 b3bd 2583 653e
000000e0: 667d 2dbe 428b 83be 24f0 58be b745 87be
000000f0: 6300 0b3f 4529 5abe 618e 463e f736 313e
00000100: 48fb 48be a726 fa3e 7f87 3d3d df75 54be
00000110: bad0 6ebe d636 23be b9bd 0b3d 185d adbd
00000120: a051 e1bc 2e95 c8bd 4560 2bbd d4a7 08be
00000130: 8787 23be cf30 1bbe 73f5 87bd 9696 2cbd
00000140: 4e68 aebd 1eda a3be eda3 913e dbff b23c
00000150: eaf6 3bbe 60d9 e4bd 9086 183e 7f96 31be
00000160: f863 15be 9767 073e bece acbd 9110 6abb
00000170: b616 a4ba b121 433e c900 04be b248 13be
00000180: 8828 c3bc c159 253d 12c1 55bd 4471 59bd
00000190: d3c1 0bbe dcf8 933e 6f3f 50bd 752a b7bd
000001a0: 3d84 023e 56d0 d2bd 2728 e73d c311 13be
000001b0: 67ca 673e e9cb 3d3e e1bd 7ebe 6186 61be
000001c0: 9274 363e 28ab 99be 5f10 5bbd 84a9 4b3e
000001d0: 5162 553e 46ab 0bbe 4d72 8dbb 9513 483d
000001e0: d6d2 19be 5129 08be 1990 15be d5df 1e3c
000001f0: d6a1 91be c710 e5be ce6b f0be 0097 133e
00000200: 5354 7abd 29d3 f13d 6bb9 333e f62c 923b
00000210: ff2c f23d 4bae 96bd 01f7 843e 8671 3c3d
00000220: 7aae 12bd 7cc5 143d 60fb 143e 2f7e e33d
00000230: 8cc3 2cbe b08b e9bd d4bc 2b3e a05c 863d
00000240: 25f1 23be 3ab1 19be 1d2b b2bd 359c 04be
00000250: f5e7 683c c557 21be 9817 443d 9f2e ee3d
00000260: b753 343e 001c 3b3e 0d58 503d c578 1ebe
00000270: e9ef a5bd 4419 423c 56ae 233e 6fb2 57bd
00000280: dea0 a3bc 295b 8ebd 709c f8bd c372 4e3d
00000290: ba64 adbd 38b3 60bd 6d16 74bd a89a 7e3d
000002a0: 2fec 1a3e 2c62 4c3c 50b5 de3d 6bb6 90be
000002b0: b792 f53d 97b1 a23d 6062 90bb 23b1 0c3e
000002c0: fd3e 0bbe 39b6 88be edc5 6bbd 9fe5 ccbd
000002d0: 215e 80bd 4bdb fbbd 0762 1c3d 492b 073c
000002e0: cb2d f2bd fd30 21be f9f0 09be 576c abbc
000002f0: 4a2d 153e 4598 aabd 5d3c 4a3c 969c fdbd
00000300: c71d cf3b 8a8e e43d 09eb ffbe 02cd 41be
00000310: b0c7 dcbc bc62 3dbe 348d a7be cbac bfbe
00000320: a648 21be e847 b6bc aa2f 05be f5e3 1fbe
00000330: 83bf 04be 5c03 44be 1561 8ebd 97d3 d5ba
00000340: 4c14 48be 59fd 2c3c afea cc3e 5688 bd3d
00000350: d311 a6bd 3b48 2bbe 98b4 e2bc 1f22 14be
00000360: f559 cfbe e3cf 3dbe 346c 18be 0c31 d8bd
00000370: f0d3 76be 32db d33d cc2c 43be ae96 65be
00000380: 8ac7 19be 1832 64be 1282 7abe 7558 18be
00000390: 2045 a5bd c8e3 4d3e 185a a0be aed5 37be
000003a0: a80d 03be f67d 17be b487 90be 5872 64be
000003b0: c6ec 19bc 6de3 22be cf31 b8be 6348 83ba
000003c0: ce6e 023e 4c5b 2fbd 8de4 8cbe eb28 3e3e
000003d0: 2451 cabd 3a9b 25be eb1b 44be 9d80 873e
000003e0: b282 3ebe 897e 57be 8d3f 99be f60c 6e3d
000003f0: 5550 123f 6757 c3bd dcc8 e63d 651c 32be

lstm.weight_ih_l1 f4 [256, 64]
0.11697661 -1.0405157 0.22100294 0.08099228 -0.120134056 0.018675758 0.19190443 -0.0728197
0.11976556 0.18825082 -0.17799562 0.13714086 0.055099424 0.03265813 0.24189077 -0.22896282
-0.18884672 -0.330685 0.3475988 0.040122464 0.1699736 0.102399364 -0.122932486 0.1899464
0.17973359 -0.022498986 0.04819005 0.033362668 0.1547674 0.2728653 0.29256117 0.116772644
0.060296766 -0.06028633 -0.07917415 0.030886179 0.09399842 -0.47209293 0.13112922 -0.09997577
0.04645696 0.099951416 0.11487456 -0.061568648 -0.1457048 0.20308323 -0.0062781028 -0.26167202
0.45630768 0.0120359855 0.28008726 0.04031139 -0.19948661 -0.4307753 -0.19163011 -0.23451105
0.008534809 0.22669187 0.037483573 0.07635741 -0.071761034 0.160559 -0.17445563 -0.091154926
-0.08303167 -0.29697576 -0.006743607 -0.01192305 -0.23373796 0.12103803 -0.05969144 -0.085261784
0.10031332 0.1458021 -0.12145412 -0.059945762 0.063424006 -0.05252238 0.09611485 0.07548684
0.09193804 -0.00013074308 0.16492468 0.17167409 -0.09620576 0.11969401 -0.15577829 -0.15769805
-0.14373933 -0.06148644 -0.116198115 -0.01775669 -0.009353691 0.21834092 -0.1251673 0.054483946
-0.07063129 0.09759828 0.016882151 -0.22217134 0.05397387 0.040657755 0.024822274 0.084654495
-0.047719374 -0.16460706 -0.24031277 0.20379943 -0.048317347 0.12270198 -0.09914699 0.100992694
0.19256479 0.17283614 -0.051242128 0.09887641 -0.08834689 -0.033524744 0.034905612 0.009885396
-0.2506031 0.09320701 0.05573676 -0.00500569 -0.0061603216 0.012046772 -0.06336563 0.329935
0.08861526 -0.074531175 -0.01520366 -0.08371715 -0.07762662 -0.10864486 -0.25731444 0.115944795
-0.07275162 0.15211205 -0.035444003 -0.004660131 -0.0074110664 -0.21683683 0.17019054 0.0049288254
-0.19920075 -0.018487943 0.01747597 0.10501263 0.00713066 0.048732553 0.041256644 -0.014123483
-0.016195916 -0.093402505 -0.08768585 -0.054799143 0.008121665 0.0038013905 -0.11676826 0.074647054
0.09778825 -0.071044184 0.03311191 -0.12933214 0.102392465 0.025471887 -0.022129701 -0.11358806
-0.15719962 -0.084757306 -0.0068969126 -0.058881562 -0.1330136 0.15822141 -0.10891509 -0.014105412
0.05945577 -0.08412403 0.06428533 0.21371026 0.060125876 0.040918604 -0.11715312 -0.1254765
0.18212295 0.022178886 -0.035559554 -0.099984325 -0.0522423 0.3371106 -0.09821194 0.10731712
-0.034640934 0.09705926 -0.1899101 0.045527976 0.074265674 -0.081289925 0.045174222 -0.105493054
-0.1382445 0.0014325001 0.08322356 0.016916545 0.05673554 -0.057632934 -0.07561968 0.022665681
0.14585856 0.15065287 -0.18325959 0.00946512 -0.0025851626 -0.17070578 -0.10414899 0.023273306
-0.10138355 0.114234574 0.0015642861 0.06830177 -0.018953731 -0.025969425 -0.19543181 0.11323886
0.00958278 -0.12618893 -0.015661035 -0.03463528 0.11309102 -0.0041158283 -0.065859936 0.13610601
-0.031679157 0.08733448 0.04393924 -0.015892018 0.03381345 -0.016530223 -0.031335846 0.11317237
0.063579634 0.088788696 -0.06875281 -0.084984265 -0.06768942 0.097619124 -0.0029603713 0.0700142
0.038664967 -0.15316306 0.1543945 -0.08696369 0.04754848 -0.07306196 0.08264191 0.013669
00000000: 6f91 ef3d 9e2f 85bf 984e 623e 48df a53d
00000010: d808 f6bd e7fd 983c 9882 443e 7f22 95bd
00000020: a547 f53d d3c4 403e 7c44 36be a76e 0c3e
00000030: efaf 613d 88c4 053d 37b2 773e 3b75 6abe
00000040: 0961 41be 8b4f a9be 78f8 b13e 7457 243d
00000050: 8f0d 2e3e c2b6 d13d 07c4 fbbd 4f81 423e
00000060: 150c 383e cb4f b8bc ee62 453d 4ba7 083d
00000070: 587b 1e3e 00b5 8b3e 94ca 953e 7f26 ef3d
00000080: bef9 763d ccee 76bd 0f26 a2bd 0305 fd3c
00000090: 3e82 c03d 2ab6 f1be bd46 063e 19c0 ccbd
000000a0: a749 3e3d 54b3 cc3d 5a43 eb3d 682f 7cbd
000000b0: a433 15be 0df5 4f3e 8bb8 cdbb e0f9 85be
000000c0: 29a1 e93e 9532 453c 9967 8f3e 8e1d 253d
000000d0: 3846 4cbe 958e dcbe af3a 44be aa23 70be
000000e0: 95d5 0b3c ea21 683e 6088 193d 4661 9c3d
000000f0: 73f7 92bd 9469 243e 7fa4 32be 6faf babd
00000100: 820c aabd 350d 98be 7af9 dcbb e558 43bc
00000110: 0159 6fbe c9e2 f73d 037f 74bd bb9d aebd
00000120: 1271 cd3d 254d 153e f0bc f8bd b089 75bd
00000130: 72e4 813d b521 57bd ddd7 c43d d898 9a3d
00000140: 034a bc3d 1418 09b9 04e2 283e 55cb 2f3e
00000150: 8707 c5bd 2222 f53d 5884 1fbe 997b 21be
00000160: 6730 13be 35d9 7bbd 47f9 edbd 7a76 91bc
00000170: 3940 19bc c394 5f3e db2b 00be 8f2a 5f3d
00000180: 23a7 90bd 9be1 c73d 704c 8a3c e280 63be
00000190: b413 5d3d bf88 263d 1558 cb3c 565f ad3d
000001a0: 6475 43bd c18e 28be 8d14 76be ccb0 503e
000001b0: 69e8 45bd 2d4b fb3d 940d cbbd 42d5 ce3d
000001c0: b42f 453e f5fb 303e 44e3 51bd b77f ca3d
000001d0: 37ef b4bd 3e51 09bd 30f9 0e3d 5bf6 213c
000001e0: 0d4f 80be 51e3 be3d 3b4c 643d c506 a4bb
000001f0: 86dc c9bb d35f 453c d7c5 81bd 3eed a83e
00000200: eb7b b53d cda3 98bd c618 79bc e673 abbd
00000210: b5fa 9ebd 3281 debd b8be 83be 7774 ed3d
00000220: cdfe 94bd 43c3 1b3e bb2d 11bd 03b4 98bb
00000230: 88d8 f2bb 790a 5ebe 6e46 2e3e fc81 a13b
00000240: 48fb 4bbe 0774 97bc c429 8f3c dd10 d73d
00000250: 50a8 e93b c99b 473d bafc 283d 2e66 67bc
00000260: 4cad 84bc d049 bfbd a494 b3bd 1175 60bd
00000270: bb10 053c c020 793b 3324 efbd 8ee0 983d
00000280: 3545 c83d 9d7f 91bd 5ba0 073d a56f 04be
00000290: 24b3 d13d 6baa d03c 5949 b5bc dba0 e8bd
000002a0: f0f8 20be 3d95 adbd 7fff e1bb cb2d 71bd
000002b0: b834 08be cb04 223e e00e dfbd 631a 67bc
000002c0: e587 733d 3849 acbd 07a8 833d ddd6 5a3e
000002d0: 8d46 763d 449a 273d faed efbd e97c 00be
000002e0: 707e 3a3e 7fb0 b53c e5a6 11bd 95c4 ccbd
000002f0: 06fc 55bd c399 ac3e 5723 c9bd 14c9 db3d
00000300: a7e3 0dbd 01c7 c63d cb77 42be 8b7b 3a3d
00000310: 9a18 983d 557b a6bd 9b08 393d be0c d8bd
00000320: f78f 0dbe bac2 bb3a 1d71 aa3d 9194 8a3c
00000330: 8763 683d 8310 6cbd 7ede 9abd 61ad b93c
00000340: f25b 153e bf44 1a3e 67a8 3bbe 9713 1b3c
00000350: d56b 29bb 7fcd 2ebe 114c d5bd a9a7 be3c
00000360: 2ea2 cfbd d1f3 e93d bb08 cd3a cce1 8b3d
00000370: db44 9bbc d5bd d4bc 471f 48be c7e9 e73d
00000380: 1801 1d3c ac37 01be 924b 80bc b9dd 0dbd
00000390: 449c e73d 12de 86bb 93e1 86bd 605f 0b3e
000003a0: 01c2 01bd 6bdc b23d a2f9 333d fa2f 82bc
000003b0: f97f 0a3d 646a 87bc 045a 00bd eac6 e73d
000003c0: 0a36 823d d9d6 b53d 46ce 8cbd 3b0c aebd
000003d0: c0a0 8abd 89ec c73d ca02 42bb 9b63 8f3d
000003e0: 285f 1e3d c7d6 1cbe 9819 1e3e 051a b2bd
000003f0: 32c2 423d 82a1 95bd 2940 a93d f1f3 5f3c

lstm.weight_hh_l1 f4 [256, 64]
-0.522165 -0.09421572 -0.08735498 0.11243498 -0.02034988 -0.0043687667 0.45341828 -0.45804557
0.36811838 -0.16595973 -0.42815658 -0.27250603 -0.467675 -0.14679867 -0.33643928 -0.10736349
-0.034914337 -0.31375384 -0.22698535 0.21576124 -0.19087648 0.111889295 0.018673789 -0.22710134
-0.119711176 0.049432997 -0.10823989 -0.29554284 -0.34687325 -0.10586679 -0.32391253 -0.040873792
-0.08557429 -0.24533962 -0.29978102 -0.024596915 0.0429247 -0.451286 0.19566236 -0.41853184
0.15309535 0.007565671 -0.36063161 0.017535985 -0.22606574 0.51487833 -0.1505133 -0.54946524
-0.07439507 0.02420406 -0.27697864 0.12709671 4.973049e-05 -0.13451086 -0.010938022 0.08640623
0.048294786 0.3071008 0.24270748 0.1784724 0.15032223 -0.16833073 0.10861835 -0.33424962
-0.09242119 0.27965993 0.2031064 -0.114669755 0.056617554 -0.12693152 0.3440495 -0.1781532
0.2732458 0.04047568 -0.24649653 -0.40492266 -0.32197937 -0.37835494 -0.106527984 0.12668443
-0.14633492 -0.16026454 -0.10897777 -0.046448495 -0.20994872 -0.13864085 -0.03474027 -0.3228089
-0.3067996 -0.03511089 -0.033521187 0.0408118 0.14197259 0.20648438 -0.26569197 -0.06394363
-0.10892475 -0.34187862 -0.3969614 0.20949769 0.0823956 -0.18573686 0.10359764 -0.34694177
0.08925351 -0.019864079 -0.28923917 0.06482368 -0.21671106 0.056523956 -0.38751888 -0.28407702
0.09540167 0.07821802 -0.26051113 -0.13434006 0.029183747 -0.01345995 0.06063151 0.13381398
-0.058816038 0.3119362 0.32816485 -0.079206154 -0.18376622 0.266626 -0.08050063 -0.20017345
-0.01735118 0.056064088 0.003368577 -0.12650783 0.036077123 0.059451357 0.055978313 0.054086074
0.37237173 -0.08438527 -0.06705936 -0.050970912 0.043108836 -0.06477069 -0.082330264 -0.009366956
0.13481912 -0.0697163 0.035530794 0.13608322 -0.10333697 0.022127453 0.026298314 0.013275575
-0.25818387 0.16822827 -0.01304382 -0.003926129 -0.04918355 0.047400136 -0.022221286 0.010720155
0.072821826 -0.034791082 -0.2237745 0.06917803 0.12717614 -0.19562875 0.12680328 -0.10002278
0.13351472 -0.033125374 -0.13836223 0.06756208 -0.14597608 0.047794454 -0.11096205 -0.09221798
0.079938956 0.055494502 -0.19469821 -0.05272837 0.0020820757 0.15458989 -0.0068106055 0.25795025
-0.09491225 0.1755505 0.046294942 0.16780873 -0.033387944 0.007241184 0.042095475 -0.104832314
0.012969067 -0.1123474 -0.03415514 0.045776974 -0.13274634 -0.043278273 -0.14918108 0.06680361
-0.06851808 -0.009283269 0.18444175 -0.238487 0.087088525 0.21656196 0.20357835 0.041732993
0.108204104 -0.17645109 0.15139425 0.008825046 0.075812675 -0.11037561 -0.059665333 0.18418033
0.04217047 0.09829599 -0.1671287 -0.11516325 0.065372944 -0.16799027 0.06600932 -0.14581707
-0.08049732 0.22383575 0.07346997 -0.118734665 0.018402753 0.008056326 0.061316833 0.0027304937
-0.21511021 -0.08335114 0.004306605 -0.11506082 -0.004414879 0.13117011 0.24981587 -0.14576814
0.040155854 -0.15529576 0.13384683 0.13165858 -0.10006316 -0.19464676 -0.17058106 -0.016894916
0.1409842 -0.023765245 0.026070336 0.032701027 0.030829608 -0.117233604 0.001673146 0.09073075
00000000: 9bac 05bf 2cf4 c0bd 2be7 b2bd 5044 e63d
00000010: cbb4 a6bc df27 8fbb 7126 e83e f384 eabe
00000020: 037a bc3e 59f1 29be 5737 dbbe e985 8bbe
00000030: 1973 efbe 6452 16be c541 acbe 64e1 dbbd
00000040: 5602 0fbd 58a4 a0be d96e 68be 84f0 5c3e
00000050: 2075 43be 3726 e53d c6f9 983c 418d 68be
00000060: 222b f5bd 417a 4a3d e0ac ddbd 6451 97be
00000070: 5f99 b1be b0d0 d8bd ddd7 a5be 476b 27bd
00000080: 9341 afbd 4f3a 7bbe e67c 99be 787f c9bc
00000090: cfd1 2f3d f50e e7be b75b 483e ce49 d6be
000000a0: 07c5 1c3e 73e9 f73b b5a4 b8be a0a7 8f3c
000000b0: c77d 67be 11cf 033f 2920 1abe c1a9 0cbf
000000c0: 715c 98bd 9847 c63c 25d0 8dbe a425 023e
000000d0: b595 5038 37bd 09be 6435 33bc c0f5 b03d
000000e0: c1d0 453d 513c 9d3e 4f88 783e 78c1 363e
000000f0: 12ee 193e e45e 2cbe 4c73 de3d c422 abbe
00000100: 5247 bdbd 962f 8f3e 20fb 4f3e fad7 eabd
00000110: cfe7 673d 56fa 01be 4227 b03e cb6d 36be
00000120: e0e6 8b3e d4c9 253d 9669 7cbe 0652 cfbe
00000130: 7bda a4be bdb7 c1be 582b dabd 90b9 013e
00000140: d2d8 15be 631c 24be bd2f dfbd c740 3ebd
00000150: ccfc 56be def7 0dbe d04b 0ebd 3547 a5be
00000160: d614 9dbe 70d0 0fbd 834d 09bd 462a 273d
00000170: 4361 113e a470 533e c708 88be e1f4 82bd
00000180: f013 dfbd b70a afbe 863e cbbe 9086 563e
00000190: 06bf a83d ce31 3ebe 002b d43d 5aa2 b1be
000001a0: 8bca b63d feb9 a2bc 2817 94be 47c2 843d
000001b0: 81e9 5dbe aa85 673d e068 c6be 8b72 91be
000001c0: f361 c33d c530 a03d b761 85be 7190 09be
000001d0: c112 ef3c 1f87 5cbc bf58 783d 8806 093e
000001e0: 16e9 70bd 1ab6 9f3e 3905 a83e d636 a2bd
000001f0: 362d 3cbe 3483 883e 84dd a4bd 45fa 4cbe
00000200: 1024 8ebc 75a3 653d 58c3 5c3b 458b 01be
00000210: 9bc5 133d 4483 733d 8449 653d 5c89 5d3d
00000220: 82a7 be3e 2fd2 acbd 6b56 89bd e0c6 50bd
00000230: e492 303d 7fa6 84bd c59c a8bd dc77 19bc
00000240: 060e 0a3e 6bc7 8ebd bd88 113d 6659 0b3e
00000250: 55a2 d3bd a244 b53c 906f d73c cc81 593c
00000260: ad30 84be 0844 2c3e bfb5 55bc c2a6 80bb
00000270: b174 49bd a526 423d 6a09 b6bc 97a3 2f3c
00000280: 9c23 953d 1881 0ebd 2425 65be 36ad 8d3d
00000290: 763a 023e e752 48be b8d8 013e bed8 ccbd
000002a0: 15b8 083e 79ae 07bd d4ae 0dbe fd5d 8a3d
000002b0: c17a 15be 1ec4 433d 1240 e3bd c8dc bcbd
000002c0: 09b7 a33d 344e 633d f85e 47be b4f9 57bd
000002d0: 6f73 083b d04c 1e3e 802b dfbb 0e12 843e
000002e0: 5b61 c2bd 83c3 333e c49f 3d3d 0dd6 2b3e
000002f0: ccc1 08bd 7447 ed3b 4e6c 2c3d 53b2 d6bd
00000300: 367c 543c 6516 e6bd 43e6 0bbd a380 3b3d
00000310: a8ee 07be 8f44 31bd edc2 18be 55d0 883d
00000320: 3553 8cbd da18 18bc 4cde 3c3e f035 74be
00000330: 785b b23d 6bc2 5d3e d876 503e 37f0 2a3d
00000340: 1d9a dd3d 98af 34be 1807 1b3e ed96 103c
00000350: ad43 9b3d 9c0c e2bd a363 74bd c599 3c3e
00000360: f1ba 2c3d 684f c93d c923 2bbe b6da ebbd
00000370: 40e2 853d a405 2cbe e52f 873d 1251 15be
00000380: c7db a4bd 3335 653e 6c77 963d 292b f3bd
00000390: 5fc1 963c aefe 033c 5c27 7b3d 15f2 323b
000003a0: da45 5cbe 01b4 aabd 6c1e 8d3b 02a5 ebbd
000003b0: b0aa 90bb 7551 063e bbcf 7f3e 3e44 15be
000003c0: 777a 243d da05 1fbe 250f 093e 82d1 063e
000003d0: eaed ccbd 7b51 47be cdac 2ebe 3567 8abc
000003e0: 2a5e 103e 55af c2bc 7591 d53c 83f1 053d
000003f0: 608e fc3c 2c18 f0bd 774d db3a 0bd1 b93d

lstm.bias_ih_l1 f4 [256]
-0.27864957 -0.34437728 -0.18575898 0.12183064 -0.0998841 -0.18729164 0.19552197 0.08600298
0.033876512 -0.053190783 0.17029579 0.11933801 0.08624894 0.20743714 0.0053869337 -0.17732406
-0.17440997 -0.077484116 -0.06008424 0.052203637 -0.05079878 -0.21793847 -0.027114198 0.055104814
-0.11548322 -0.19940333 -0.13700058 0.10449282 -0.12095051 -0.12499086 -0.024924297 -0.32141727
-0.12364321 0.08360966 0.18371293 -0.010250767 -0.14509377 0.1071828 -0.066780806 0.36231738
-0.14450487 -0.1916505 0.08266768 -0.16485196 0.09742918 0.08423773 -0.4827902 0.09934688
-0.13361564 -0.095396586 0.11093838 -0.016592909 -0.06152502 -0.03456777 0.14386553 0.21107213
-0.13741103 0.061429184 0.19837715 0.07278301 -0.0437428 -0.18291003 -0.06137955 0.008934605
0.02583899 -0.050259728 -0.21920551 0.13533495 -0.06766872 -0.05447827 0.148865 0.24988262
0.04430382 0.006279785 0.022885928 0.119868495 0.0632034 -0.09189069 -0.0441753 0.0040487126
-0.13646628 0.046695635 -0.012118661 -0.077605814 0.0013025494 -0.11722283 -0.08790047 -0.05330556
0.075352035 -0.1535996 0.037814192 0.04979903 -0.18791442 -0.04776315 0.10724467 -0.10061034
-0.019076511 0.27791795 0.16611397 -0.061789706 -0.048903257 0.02761865 -0.010831774 0.104254685
-0.07450066 -0.15681776 0.04209087 -0.11064929 0.050401863 -0.015921077 -0.09884366 0.04229554
0.0009455914 -0.082203954 0.05062284 0.09898111 0.025793817 0.060669098 0.04298847 0.061257146
0.01672689 -0.21922706 -0.07144834 0.0026246158 -0.07915442 -0.14338218 0.060825527 0.18924484
0.06507187 -0.079612225 -0.0771977 0.07617681 -0.07269404 0.041300133 -0.04506151 0.10225059
-0.057687726 0.03963543 0.14049816 -0.08654967 0.13075759 0.1699267 -0.06399634 -0.027829755
0.12934463 0.09762874 -0.024031077 0.093686804 0.022213047 -0.027197128 0.09186632 0.06559303
-0.0315387 -0.028278815 0.11993512 -0.16443782 0.052976593 -0.124925055 -0.042023435 -0.0048180292
0.065434024 -0.1600275 0.14152268 -0.115603074 0.045082223 0.23948327 -0.11568928 -0.30882025
-0.045065943 0.0848387 0.12732302 0.1389761 -0.0007527555 0.05761757 0.030226199 0.139655
0.0013831711 0.04304505 0.23277147 0.08911182 -0.023180252 -0.12360269 0.0811098 -0.03404892
0.13853364 -0.14052242 0.014451292 -0.025801936 0.106067985 -0.09023103 0.13554774 -0.011592195
-0.18883985 -0.07097167 -0.09060217 0.016352808 -0.25476292 -0.20192397 0.11552968 0.2609878
0.16331172 -0.2096687 0.38054445 0.22735046 0.23432489 0.24087872 0.19337969 -0.0045508565
-0.29265833 0.0262377 0.26744127 0.028753512 -0.33567744 -0.19258219 -0.09665993 0.3626644
0.18527995 0.013670629 0.012169254 0.37493917 -0.07452694 -0.1294131 0.12010746 -0.10286113
-0.016197717 0.2586051 0.08543736 -0.3208681 -0.28232205 0.14278632 0.23077875 -0.41882256
-0.083091795 -0.0723781 0.23616883 -0.058566183 0.19034913 0.09461027 0.047986694 0.31052706
-0.047994696 -0.3248985 0.40547052 0.063005105 -0.23221305 -0.19421828 -0.23145993 -0.28192967
-0.06294148 -0.09596632 0.057083268 0.035376642 -0.07165338 -0.2639486 -0.11164119 0.28115746
00000000: 28ab 8ebe 3852 b0be 9a37 3ebe 5882 f93d
00000010: 0990 ccbd 61c9 3fbe e936 483e 5522 b03d
00000020: 19c2 0a3d 94de 59bd 0562 2e3e 7d67 f43d
00000030: 49a3 b03d 676a 543e e084 b03b 7094 35be
00000040: 8798 32be feaf 9ebd e41a 76bd 7bd3 553d
00000050: 6212 50bd 432b 5fbe 981e debc 96b5 613d
00000060: 7782 ecbd 6330 4cbe e149 0cbe 5500 d63d
00000070: e7b4 f7bd 35fb ffbd 0a2e ccbc ce90 a4be
00000080: a738 fdbd 8b3b ab3d 3e1f 3c3e d5f2 27bc
00000090: 7693 14be a882 db3d 60c4 88bd aa81 b93e
000000a0: 16f9 13be 0740 44be ac4d a93d f4ce 28be
000000b0: f388 c73d d584 ac3d 4730 f7be 6176 cb3d
000000c0: 8ad2 08be 495f c3bd a933 e33d daed 87bc
000000d0: a901 7cbd ef96 0dbd 7c51 133e 4b23 583e
000000e0: 7ab5 0cbe 2b9d 7b3d 6123 4b3e 420f 953d
000000f0: a62b 33bd c44c 3bbe 1f69 7bbd 7362 123c
00000100: 4aac d33c 25dd 4dbd 6977 60be 3f95 0a3e
00000110: e695 8abd 9b24 5fbd 1170 183e 3be1 7f3e
00000120: ec77 353d a8c6 cd3b 457b bb3c 9d7d f53d
00000130: c970 813d 3031 bcbd 29f1 34bd 10ab 843b
00000140: d1bd 0bbe ec43 3f3d 598d 46bc ccef 9ebd
00000150: 4eba aa3a 8612 f0bd 2905 b4bd ee56 5abd
00000160: 2b52 9a3d 3749 1dbe 0ee3 1a3d 11fa 4b3d
00000170: a36c 40be 4ba3 43bd 18a3 db3d cb0c cebd
00000180: 5846 9cbc 434b 8e3e c819 2a3e 3417 7dbd
00000190: c84e 48bd 8240 e23c c177 31bc 7b83 d53d
000001a0: cd93 98bd d694 20be 7a67 2c3d 189c e2bd
000001b0: 2f72 4e3d eb6c 82bc 8b6e cabd 173e 2d3d
000001c0: 91e1 773a 8c5a a8bd e559 4f3d 9cb6 ca3d
000001d0: 8e4d d33c 2980 783d ae14 303d c6e8 7a3d
000001e0: d506 893c 0f7d 60be 8253 92bd bf01 2c3b
000001f0: b61b a2bd c7d2 12be 3024 793d 66c9 413e
00000200: 6744 853d bc0b a3bd d419 9ebd 9602 9c3d
00000210: 9de0 94bd 542a 293d 6b92 38bd c268 d13d
00000220: f749 6cbd c358 223d c0de 0f3e f440 b1bd
00000230: 51e5 053e 4401 2e3e 8310 83bd 3afb e3bc
00000240: eb72 043e 94f1 c73d d2dc c4bc dede bf3d
00000250: 23f8 b53c 83cc debc 6924 bc3d a355 863d
00000260: b92e 01bd f9a8 e7bc 8ba0 f53d 6362 28be
00000270: fcfd 583d b5d8 ffbd c420 2cbd 8fe0 9dbb
00000280: 4602 863d 40de 23be 52eb 103e 4ec1 ecbd
00000290: 23a8 383d 1a3b 753e 80ee ecbd b01d 9ebe
000002a0: 1197 38bd eabf ad3d f760 023e c04f 0e3e
000002b0: 9154 45ba 6700 6c3d ef9c f73c b801 0f3e
000002c0: 854b b53a 0250 303d a55b 6e3e 4280 b63d
000002d0: 83e4 bdbc 6823 fdbd e51c a63d e176 0bbd
000002e0: c3db 0d3e 1ce5 0fbe 1dc5 6c3c 955e d3bc
000002f0: 2c3a d93d 0ccb b8bd 07cd 0a3e 31ed 3dbc
00000300: 3c5f 41be 9859 91bd a18d b9bd 53f6 853c
00000310: 4970 82be 28c5 4ebe d39a ec3d 31a0 853e
00000320: 303b 273e 64b3 56be b9d6 c23e 8fce 683e
00000330: ddf2 6f3e e9a8 763e 5305 463e 5a1f 95bb
00000340: 50d7 95be 72f0 d63c 10ee 883e 7c8c eb3c
00000350: eadd abbe 4434 45be a4f5 c5bd 26af b93e
00000360: 07ba 3d3e c6fa 5f3c 8d61 473c 07f8 bf3e
00000370: 95a1 98bd de84 04be e6fa f53d dba8 d2bd
00000380: 13b1 84bc e367 843e c8f9 ae3d d348 a4be
00000390: 848c 90be 9436 123e 4451 6c3e e96f d6be
000003a0: 082c aabd f83a 94bd 3ed6 713e 18e3 6fbd
000003b0: e2ea 423e 07c3 c13d b28d 443d 67fd 9e3e
000003c0: 1696 44bd 1959 a6be d599 cf3e d208 813d
000003d0: 42c9 6dbe 28e1 46be d503 6dbe 1659 90be
000003e0: 76e7 80bd fd89 c4bd 25d0 693d 19e7 103d
000003f0: 02bf 92bd 4524 87be 23a4 e4bd dff3 8f3e

lstm.bias_hh_l1 f4 [256]
-0.20181046 -0.20294212 -0.16748683 0.1665696 -0.2616424 -0.23033336 0.110415645 0.049844194
0.01963308 -0.03146842 0.06749601 0.012552561 -0.01985353 0.22388579 -0.013883796 -0.1345916
-0.15743768 -0.103620216 0.14327417 2.5652234e-05 -0.058672998 -0.29068866 -0.13067485 -0.10522265
0.090012416 -0.299091 -0.17444582 0.09386326 0.00037083164 -0.03271319 0.1840775 -0.08062493
-0.17097098 0.22813806 -0.03043204 -0.11377866 -0.006916533 0.15810388 0.13136066 0.185571
0.0037236998 -0.26356298 0.19922365 0.018624827 0.15003127 0.01071039 -0.505249 0.10513861
-0.06394064 0.084561326 0.07174471 0.116415896 -0.08259052 -0.1526601 -0.00981696 0.06397271
-0.11505696 0.1640051 0.1911378 0.14433329 -0.10358068 -0.10029785 -0.14982167 -0.012548654
0.07877561 -0.1830763 -0.1020392 0.19337893 -0.10326033 -0.0797452 0.060870185 0.067336544
-0.0961149 -0.033645276 -0.03146928 0.17077942 0.099699385 -0.15505598 0.019122392 -0.075582944
-0.16139697 0.014762907 0.10910327 -0.1099282 0.08880326 -0.22701287 0.03143303 0.09057842
-0.06347694 -0.020274598 -0.10560311 0.055554703 -0.18987338 -0.019467792 0.07350115 -0.0747807
-0.045541864 0.15200715 0.18156384 -0.020162571 -0.0761095 0.2254496 -0.017931035 0.14290053
-0.013020126 -0.20665218 -0.023588823 -0.097882144 0.17580865 0.18419984 -0.13697666 -0.020079758
0.02928782 -0.087651536 0.1683919 0.09701442 -0.017568797 0.06828917 0.055056356 -0.15508647
-0.009722015 -0.38409463 0.0011713209 0.066569515 0.032685988 -0.024790766 -0.08825205 0.08415
0.08049676 -0.038189307 0.061044406 0.19171374 -0.02257413 0.1874273 -0.07439902 0.008060095
0.0550101 -0.020674992 -0.07304984 0.022257514 -0.017642356 0.046713915 0.05654854 -0.08751282
0.12157744 -0.009337318 0.18175021 -0.14611958 0.14086682 -0.019728824 0.022910817 0.049248777
0.08635697 0.16904874 0.04087457 -0.16826782 0.16523802 -0.006449114 0.14894931 0.10933254
0.03225982 0.013907887 0.06888719 0.0010362817 0.0011273491 0.10590925 -0.11814152 -0.15629849
0.036561828 -0.015602694 0.13054633 0.10302642 0.071275644 0.04847107 0.04706534 0.2029136
-0.024386387 -0.08662372 0.11834314 0.12699337 0.10176009 -0.016720746 0.042442735 0.14699908
0.14082587 -0.1570968 0.03390521 -0.04260021 0.15428615 -0.16470303 -0.05465779 0.17182945
-0.18344799 -0.2093206 -0.087909974 -0.00883295 -0.3283843 -0.038658455 0.2698231 0.25856096
0.2218142 -0.08917003 0.45405936 0.32155317 0.28406793 0.07988421 0.32175842 0.03586666
-0.16137019 0.1966758 0.15408882 0.22358747 -0.3998366 -0.16681932 -0.07354506 0.26333627
0.2599542 0.0137052145 0.031376228 0.28531793 0.04763223 -0.04770809 0.2328363 -0.27131876
-0.030958198 0.31368282 0.19117177 -0.2561834 -0.2975865 0.24380879 0.23834404 -0.34285566
-0.12286798 -0.24583723 0.09523895 -0.06513202 0.18540177 0.20737097 0.10509828 0.11283636
-0.16367957 -0.16374846 0.18872719 0.004238327 -0.18149401 -0.040723268 -0.051831536 -0.27885774
0.0014859579 -0.19510853 0.02790669 -0.071002565 -0.14803614 -0.312613 0.023229327 0.267582
00000000: 67a7 4ebe 0fd0 4fbe ab81 2bbe 3991 2a3e
00000010: fef5 85be 82dc 6bbe 9921 e23d 6d29 4c3d
00000020: 8ed5 a03c 08e5 00bd 593b 8a3d 42a9 4d3c
00000030: dfa3 a2bc 5142 653e dc78 63bc 61d2 09be
00000040: 5837 21be d636 d4bd 77b6 123e c12f d737
00000050: 1953 70bd 25d5 94be a1cf 05be f97e d7bd
00000060: 6e58 b83d 7522 99be eda1 32be 613b c03d
00000070: 2e6c c239 44fe 05bd d07e 3c3e af1e a5bd
00000080: 0413 2fbe 069d 693e 9d4c f9bc c904 e9bd
00000090: 16a4 e2bb fce5 213e 6983 063e 5306 3e3e
000000a0: 5109 743b baf1 86be 4901 4c3e 1893 983c
000000b0: cca1 193e a27a 2f3c 0058 01bf e952 d73d
000000c0: 4ff3 82bd 7d2e ad3d e4ee 923d 756b ee3d
000000d0: 3825 a9bd ee52 1cbe 51d7 20bc 2004 833d
000000e0: fca2 ebbd f4f0 273e a1b9 433e 1bcc 133e
000000f0: 1c22 d4bd f668 cdbd da6a 19be df98 4dbc
00000100: 1b55 a13d 5b78 3bbe eef9 d0bd 2005 463e
00000110: 277a d3bd 7451 a3bd 0453 793d bee7 893d
00000120: e4d7 c4bd a1cf 09bd efe5 00bd cde0 2e3e
00000130: 312f cc3d ffc6 1ebe 90a6 9c3c 3bcb 9abd
00000140: 3f45 25be 1fe0 713c 8971 df3d 0922 e1bd
00000150: 7cde b53d 1076 68be ecbf 003d 2e81 b93d
00000160: 3300 82bd ea16 a6bc 7146 d8bd 548d 633d
00000170: 2b6e 42be eb7a 9fbc c587 963d a026 99bd
00000180: 1b8a 3abd c3a7 1b3e dfeb 393e fa2b a5bc
00000190: 4cdf 9bbd 43dc 663e 1be4 92bc 8454 123e
000001a0: 5e52 55bc a19c 53be 593d c1bc 6f76 c8bd
000001b0: 2f07 343e e29e 3c3e 9c43 0cbe 4e7e a4bc
000001c0: 03ed ef3c a682 b3bd ed6e 2c3e 7faf c63d
000001d0: 70ec 8fbc 31db 8b3d c682 613d fdce 1ebe
000001e0: 1649 1fbc 0da8 c4be 0287 993a 9955 883d
000001f0: bee1 053d 0116 cbbc 7ebd b4bd d656 ac3d
00000200: 7cdb a43d 646c 1cbd b309 7a3d 9b50 443e
00000210: 62ed b8bc f1ec 3f3e 835e 98bd 7d0e 043c
00000220: 4552 613d 9a5e a9bc 289b 95bd 6455 b63c
00000230: b486 90bc 1757 3f3d 719f 673d ec39 b3bd
00000240: 98fd f83d 8dfb 18bc ba1c 3a3e 5fa0 15be
00000250: 643f 103e 589e a1bc 77af bb3c 16b9 493d
00000260: ecdb b03d 1d1b 2d3e 186c 273d 664e 2cbe
00000270: 2834 293e 1753 d3bb 2b86 183e bde9 df3d
00000280: df22 043d e8dd 633c ba14 8d3d d8d3 873a
00000290: 8fc3 933a f3e6 d83d 2ef4 f1bd b60c 20be
000002a0: dbc1 153d 71a2 7fbc f0ad 053e 84ff d23d
000002b0: f7f8 913d 9a89 463d 96c7 403d 95c8 4f3e
000002c0: f6c5 c7bc c767 b1bd e35d f23d 8d0a 023e
000002d0: 9867 d03d f2f9 88bc 6fd8 2d3d ed86 163e
000002e0: a834 103e fcdd 20be 31e0 0a3d 8f7d 2ebd
000002f0: 30fd 1d3e e9a7 28be d9e0 5fbd 0ff4 2f3e
00000300: cad9 3bbe 2458 56be 250a b4bd 14b8 10bc
00000310: fd21 a8be 5458 1ebd 4126 8a3e 1a62 843e
00000320: 4323 633e c79e b6bd 787a e83e 9ea2 a43e
00000330: 5a71 913e 559a a33d 85bd a43e ebe8 123d
00000340: 3a3e 25be 6265 493e 76c9 1d3e 1df4 643e
00000350: 62b7 ccbe afd2 2abe cb9e 96bd 03d4 863e
00000360: b818 853e d68b 603c 5c84 003d 3115 923e
00000370: 031a 433d 8f69 43bd a46c 6e3e 4bea 8abe
00000380: 0c9c fdbc 099b a03e 88c2 433e 782a 83be
00000390: 425d 98be 03a9 793e 7610 743e c78a afbe
000003a0: 35a2 fbbd c1bc 7bbe a30c c33d f063 85bd
000003b0: f6d9 3d3e 0e59 543e c43d d73d c016 e73d
000003c0: 9e9b 27be adad 27be b341 413e aae1 8a3b
000003d0: 91d9 39be 71cd 26bd 4e4d 54bd 71c6 8ebe
000003e0: 79c4 c23a 88ca 47be 929c e43c cb69 91bd
000003f0: c996 17be d00e a0be 6e4b be3c 8200 893e
