checkpoints/2023-09-08_18-59-12_checkpoint.pth (torch, 223067 bytes, 15 tensors)

lstm.weight_ih_l0 f4 [128, 309]
000000 15 ee a3 bc e9 fa c4 bd 1e 56 ad 3e 66 cb 3e be
       -0.020010987 -0.0961817 0.33854765 -0.18632278
000010 04 9f 5c be 36 de 61 3e 7a 24 4b bd 01 6a ba bd
       -0.21545035 0.22057423 -0.049595334 -0.0910225
000020 7f 24 82 3d 3e 33 9d 3d 38 24 f7 bd 16 45 70 bd
       0.06354617 0.07675789 -0.12067455 -0.058659635
000030 37 45 f6 bd cb 62 d8 3b b9 51 95 bd f6 b1 96 3d
       -0.120249204 0.006603574 -0.07290978 0.07358162
000040 32 47 ca 3c 7b 40 52 bd 7f 52 47 3c 1b 12 19 3d
       0.024692152 -0.051331025 0.012165665 0.037370782
000050 66 92 f6 3c 57 31 fb 3d c0 54 8b 3d cf 9c 6f bd
       0.030099105 0.1226527 0.06803274 -0.058499154
000060 52 26 a5 3d 53 dd bf bd ea c3 5e bd 3f 69 94 bd
       0.0806395 -0.09368386 -0.054386057 -0.072466366
000070 b2 8e 1a bd 2b 77 f0 3b f9 7f 9b bd 8c db f6 bd
       -0.03773374 0.0073384247 -0.07592768 -0.12053594
000080 04 5d f2 bd 5c e9 be 3d 65 ff 8b 3d a8 76 cb bd
       -0.118341476 0.093218535 0.06835822 -0.09934741
000090 ef 51 fe 3c b0 91 a9 bd b9 e9 1c 3d 31 8d 2c bd
       0.031044928 -0.08279741 0.038308833 -0.042126838
0000a0 a2 08 c4 bd 9b 3c 82 3d cf 49 92 3d 87 a9 8e bc
       -0.09571959 0.06359216 0.07142984 -0.017414821
0000b0 ab 46 93 3d eb 29 92 3d b2 05 d5 bd e6 7b 7a bd
       0.07191213 0.071369015 -0.10401477 -0.061153315
0000c0 37 9d 4d 3c d8 9d c6 3d c9 cd 6e bd 80 44 be 3d
       0.01254969 0.09698075 -0.05830172 0.09290409
0000d0 25 cc e0 3d 71 6e e7 bd 8a f1 b0 bc 3f ad 42 3d
       0.109764375 -0.11300362 -0.02159955 0.0475285
0000e0 01 48 03 bd 53 81 c3 3d 9e 80 34 bd 8a 13 c4 bc
       -0.03205109 0.09546151 -0.04406797 -0.023935098
0000f0 06 f7 a7 bd fd db 8d bc bb 06 bd 3d 31 1f 22 be
       -0.08201413 -0.017316813 0.09229799 -0.15832211
000100 d0 1a 53 3d 14 06 1b be 5c 78 59 3d 21 4f 0b be
       0.051539242 -0.15139037 0.0530933 -0.13604404
000110 60 db fe 3b 86 ba dc bd d0 4e 0f bd 81 e3 0c be
       0.0077776164 -0.10777764 -0.03498727 -0.13758661
000120 ba 01 a3 bc d5 cd 29 bd f5 d3 38 3d ed d3 2b be
       -0.019898284 -0.041456062 0.045124013 -0.16780062
000130 21 5c 97 bc 60 15 c0 bc 81 a1 13 be 17 06 2b be
       -0.018476548 -0.023447692 -0.14417078 -0.16701542
000140 45 dd bd bd cf de a1 bc ab f5 4a 3c b7 87 e3 bd
       -0.092707194 -0.019759564 0.012387673 -0.1110987
000150 c0 f5 42 bd 05 b5 ee bd 2b ea cd bd 3c cc 07 be
       -0.047597647 -0.116556205 -0.100544296 -0.13261503
000160 ed 92 0b be a2 f5 30 be 3c 5f 29 be 12 c5 ba bd
       -0.13630266 -0.17281201 -0.16540235 -0.091196194
000170 bd 94 9b 3d e4 51 18 3d bd ce de bd d3 e8 9d bd
       0.07596729 0.037187472 -0.10879276 -0.07710423
000180 94 7e 82 bd 9c 44 01 bd 80 37 64 3d 9c 83 c1 ba
       -0.06371799 -0.03155957 0.05571699 -0.0014763954
000190 e4 39 65 3b da 2e e1 bc 3e 3c fd 3d 44 03 fa 3d
       0.0034977132 -0.02748816 0.12365006 0.12207654
0001a0 dc cd 87 bd 06 41 f6 3d 99 b0 ba bb 3e cb e3 3d
       -0.066310614 0.12024121 -0.0056973216 0.1112275
0001b0 49 1d db bd 1e f0 b2 bd 16 5b 3d 3d c4 2a e8 bd
       -0.10698945 -0.08737205 0.046229444 -0.11336282
0001c0 03 13 2c bd 2e 17 ba 3d c1 7e d5 3d ff 0f 0d 3d
       -0.04201032 0.090864524 0.10424567 0.034439083
0001d0 43 86 cc 3c d0 5b b9 3b af 90 d9 3d cf 21 0d 3d
       0.024966365 0.005656697 0.10623299 0.03445607
0001e0 83 92 af 3d a7 a8 4b 3c 27 af 67 bd 69 60 95 3c
       0.08572867 0.012430347 -0.056563523 0.018234449
0001f0 6b 25 5a 3c b8 e6 99 bd c9 0c 8e 3d 55 92 e2 bc
       0.013314585 -0.07514709 0.06936032 -0.027657667
000200 04 25 33 3d 79 0e 10 3c 31 1e 14 3e a4 a1 4b 3d
       0.043736473 0.008792513 0.14464642 0.0497147
000210 63 0c 2a 3e 0c b0 1e 3e dc 18 21 3d b7 f1 6b 3d
       0.16606288 0.15496844 0.03933035 0.057603564
000220 cc 16 e9 3c f9 5a b4 bc dd e1 73 bd 53 6a 41 bd
       0.028453253 -0.022016035 -0.059541572 -0.04722054
000230 94 e7 28 3d 51 c4 0f 3c 58 11 73 3d 43 15 a5 3d
       0.041236475 0.008774833 0.059342712 0.08060696
000240 86 82 b0 bd fe 35 81 bd f0 d6 df 3c 28 0b 69 3b
       -0.08618645 -0.06309126 0.02732417 0.0035559628
000250 94 0a d6 bd cb a8 a1 bc 9f 2d ce bb 8e a7 7e bd
       -0.10451236 -0.019733807 -0.0062920596 -0.06217151
000260 29 7b db 3d 66 01 df bd 66 ed 50 bd 09 1c 0e bd
       0.1071685 -0.108889386 -0.05100765 -0.034694705
000270 63 6f 95 3c 31 65 aa 3c 33 25 f5 bd 47 56 65 bd
       0.01824159 0.020800205 -0.11969986 -0.055990484
000280 c1 61 09 be ef 25 8a 3c 04 8a e0 bd fd 96 09 3c
       -0.13416196 0.016863791 -0.109638244 0.008397815
000290 46 d5 5b 3d 1e 62 b2 3d a5 be eb bd 5c 52 87 bd
       0.05367019 0.087101206 -0.11510972 -0.06607506
0002a0 34 8d 3a 3d 40 d8 56 3d aa b7 df 3d a1 01 ed bd
       0.045544818 0.052452326 0.10923703 -0.11572576
0002b0 42 85 92 bd 9a 56 c5 bd 1d c7 f7 bd 82 be 33 bd
       -0.07154323 -0.096356586 -0.12098525 -0.043882854
0002c0 cc f2 90 3d 47 8f 9c bd 7a 49 48 3c 0c 67 1f be
       0.0707756 -0.076445155 0.012224549 -0.15566653
0002d0 e0 91 1c be 37 0a 93 3d 6d 9a df bd 30 0e 29 be
       -0.15290022 0.07179683 -0.10918126 -0.16509318
0002e0 74 16 30 be b5 22 ac bd 5e de 0a be 77 8c 22 be
       -0.17196065 -0.08405057 -0.13561389 -0.15873896
0002f0 5c 18 dd 3c 2f 2f b4 3c 0e ef 24 bd 39 ce e6 bc
       0.026989155 0.021995155 -0.040267043 -0.028174507
000300 cc 48 18 3d c2 4e 89 bc b1 01 de bd 74 ae 24 be
       0.0371788 -0.016761187 -0.10840166 -0.16082174
000310 ec 9a 92 bd 42 1b c1 bd 18 d4 8d 3d b2 36 31 3b
       -0.07158455 -0.09429027 0.06925219 0.0027040658
000320 d6 92 b4 3c 12 5d d7 bd 17 f1 c1 bb 3f 56 ac 3c
       0.022042673 -0.10515799 -0.0059186327 0.02103722
000330 01 25 d6 3c 3e 56 96 3c 25 ea ad 3d a7 3d 1f 3c
       0.026140692 0.01835167 0.08491925 0.009719289
000340 3f e7 be 3b 16 72 cd 3b e8 7c 1f be d8 4b c1 bc
       0.0058259065 0.0062697036 -0.15574992 -0.023595735
000350 c2 ff cc bd be 67 c6 3d c1 07 4a 3d c6 fb 00 bd
       -0.100097194 0.09687756 0.0493238 -0.03149011
000360 b5 dd a2 3d b1 b6 94 bd b2 65 9c bd 0d 1c c1 3c
       0.079524435 -0.07261408 -0.07636584 0.023572946
000370 eb 35 a2 bd 7d 81 90 3b 88 6d b1 bd dc 1b d1 bd
       -0.0792044 0.0044099675 -0.086634696 -0.10210392
000380 17 ba da bd a5 28 f1 bd c1 34 9b 3b 7e dc 21 be
       -0.10680025 -0.117753305 0.0047365134 -0.15806767
000390 45 32 92 bd 65 94 3a bd 97 26 9e 3d 76 47 6f bd
       -0.071384944 -0.045551676 0.07722204 -0.05841776
0003a0 4f 89 a8 bd 24 da ac 3d 38 3e 54 bd 72 95 f4 bc
       -0.082293145 0.084400445 -0.05181715 -0.029856417
0003b0 9a 5c 9a bd 37 02 40 bc ee 15 d2 3d 82 b1 8a 3c
       -0.075371936 -0.011719278 0.10258089 0.016930345
0003c0 ae c5 95 3d 3f 52 29 bd 50 03 c5 3d 48 77 5b 3d
       0.07313095 -0.0413382 0.096197724 0.053580552
0003d0 80 43 ba bd 78 9f e0 3d bb 43 17 3e f5 4b f9 3d
       -0.09094906 0.10967916 0.14771931 0.12172691
0003e0 da b7 61 3d 1c 82 d1 3d 27 ea a1 3d ae 52 60 3c
       0.055106975 0.102298945 0.07905989 0.013691587
0003f0 87 28 e6 3d 95 03 d7 3c f3 1f c9 3c ba da af 3d
       0.11238199 0.026246825 0.024551367 0.08586641

lstm.weight_hh_l0 f4 [128, 32]
000000 38 7e 9a bd f3 e2 cd 3c 38 f3 64 3d 12 2c 8c bc
       -0.075436056 0.025132632 0.055896014 -0.017110858
000010 95 7c 4e 3d aa 8f 48 be c4 47 0c bd 39 11 c5 3d
       0.05041178 -0.19586053 -0.03424813 0.096224256
000020 d4 fc 85 bb 93 4d 8d bc 22 e5 72 3d 37 70 ea 3d
       -0.0040889774 -0.017248904 0.05930055 0.114471845
000030 c2 fd 4a bd 3f 22 ae 3d 3e 54 aa 3d ad c1 72 3d
       -0.04955841 0.08502626 0.08316849 0.059266735
000040 c7 a8 c3 bd cf 17 a4 3c 18 7e 74 3d b3 92 8c 3d
       -0.09553676 0.020030884 0.059690565 0.06863918
000050 b9 31 c2 bc aa b5 98 bb 07 f4 23 3d b3 28 27 bd
       -0.02370535 -0.004660328 0.040027644 -0.0408103
000060 f7 7f 5c bc 31 63 33 bd a4 5d e6 ba fb 00 3e 3e
       -0.013458244 -0.04379577 -0.0017575515 0.18555062
000070 eb 65 38 3d 84 cf 69 bc 4a e0 56 bc ca 1e 3e bd
       0.04501907 -0.014270667 -0.013114998 -0.04641608
000080 68 8b de bd 1a a0 83 3d a1 14 08 3e d8 f8 f6 3c
       -0.108664334 0.06427021 0.1328912 0.030147955
000090 d1 b3 09 bd b0 09 50 3e 00 2d ec bc 0a 75 37 be
       -0.033618752 0.20316195 -0.028830051 -0.1791574
0000a0 b1 97 fa 3c 52 7b 01 bd 1f 13 5c be 45 53 4b be
       0.03058991 -0.031611748 -0.21491669 -0.19855984
0000b0 58 48 2c 3e bb 26 f3 bc 4f f5 87 bd 0e 7f 9a bd
       0.16824472 -0.029681554 -0.06638586 -0.07543765
0000c0 8b 27 c6 3d 8b fe 51 bd 71 f4 cc bb af 81 bf 3e
       0.09675511 -0.05126814 -0.0062547256 0.37403628
0000d0 74 bd 3a 3d 5b 2b 2f 3d 35 5c c1 3c 6f a3 79 bd
       0.045590833 0.042765956 0.023603538 -0.060946878
0000e0 9a c8 08 3e 6b 0d 40 3e af 03 f6 3d 85 2b 30 3e
       0.13357773 0.18755119 0.12012421 0.17204101
0000f0 3d 61 19 bd af af 19 bd 21 a6 ac 3d 9b dc 29 3d
       -0.03744625 -0.03752106 0.08430124 0.04147015
000100 d8 7f c0 bc 05 64 19 bd f5 e8 f4 bc 0c 52 83 bc
       -0.02349846 -0.0374489 -0.029896239 -0.016030334
000110 2d 8b bd bd 78 ef ad bd 29 80 c9 bd e4 37 24 3d
       -0.09255061 -0.08492941 -0.09838898 0.040092364
000120 1f b9 6e bd 28 06 e4 bc af 07 b9 bc 47 eb d0 3d
       -0.058282014 -0.027834967 -0.022586672 0.102011256
000130 9a a3 45 bd 61 fd 9e bd 91 4c 83 3c ee 8f af 3d
       -0.048251726 -0.07763172 0.01602772 0.08572374
000140 c0 54 44 3d c9 86 9b 3d db 83 07 3c 40 bc 16 3d
       0.047932386 0.075940676 0.008271183 0.036800623
000150 c4 3d c2 bd a3 f0 f4 3d a0 86 3b 3e 47 27 60 bd
       -0.09484437 0.1195996 0.18313074 -0.054724958
000160 9b c2 b1 3c a5 eb 41 bc 2e a6 55 3a d6 b0 c4 3d
       0.02169924 -0.011835967 0.0008150068 0.09604041
000170 74 c5 78 3d 3b 11 13 bd 8f 69 94 bc 28 5f da 3d
       0.06073518 -0.035905104 -0.01811674 0.10662681
000180 37 52 1a 3c 09 00 75 bb 9a 24 96 bc e9 b6 e3 3b
       0.009419016 -0.0037384054 -0.018328 0.006949295
000190 f1 a1 73 3c 00 86 da 3b ec 33 88 3b 41 10 83 3b
       0.014870153 0.006668806 0.00415658 0.0039997404
0001a0 ab 59 97 3b 35 e4 20 3a 63 97 38 3c 9c 94 c6 bc
       0.0046188436 0.0006137521 0.011266562 -0.024240784
0001b0 3c 74 89 3b b4 1b 40 bc 84 e2 18 bc 84 4e cb bb
       0.0041947644 -0.011725355 -0.009331349 -0.006204428
0001c0 6f d9 ef bc 53 81 0a 3b 42 05 53 bd cd c2 17 3d
       -0.029278485 0.0021134212 -0.051518686 0.03705101
0001d0 7a 7c 0e 3c 05 88 c7 bc d2 85 11 bc c6 7c da 3c
       0.00869667 -0.024356851 -0.008882003 0.026670825
0001e0 d9 1b 9b 3b 9a 70 f5 3b a5 d6 35 3b 06 85 61 3b
       0.0047335443 0.00749023 0.0027746346 0.0034411564
0001f0 f6 3f ab bc fd 38 0f 3c 52 de 35 bb b7 70 51 3d
       -0.020904522 0.008741614 -0.0027750921 0.051132884
000200 3c 32 70 3d 14 b8 9c bd 33 e2 48 bd df 7d be bb
       0.058641657 -0.076522976 -0.049043845 -0.005813345
000210 09 39 90 3c eb 6a 22 bd 52 f4 7f 3d 87 50 b1 bc
       0.017605321 -0.039652746 0.06248886 -0.021644844
000220 b5 87 f0 3b ea ef 1a 3c 99 9e 38 b9 bc f6 77 bd
       0.0073403963 0.009456614 -0.0001760669 -0.06053804
000230 e7 21 c7 3c 4b 70 13 3d a7 c9 3c 3b 5e 45 2f bc
       0.024308158 0.035995763 0.0028806718 -0.010697691
000240 bc b9 34 3c 92 12 4b bc 37 b2 96 3d 03 60 92 bb
       0.011030611 -0.012394564 0.073582105 -0.004467012
000250 c3 8b 2b bc 3d 53 43 bb 5f 59 32 bd 40 30 50 bc
       -0.0104703335 -0.0029804253 -0.043542262 -0.012706816
000260 ab 7a a3 bb 45 c5 22 3d a9 c8 e9 ba 00 89 65 3d
       -0.0049889884 0.039738912 -0.0017836291 0.056038857
000270 eb 9b 91 bd 2e c3 f3 3c 6f 51 22 bc 55 14 1a bd
       -0.07109817 0.029756155 -0.009907111 -0.037617046
000280 7d 48 52 3c 31 a3 bc bb b1 63 44 bc 98 36 a5 3b
       0.012834665 -0.0057567586 -0.011986659 0.0050419085
000290 aa 3b 9e 3b c4 84 90 3b cf d1 51 3c 4c 7e ce bb
       0.00482889 0.004410358 0.01280637 -0.006301677
0002a0 84 32 18 3c 51 4b 95 3b 71 7a b0 3c 89 7b a8 3b
       0.009289388 0.0045560976 0.02154276 0.0051416797
0002b0 7d be 15 bb 52 3c 38 ba 85 59 a3 ba 9a e1 9f ba
       -0.0022849136 -0.00070280314 -0.0012462592 -0.0012197972
0002c0 fe b2 f4 3b 13 4d 16 bc 4a 99 23 3d 75 d6 32 bc
       0.0074676266 -0.009173649 0.03994111 -0.010915388
0002d0 ba 58 68 bc 64 32 1c 3c 90 d4 96 bc d6 d6 c6 3b
       -0.01418131 0.009533498 -0.018411905 0.006068091
0002e0 63 e5 1f bc 8f 45 d5 bb 18 cc 3e 3b bb 0b 83 3c
       -0.00975928 -0.006508536 0.0029113349 0.015996804
0002f0 89 69 b4 3c 7c 46 8f bb 82 62 05 bc 55 6b 7f 3a
       0.02202298 -0.004372416 -0.008141162 0.0009743472
000300 d0 0a 9b 3c a0 3a 5e 3d 3a 2f 8f bb 77 ce 46 bc
       0.018926054 0.054255128 -0.0043696435 -0.012134186
000310 49 10 36 bd d2 7e ed bc c3 e9 eb bc 36 b8 2d 3c
       -0.044449124 -0.028991137 -0.02879799 0.010603001
000320 2a dd 86 bc 7c 44 b0 bc c8 11 ba bb 2c 19 43 3d
       -0.016462881 -0.02151703 -0.005678389 0.047631428
000330 58 e1 1d bd 5f a9 c8 3a e8 18 7f bc 53 c9 06 3d
       -0.038544983 0.0015309266 -0.015569903 0.03290684
000340 aa f8 eb 3b 7b 38 a0 3c c6 95 1e 3c ce e4 12 bd
       0.007201274 0.019558182 0.009679263 -0.035862736
000350 7c 32 f4 bb 17 f7 47 3d 29 0b 9d 3d 77 bc 69 3d
       -0.0074523073 0.048819628 0.07668144 0.0570645
000360 a7 3b 6c 3b dd 18 63 bd e8 cd bb bb a4 c9 9f 3b
       0.0036046298 -0.055443633 -0.005731333 0.0048763324
000370 4c 08 34 3d 34 49 4a bd 24 86 3c bc 78 74 a9 bc
       0.043953225 -0.04938622 -0.011506591 -0.02068542
000380 b3 02 4a 3c 08 ce 47 bd 6f 93 9a 3d 4d 41 bc 3c
       0.012329745 -0.04878047 0.07547652 0.022980357
000390 d6 40 a3 3b 02 bb b4 3d 0d 06 4d bd 2b 01 7b bc
       0.0049820943 0.088247314 -0.0500546 -0.015320103
0003a0 05 e3 07 3c 03 82 c1 bc a1 98 56 3d b6 de 7c 3c
       0.008293872 -0.023621565 0.052391652 0.015433958
0003b0 49 94 83 bb 15 7f 0f bc 36 f1 00 3d 37 4a 48 3c
       -0.0040154797 -0.008758326 0.031480037 0.012224725
0003c0 78 6e 8a bd 64 0c b4 3b 23 bb 94 b9 91 87 f7 bc
       -0.067593515 0.005494641 -0.00028368187 -0.03021601
0003d0 fd 1c f1 3a dc fd 02 3d 90 c0 6f bb 73 64 0d bb
       0.001839548 0.03198038 -0.0036583282 -0.0021574765
0003e0 e4 06 b3 3b c0 88 a2 bd 68 b5 0a bc 05 11 16 3d
       0.005463468 -0.07936239 -0.008466102 0.036637325
0003f0 c6 2d e2 bd 06 4d 8a 3c aa c2 c5 3b fe 6a d0 3d
       -0.11043887 0.01688243 0.0060351687 0.10176657

lstm.bias_ih_l0 f4 [128]
000000 5b de 89 3d a0 a1 c1 bd 36 11 a0 3d 7b 22 d3 3c
       0.06731864 -0.09454656 0.07815783 0.025773278
000010 d7 18 0b 3c 83 98 6e 3d b2 9a e2 3d e0 72 d9 bd
       0.008489809 0.058250915 0.11064662 -0.10617614
000020 88 1e b6 3d 5f e6 d9 3d d3 a8 fb 3c 98 ef 93 3d
       0.08892542 0.10639643 0.03072015 0.07223433
000030 b9 04 ed 3c f4 3f 16 be 12 02 2b 3c 8a bf 3c 3c
       0.028932916 -0.14672834 0.010437505 0.011520276
000040 d8 85 8d bc 9e 37 b4 bd d7 12 3a 3c bf 2e 06 bc
       -0.017275736 -0.08799671 0.011357031 -0.008189856
000050 cf d5 54 3d 71 57 98 3d cf 87 5b bd 77 27 e7 3d
       0.051961716 0.07438553 -0.053596314 0.11286824
000060 26 34 b3 3c 2f 21 6e bd f6 32 a3 3c a0 9a 91 3d
       0.021875452 -0.058137115 0.019921761 0.071095705
000070 8f 1e 4c bd 17 eb 78 3d bb 03 95 bc 26 71 fb bc
       -0.04983383 0.060771074 -0.018190255 -0.030693602
000080 88 6e 95 bc 39 87 a7 3d 9a 12 81 bd 07 d8 79 bd
       -0.018241182 0.081800885 -0.06302376 -0.060997035
000090 b1 a0 ea bd 63 58 2a 3d 84 48 b4 3d e9 f7 ae 3d
       -0.11456431 0.0415882 0.08802894 0.08543379
0000a0 75 5d 83 bb 31 22 9d bd 5e 95 34 3e 33 ee 09 3e
       -0.0040089437 -0.07672537 0.17635104 0.13469772
0000b0 74 e7 71 3d 6f 2a a2 bc fb ba 92 bd a6 45 26 3c
       0.05905862 -0.019795625 -0.0716457 0.010148441
0000c0 af 19 04 3e 7d 01 b1 bc e4 ea bd bd c1 46 2f 3d
       0.12900423 -0.021607155 -0.092733175 0.042792086
0000d0 84 58 95 3c de b8 c6 3d f3 b3 89 3c ec bb c6 bd
       0.018230684 0.09703229 0.01680944 -0.09703812
0000e0 e3 8c 89 3d 86 64 31 be 51 b9 e9 3c 17 52 40 3e
       0.06716325 -0.17323503 0.028530749 0.18781315
0000f0 92 75 2a 3e 7c 8d e0 bb 9d 5d 4b 3d e0 b4 b6 bc
       0.16646412 -0.0068528038 0.049649823 -0.022303045
000100 7f f8 ac 3d 2c 33 6f 3d f5 d8 42 bd d4 c0 d4 bc
       0.08445834 0.05839841 -0.047570188 -0.025970854
000110 20 42 1e be b0 c1 28 3c 38 c5 19 be 5b 5f cc 3d
       -0.15454912 0.010300085 -0.15016639 0.09979125
000120 06 40 a2 3d 51 11 c1 bc 4e c1 39 be c6 b1 13 3e
       0.07922368 -0.023567827 -0.18140146 0.14423284
000130 2a 33 96 bd 25 a3 86 3d 0b 28 6f bd 29 20 ce bd
       -0.073339775 0.06574086 -0.058387797 -0.10064728
000140 39 fb a7 bd cf eb 45 3e 65 4f 08 bd 8d 4f 98 bd
       -0.08202214 0.19328235 -0.03327884 -0.07437048
000150 37 d8 26 3d ee b9 e5 3d 7a 93 a7 bd a9 92 81 bc
       0.040733542 0.11217104 -0.08182426 -0.015817003
000160 06 fd 56 bc 24 e8 10 be 1a 2d 4c 3d b2 82 09 be
       -0.013121849 -0.14151055 0.0498477 -0.13428763
000170 3c 18 40 bc 2e e3 51 bd 57 1d ea bd 97 33 69 3d
       -0.011724528 -0.051242046 -0.114313774 0.056933966
000180 51 42 38 bc ad d3 86 bd 3b 06 ba 3d 19 7c a3 bd
       -0.01124628 -0.06583343 0.090832196 -0.07982654
000190 ef 40 be bd c3 7d a5 bd cb 29 10 3e e7 69 a8 bc
       -0.09289729 -0.08080628 0.14078443 -0.02055831
0001a0 3b 6f 26 bd a7 24 d3 bc 17 48 f6 3d 88 a7 89 3c
       -0.04063342 -0.025774313 0.12025469 0.016803518
0001b0 0f 79 43 3c 57 b0 41 bd 55 d5 db bd b6 eb 80 bd
       0.011930718 -0.04728731 -0.10734049 -0.06294958
0001c0 2f 81 af 3d ef c3 33 bd 7d e5 20 3e 72 12 ac 3d
       0.08569562 -0.04388803 0.15712543 0.08401956
0001d0 e2 9c 60 bc eb 49 3e bc 57 cb 17 3b 55 f3 d3 3d
       -0.013709279 -0.011614303 0.0023161971 0.10349146
0001e0 be a8 2b 3d 50 81 36 bb 1e ee d1 bc db e4 62 bd
       0.041908972 -0.0027848072 -0.025626238 -0.055394035
0001f0 65 40 ee 3d 3b 9e 06 3e a6 83 7f bc 89 ed 00 bd
       0.11633376 0.13146298 -0.015595352 -0.03147653

lstm.bias_hh_l0 f4 [128]
000000 1b 94 12 3e a9 7f 9e bc 1f e0 ef bc d2 06 be bc
       0.1431431 -0.019347982 -0.029281674 -0.023196612
000010 06 7c 63 bd 8c fc 69 3d 58 39 ee 3c 7c e1 ab bd
       -0.0555382 0.057125613 0.029080078 -0.08392617
000020 74 4b a3 3d e5 fa 83 bd 72 61 6a bd dd 04 5c 3d
       0.07973376 -0.06444339 -0.057221837 0.053715575
000030 f5 e1 1f 3d 9e f8 73 3d 5b fb be bc aa 68 13 3d
       0.03903385 0.05956327 -0.023313215 0.035988487
000040 a7 e7 cf 3d c0 19 01 3d 1d b8 45 3d ec 5a 7c bd
       0.10151606 0.031518698 0.048271287 -0.061610147
000050 ec 06 0b 3d fa 5d f6 bd c4 2f df bc 7d a6 8d 3d
       0.033942148 -0.12029643 -0.027244456 0.06916521
000060 a6 aa bb bd 7b e7 b3 bc e6 b4 a4 3c 5c 5c 0e 3e
       -0.09163408 -0.021960964 0.02010579 0.1390242
000070 2f a6 ec 3d 17 56 15 3e 99 00 62 3b 5a ae 5b 3d
       0.115551345 0.14583622 0.003448522 0.05363307
000080 c9 bf 7c 3d 55 9b 01 3e 06 0f 80 3d 00 39 37 bd
       0.061706338 0.1265691 0.062528655 -0.044732094
000090 da f8 4b bd 73 3f 0d 3d 04 eb e2 3d e9 0f 4f 3d
       -0.04979787 0.034484338 0.11079982 0.050552282
0000a0 35 28 f9 3c a3 b8 b6 3d b1 74 5f bd 73 bb 14 3e
       0.03041468 0.089219354 -0.054554645 0.14524631
0000b0 ec ad bb 3d 83 b3 e0 bd 92 64 65 bd 65 8f f1 3c
       0.09164032 -0.10971739 -0.056004114 0.029487321
0000c0 2c 42 00 be 19 ec 7b 3d 2d 07 9b bc 85 2a d9 3d
       -0.12525243 0.061504457 -0.01892432 0.10603813
0000d0 73 b2 83 3d 42 92 13 3e ab 6a 14 3c be fc 8f 3d
       0.06430521 0.14411262 0.009058635 0.070306286
0000e0 1e be 7d bd b1 93 2e be 5b 3c 21 bd bc 49 57 3d
       -0.061948888 -0.17048527 -0.0393642 0.052560553
0000f0 4e d1 4d bd f9 8c b2 3d 36 62 0c bd a6 cc 2e 3d
       -0.050248437 0.08718295 -0.03427335 0.042675637
000100 ae 53 46 be 74 2e b0 3c 23 78 40 bd f6 4a 38 3c
       -0.19367859 0.021506526 -0.04698957 0.011248341
000110 3a 1f 1c 3e 3f 66 8d 3c e9 df 38 be 3f 8c a6 3d
       0.15246287 0.017260669 -0.18054165 0.081322186
000120 8f b4 29 3b 34 b2 9d bd 07 ea 3f bb 70 b1 e0 bd
       0.0025894975 -0.07700005 -0.0029283778 -0.109713435
000130 2f a2 70 3d 95 c6 54 be 54 0d 2e be 4c 98 a7 3d
       0.05874842 -0.20778878 -0.16997272 0.08183345
000140 2f 67 54 bd d1 ed a1 3c 8e 2f b2 bd de b5 2a 3e
       -0.051856216 0.01976672 -0.087004766 0.1667094
000150 09 a0 68 bc 85 20 23 be 8d ca 2e 3d e1 cb 45 3e
       -0.014198312 -0.15930374 0.042673636 0.19316055
000160 80 61 ec 3d fa f0 e0 3d 71 f9 2f ba 4b ad 19 be
       0.11542034 0.10983463 -0.000671289 -0.15007512
000170 21 1d 4e 3d 3a 20 ab bd da e3 98 3d 8a 4e 0f 3e
       0.05032075 -0.08355756 0.07465334 0.13994804
000180 01 88 23 bd e3 07 43 bd 0a f1 2d 3e 5a 0e 62 bd
       -0.039924625 -0.047614943 0.1698648 -0.055189468
000190 2e 6b 6e 3c 43 e6 1e 3e fb 6c 79 bb 55 55 ee 3c
       0.014551921 0.15517525 -0.0038059342 0.029093424
0001a0 12 d1 7e 3d 99 32 ef bd d5 64 ee bd 24 e9 a1 bd
       0.062211104 -0.116795726 -0.11640326 -0.07905796
0001b0 c6 26 03 bd 89 ae ce 3b 86 ba 85 bb f4 dd 4f bd
       -0.0320194 0.0063074273 -0.004081073 -0.05074878
0001c0 b1 8c 14 3e a0 27 cf 3d 7a 93 83 3d fc a3 9b 3d
       0.14506795 0.1011498 0.06424613 0.07599637
0001d0 5b 14 64 3d f9 ca 6c 3d 4b 8a d2 3d 31 6d 62 bc
       0.055683475 0.057810757 0.102802835 -0.013819979
0001e0 96 40 9e 3c 17 2a 84 bc e2 8a 3c bd 90 38 36 3d
       0.019317906 -0.016133351 -0.046030886 0.044487536
0001f0 e3 e6 2e 3d fa 97 42 bd 8f 3f 1b 3d 33 a7 0b be
       0.04270066 -0.047508217 0.03790241 -0.13638

lstm.weight_ih_l1 f4 [128, 32]
000000 7e c2 b9 3c 6f 99 5b b9 5d 20 85 3c 60 40 00 bd
       0.022675749 -0.00020942626 0.016250784 -0.031311393
000010 74 2c 3f bd e6 f6 ab 3d 86 66 f6 bd 67 b3 10 3d
       -0.046673253 0.083967015 -0.120312735 0.03532734
000020 05 de 49 bd 01 94 3f 3c 8d 68 2e bd 08 8f cc 3c
       -0.049284 0.011693002 -0.042580176 0.024970546
000030 dc 76 a9 3a 9a 98 9b bd fb 1e 82 3d ac a4 87 3d
       0.00129291 -0.07597466 0.06353565 0.066232055
000040 c0 54 0c be ee b6 18 3d 69 fb 22 3e a2 c1 fc bc
       -0.13704205 0.03728383 0.15916218 -0.03085405
000050 ac 5c c3 bc f1 2a 08 3d ef bb 80 3d 1a b3 0c be
       -0.0238479 0.033244077 0.062858455 -0.13740197
000060 c7 01 12 bd 2e 3e ba bc ef 99 be 3b 05 ea 1a 3d
       -0.035646226 -0.022734728 0.00581669 0.037820835
000070 55 e7 81 bd b0 61 9d 3d 96 b8 5c 38 f4 2d 1b bd
       -0.06342951 0.07684648 5.2623996e-05 -0.03788562
000080 c5 72 64 3c 19 f0 aa 3a d9 13 e8 bc b7 69 7e bc
       0.013943379 0.0013041525 -0.028329777 -0.015528134
000090 e2 66 b1 bb 56 bd 20 3c cb 63 80 3d 2a 75 a1 3a
       -0.005413876 0.009810766 0.06269034 0.0012318243
0000a0 16 f7 34 3c 49 64 97 3c 07 8c dc bc 76 63 bd bc
       0.011045238 0.018480437 -0.026922239 -0.023118716
0000b0 f9 00 c7 bb 28 c1 c0 3c 21 6b 5e 3d c5 45 fa bb
       -0.006073114 0.023529604 0.054301385 -0.0076377117
0000c0 a5 9e 1e 3c 2b 30 de bc 17 ae 8e 3c 8a 1e 52 bb
       0.0096813785 -0.027122578 0.017416997 -0.003206166
0000d0 48 4c b8 bb 3c ea 26 bd 61 fd 86 3c c6 7a 04 3c
       -0.005624328 -0.040750727 0.016478242 0.008085912
0000e0 e5 0f 27 3c c7 3c f8 bb b9 c8 09 3c d2 59 a5 3d
       0.010196661 -0.0075756046 0.008409672 0.080737725
0000f0 96 ad bb bc 08 82 b9 bc 93 2e 7a bd 7c 22 6b bd
       -0.02290992 -0.022645012 -0.061079573 -0.057405934
000100 4a 53 b7 3c 65 7a e7 bd 71 a6 80 bd 09 1f 85 bc
       0.022378583 -0.11302642 -0.06281746 -0.01625015
000110 d5 ec a9 3a ac 1f 65 3c 03 b2 83 3d 03 a7 f6 3c
       0.0012964258 0.013984602 0.064304374 0.030108934
000120 19 f5 53 bd 13 f7 88 3d 7b 0f 99 bd ca 8e 11 3c
       -0.051747415 0.06687751 -0.07473656 0.008884141
000130 27 7b 91 3c da d8 c0 3d 60 4d c4 bd 46 b8 23 3d
       0.017758919 0.09416361 -0.095850706 0.03997066
000140 e2 93 ac bd d1 e9 37 3d 44 ec d5 bd 4d 41 6b bb
       -0.08426644 0.04490072 -0.10445455 -0.0035897077
000150 64 1b eb ba 67 cf b2 3d 0f 03 df bd 24 c1 94 bd
       -0.001793724 0.08730965 -0.10889255 -0.07263401
000160 35 61 3b bd 7d 81 9c 3c de ea d7 39 18 61 1a bd
       -0.045747 0.019104714 0.00041182985 -0.037690252
000170 0f b3 a0 3c 91 5f 98 bb bb d0 eb bb 38 90 5c bd
       0.019616632 -0.0046500643 -0.0071965135 -0.053848475
000180 d7 67 af bd de a3 f8 bd 9d 5f 84 bd 86 c0 48 bd
       -0.08564728 -0.1214063 -0.06463549 -0.04901173
000190 86 1f 32 bd b3 0a 91 bc 29 88 96 3d a3 54 1a 3d
       -0.043487094 -0.017705297 0.07350189 0.037678372
0001a0 aa 79 3a bd 5e 8e 1b bc 7a 10 89 bd d5 e6 c3 bc
       -0.045526184 -0.009494392 -0.06692596 -0.02391378
0001b0 f4 76 f6 3b b4 9d 70 3d 2f b6 99 bc 7e 7b b0 bc
       0.0075215045 0.058744147 -0.01876363 -0.02154326
0001c0 1d b3 53 3d 6b be 04 3b 8b 97 c4 3d 36 84 1e 3d
       0.051684488 0.00202551 0.09599217 0.038700305
0001d0 bd 2d e6 bc 56 65 ac bb dc 1f ec 3d 5f ee d3 3c
       -0.028097982 -0.0052611036 0.11529514 0.0258705
0001e0 1d 6c 0c bc d8 af cf 3c 00 b1 ce 3b 6b 38 51 3d
       -0.008570698 0.025352404 0.006307721 0.051079195
0001f0 c9 68 af bd 0d 35 fd 3c 28 9c b1 bd 1d 41 09 3e
       -0.08564908 0.030909086 -0.086723626 0.13403745
000200 32 92 22 3c 00 ca 3c 3d ba b3 c6 bc 19 fe a8 3c
       0.009922551 0.04609108 -0.024255622 0.020628976
000210 7f 31 e7 3c ee 9e bb 3d b2 3a 4c bd ce b3 e0 bb
       0.028221844 0.09161173 -0.049860664 -0.006857372
000220 29 76 8d 3b 33 1a 84 3b e5 53 15 bc 3d 8f 2f 3b
       0.0043170643 0.0040314435 -0.00911424 0.0026788258
000230 eb 2d f3 bb ed 00 c2 3d d3 e8 90 bc 3c 2b c3 bc
       -0.0074212453 0.09472833 -0.017689144 -0.023824327
000240 ca 4d dd bc b0 80 83 bc d8 66 ed 3c 1c 90 c9 3d
       -0.027014632 -0.016052574 0.028979704 0.0984194
000250 7b c6 b0 3b 93 ff cd b9 b5 bf 58 bc 75 ac b0 3d
       0.0053947545 -0.00039291065 -0.0132293 0.086266436
000260 9b dd 5c 3c 07 f4 1b bc 64 ef f0 3a c6 b1 b7 3c
       0.013480569 -0.00951863 0.0018381891 0.022423636
000270 1d ba 91 3c ca 27 b9 3d b0 9c 58 3d 18 d1 dc bd
       0.017788941 0.09040792 0.052883804 -0.10782069
000280 82 b5 e7 3b f0 5c 38 3d 31 c1 e7 3c e0 ff 23 bb
       0.007071198 0.045010507 0.028290363 -0.002502434
000290 f2 de 24 bc 56 19 68 3b 39 fb 6b 3b 87 d0 8f 3c
       -0.01006292 0.0035415492 0.0036007895 0.017555488
0002a0 63 cc 2e ba e0 3b c8 3b e3 4f 31 bd 55 6d ef bc
       -0.0006668029 0.0061106533 -0.043289077 -0.029226938
0002b0 4d e9 21 3c 50 48 e2 3c ed a1 cc 3c 97 85 a9 bb
       0.009882283 0.027622372 0.024979556 -0.005173396
0002c0 35 da 4f 3c eb 30 1c bc 52 b2 66 3c ee b2 da bb
       0.012686302 -0.009533147 0.014080601 -0.006674162
0002d0 a4 77 97 3c d3 3e 04 bd 28 00 99 3c fb 3c 33 3b
       0.018489666 -0.032286476 0.018676832 0.002734958
0002e0 22 89 9d bb 81 4d a6 bb c2 ee 2f 3b d8 92 e4 3c
       -0.0048076073 -0.005075157 0.0026845192 0.027902052
0002f0 a0 a1 df bc d2 0d 8c 3c 96 d3 65 3c 43 4c 39 bc
       -0.027298748 0.017096434 0.014027497 -0.011309686
000300 d6 17 0c bd e8 4b d6 bc 03 3a 7b bc 05 69 d9 3c
       -0.03420242 -0.026159242 -0.015333655 0.026539335
000310 8a 4e 38 3d 70 ef 03 3d 9a f7 92 bd b3 6a 62 3c
       0.044996776 0.032210767 -0.071761325 0.013819384
000320 d9 27 d9 3c d5 81 88 bc 75 29 b2 bc fb b1 09 bd
       0.026508259 -0.016663471 -0.021748284 -0.033617
000330 56 c2 42 bc 15 f8 8e bc 37 0c ee 3c 96 c4 15 3b
       -0.011887154 -0.01745228 0.029058559 0.002285277
000340 ad c2 9e 3d 67 12 76 ba 3f 8c e2 3c 13 67 eb 3d
       0.07751975 -0.00093868974 0.027654765 0.11494269
000350 13 5f 9f 3c 79 24 20 3d 93 95 93 bd 82 d4 a2 ba
       0.019454515 0.039097283 -0.072062634 -0.0012422951
000360 0c 11 4a 3b 43 88 db 3c 69 5f 2a b8 35 ce ed bc
       0.0030832915 0.026798373 -4.0620016e-05 -0.029028991
000370 36 4e b3 3d 56 9f 83 3d a3 25 fa 3d c7 0d b3 bc
       0.08755152 0.06426875 0.1221421 -0.021857155
000380 ed b6 d6 3c 17 bf 30 be c5 36 02 3d 71 cd 45 bd
       0.026210273 -0.17260395 0.031790514 -0.048291627
000390 c5 9a 3c bd db e6 b5 bd db ef 72 3b 33 1f 25 3d
       -0.046046037 -0.08881923 0.0037069235 0.040312957
0003a0 f5 a3 a9 3c af d1 f1 3c 78 29 14 3d 5d b4 e1 bb
       0.020708064 0.02951893 0.03617236 -0.006887956
0003b0 c4 73 06 bd 3e fb 2a be fa d0 45 bc c8 d7 df bb
       -0.032825246 -0.16697404 -0.01207375 -0.006831143
0003c0 11 a3 b2 3d d0 80 5f 3c 9a 18 a4 bc 16 b9 c2 3c
       0.08722509 0.013641551 -0.020031262 0.023769896
0003d0 cc 2b ab bd 34 42 49 3d 90 59 d1 bd df 95 13 bd
       -0.08357963 0.0491354 -0.10222161 -0.0360316
0003e0 25 4d 1c bd 68 0f 58 bd 2d 8a 3f bd 35 34 b4 3d
       -0.03815951 -0.052749068 -0.046762634 0.0879902
0003f0 7f 97 5d 3c 66 d1 0a 3e 80 d9 a0 bd 3f c8 ca 3d
       0.013524889 0.13556442 -0.07853985 0.09901475

lstm.weight_hh_l1 f4 [128, 32]
000000 0f ef 9a 3d e0 f3 20 bb 5b 06 b5 3d 93 51 42 3d
       0.07565128 -0.0024559423 0.08839103 0.047441076
000010 43 6c 10 3b 92 94 63 bc 39 42 b9 3c 8a bd c5 3c
       0.0022037185 -0.013890402 0.022614585 0.02413823
000020 e4 18 06 bc 0d 71 58 3c 4c 68 b6 ba 07 28 62 bd
       -0.008184645 0.013210547 -0.0013916581 -0.055213954
000030 27 b0 51 bd 30 8e 8a 3a e2 e4 f9 bc 0a 4b da bb
       -0.051193383 0.001057094 -0.030504648 -0.0066617774
000040 a9 19 fc 3c 30 3b 9a ba 4e 82 de 3c 3f c9 01 3d
       0.030773954 -0.0011766907 0.027161743 0.031686064
000050 13 d5 47 bd c1 e0 28 bd d0 35 41 ba 1d 3d 8a bd
       -0.048787188 -0.041229967 -0.00073703844 -0.06749938
000060 2a c3 06 bd 13 56 0c 3d 32 23 96 3c 81 87 45 bd
       -0.032900967 0.034261774 0.01832733 -0.04822493
000070 9c 8d f9 3c 7a b6 bf 3c 2e 15 db bc 88 a8 85 bd
       0.030463032 0.023402441 -0.026743498 -0.065262854
000080 80 39 27 bc 72 a0 63 3b 41 54 42 bc 5c 29 29 bb
       -0.01020658 0.0034733084 -0.011860908 -0.0025812006
000090 08 d7 fd 3b 78 86 84 ba 2e 0f 12 bb de 67 00 bc
       0.007746581 -0.0010110876 -0.002228688 -0.007837264
0000a0 13 c2 21 bb 6e 8a a4 bb 9c 52 96 bb 3b 79 1c 3c
       -0.0024682328 -0.005021385 -0.0045874845 0.009550388
0000b0 8b 95 2c 3d 60 39 44 ba 1b 59 5f ba c7 4c 73 bb
       0.042134803 -0.0007485356 -0.00085200527 -0.003712462
0000c0 7c 14 24 bc 4a eb d0 3b fb cc 2b 3c 40 22 31 3c
       -0.0100146495 0.006375705 0.010485883 0.0108113885
0000d0 2c 84 ec bb f1 f6 ba bb 9a 81 b2 ba bb d3 c9 bb
       -0.0072179046 -0.0057057072 -0.0013618947 -0.0061592734
0000e0 25 7c 41 ba 6d b8 5b 3c b7 ec ad bb e8 65 20 bc
       -0.00073808647 0.01341067 -0.0053077596 -0.009789921
0000f0 93 b2 0c 3c 22 f1 d6 ba ca 49 60 bb 72 85 10 bc
       0.008587497 -0.0016398767 -0.003422367 -0.008820878
000100 f1 86 20 3b a4 b7 16 bb 23 62 28 3d 0f 46 d1 b9
       0.0024494494 -0.0022997642 0.041109215 -0.00039915784
000110 e0 c8 cc 3c 36 1a b5 bc 36 27 05 3d f3 12 a5 3d
       0.024998128 -0.022107225 0.032508098 0.08060255
000120 17 99 d0 3c 15 62 15 3c 88 20 5a 3d 5b d7 dd 3c
       0.025463624 0.009117623 0.05325368 0.027080229
000130 87 0e 15 bd a6 75 61 3c f9 24 9e 3c 83 8c 9c 3c
       -0.036390807 0.01376096 0.01930474 0.01910997
000140 d5 0b 27 3c 32 a9 eb bc f1 fa a0 bd a0 75 36 3d
       0.010195692 -0.028767202 -0.07860363 0.04454577
000150 fa 0c 0f bd 2d bb ca bc 1c 4b 47 bc 34 23 2f bd
       -0.034924485 -0.024747455 -0.012163904 -0.04275818
000160 04 3d 2b bc 84 dc 2e bd e8 5f 34 bd c1 34 66 3c
       -0.010451559 -0.04269077 -0.044036776 0.014050663
000170 9b a7 0a 3c c6 1f 0c 3d 5b 8a 3c bb 5e f5 f5 3c
       0.008462812 0.03420999 -0.002876899 0.030024227
000180 de 13 6f 3c 8c 1a 01 bc 0f 99 05 3d 65 d9 e9 3c
       0.014592139 -0.007879864 0.03261667 0.028546045
000190 c9 5f 37 bd b0 84 51 bc ea 4e 91 bb 6e 54 08 bc
       -0.044769082 -0.012787983 -0.004434456 -0.008320911
0001a0 99 22 5b 3a d8 67 fc 3b a7 e3 08 bd 57 8f 01 bc
       0.00083593425 0.007702809 -0.03342023 -0.00790771
0001b0 ba af f1 bc e7 20 2f 3d d1 a2 a9 3a f2 03 a1 38
       -0.029502738 0.042755987 0.00129422 7.677813e-05
0001c0 a3 23 b8 bb f4 ce ea 3c c3 43 e4 ba 95 ee 1c 3c
       -0.0056194826 0.028663136 -0.0017415214 0.009578367
0001d0 ef 99 47 bc 55 00 a4 3b 8d ce 9b bc bc 01 13 bd
       -0.012182697 0.0050049224 -0.01901939 -0.035890326
0001e0 58 d0 93 bb 72 e0 08 3d 19 3f 0b 3d f7 53 b1 bb
       -0.0045109205 0.033417173 0.03399572 -0.0054116207
0001f0 9a d8 20 bc 56 ea 69 3b e9 6d ab 39 32 6c e5 bc
       -0.009817267 0.0035692654 0.0003269755 -0.028005693
000200 74 27 51 bd 65 5d 36 3c a6 d7 4c 3c f8 7d b7 bb
       -0.051063016 0.011130665 0.0125025865 -0.0055997334
000210 8b 0b b2 39 d3 1f cf 3b 64 94 05 bb cc e6 d7 bc
       0.00033959406 0.0063209324 -0.0020382637 -0.02635517
000220 15 68 42 3c d5 53 01 3c 80 16 72 3b 44 f3 ef 3a
       0.011865635 0.007893522 0.003693968 0.0018306752
000230 e5 92 0e 3d 24 90 99 3b 9d 00 29 3c 68 4a 08 3c
       0.03480806 0.0046863724 0.010315088 0.008318521
000240 17 c9 c8 bc 06 0e 8b bc d1 3d 23 3c 02 b6 95 bc
       -0.02450995 -0.01697446 0.009963469 -0.018275265
000250 0a 53 69 3c da 00 38 3c 3b 01 11 3c 5b 0a b7 3c
       0.014240989 0.011230672 0.008850391 0.022343805
000260 d8 dc 74 3c bd 72 fa 3b 1e 70 0e bc 38 bf 87 3b
       0.014945231 0.0076430724 -0.008693723 0.004142668
000270 2d ca 62 bc 44 3b 1a bc 0b b6 7d bc de 6f 31 bb
       -0.013842148 -0.009413544 -0.015485297 -0.0027074735
000280 4c d6 78 bb 03 fe 5e bb ec 76 12 ba dc 78 11 3b
       -0.0037969528 -0.0034025915 -0.0005587179 0.0022197282
000290 45 61 60 b9 e9 93 72 ba 9b 59 25 bb 33 4f 76 bc
       -0.0002139854 -0.0009253608 -0.002523041 -0.015033531
0002a0 3f e1 a0 bb b0 42 2a 3b 09 1c 71 3a 44 ac a6 3b
       -0.004909664 0.002597969 0.0009197598 0.0050864536
0002b0 68 7a 33 3c 86 d7 ef bb f6 70 08 bc 2b bf 81 bb
       0.010954477 -0.0073193936 -0.008327713 -0.0039595566
0002c0 4b 5e 9b 3b ff 90 97 b9 dc fe 23 3c ff 1a 6c 3a
       0.004741465 -0.00028908995 0.010009494 0.0009006708
0002d0 2c 15 6b bb 71 9c be b9 c8 65 f4 ba 1b 2b f1 3b
       -0.0035870774 -0.00036356182 -0.0018646056 0.007359875
0002e0 9e b6 09 3b 08 f3 84 bb 74 26 fa bb c6 aa 51 ba
       0.002101339 -0.004057292 -0.0076339785 -0.00079981645
0002f0 b5 f3 9e 39 d1 24 8d 3b 29 b2 0b bc b8 6a 40 bb
       0.00030317684 0.0043073674 -0.008526363 -0.0029360484
000300 86 d8 2f 3d bb 18 32 bc 7f e8 23 3c 6b 3e f2 3b
       0.042931102 -0.010870154 0.010004162 0.0073926947
000310 43 c4 99 3b 57 99 37 bc eb ab cf ba 49 4c 16 bc
       0.0046925857 -0.011205993 -0.0015844082 -0.009173461
000320 36 31 7d bc d3 ef 50 3c 3b a9 bc 3b 1b 31 cb bb
       -0.015453627 0.012752491 0.0057574785 -0.006200922
000330 61 21 9a 3c 48 48 df bc b0 4e 68 3a 79 3f da 3a
       0.018814744 -0.027256146 0.0008861823 0.0016650996
000340 8d 29 02 3b f9 03 4a bb 6d 47 25 3c 0f 68 be 3b
       0.0019861192 -0.0030825122 0.01008783 0.0058107446
000350 53 20 19 3c 5d 96 22 bb a7 2c ae 3b 80 94 64 3c
       0.009346086 -0.0024808862 0.0053153816 0.013951421
000360 f4 53 08 3c c1 87 8a 3b ec 9d fb bb fa 4c 05 3c
       0.008320797 0.004227609 -0.007678738 0.008136028
000370 25 79 86 bc 0b e0 c3 3b 7d c1 10 bc 23 de d2 3b
       -0.016415188 0.0059776357 -0.008835194 0.006435172
000380 3d fe 8e 3d 1d ae cb bc 5b af e9 3d 2f 3f 54 bd
       0.06982086 -0.024863297 0.114103995 -0.05181807
000390 2b 8d 67 3d d3 72 61 bb 5d 3c 18 3d f1 f3 17 3d
       0.056531113 -0.0034400716 0.037166942 0.037097875
0003a0 37 31 d5 3d 47 cb ce bc f4 55 04 3d 57 9a 18 3d
       0.104097776 -0.025243415 0.032308534 0.037256565
0003b0 f7 97 9f 3c fd c3 9f 3d 82 2b 3a 3b 5d 47 52 3d
       0.019481642 0.07801054 0.002840728 0.05133759
0003c0 14 cb 87 3c 92 7a 00 bd a6 ce 8c bd eb 50 07 3c
       0.016576327 -0.031366892 -0.068753526 0.008259038
0003d0 7b 0e 02 3a 70 50 4c 3b 97 ba e9 3c b9 03 e7 3c
       0.0004961264 0.0031175874 0.028531356 0.028200017
0003e0 10 3f d9 bc 60 ac 35 3d 12 c0 e0 3c 68 8d 24 3c
       -0.026519328 0.044353843 0.027435336 0.0100434795
0003f0 d0 0e 1d bd dc 45 bd bc d8 41 75 bd 0f 05 01 bd
       -0.038344204 -0.0231046 -0.059877247 -0.031498965

lstm.bias_ih_l1 f4 [128]
000000 94 09 d4 bd 0f 7c dd 3b d0 a0 3a 3d d0 2b 9c 3d
       -0.103533894 0.0067591737 0.04556352 0.07625544
000010 47 1c 99 3b 3d e3 b3 bc 32 59 c8 3a f5 35 8c 3d
       0.0046725604 -0.021958942 0.0015285371 0.06846229
000020 7e 6f ba bd 2c c9 a3 3d 5d cb d9 3c dc 5d 2a 3d
       -0.09103297 0.07997355 0.026586229 0.041593418
000030 2c db 71 bd 09 20 01 3e da 34 fe bc 76 83 42 3d
       -0.05904691 0.12609877 -0.031031061 0.047488652
000040 28 b7 a0 3d 8d c1 66 3d f3 9f b8 3d 90 98 88 3d
       0.07847434 0.05633693 0.09014883 0.06669724
000050 26 35 72 3d 3d aa 70 bd d2 7d 8b bd 45 0d 43 3d
       0.059132718 -0.058756102 -0.06811108 0.047620077
000060 45 51 92 bd c7 8c fc bc 2a c4 95 bd 53 24 67 bc
       -0.07144407 -0.030828847 -0.07312806 -0.014107781
000070 02 e3 65 bd 72 83 6a 3d c6 c2 ad bd 89 68 91 bd
       -0.056124695 0.057254262 -0.08484416 -0.071000166
000080 64 76 20 3e 1f 14 94 bd e1 bb 35 3e 4c 0e cc bd
       0.15670162 -0.072304 0.17747451 -0.099636644
000090 6a 12 49 3d 38 31 25 bd fd 43 a5 bd 7e 4a 11 3e
       0.049089827 -0.04033014 -0.08069608 0.14188573
0000a0 aa 74 69 bd 20 14 02 be d8 ef a6 bd e8 e1 87 3d
       -0.056996025 -0.1270299 -0.08151215 0.06634885
0000b0 75 0a 9f bb c1 a0 71 3d cd a5 af bc 87 6d 06 be
       -0.0048535415 0.058991197 -0.021441365 -0.13127719
0000c0 9c 2b 12 3d ad 96 e7 bd 67 9c da bc 6b bf 9e 3b
       0.03568612 -0.11308036 -0.026685907 0.004844596
0000d0 29 87 92 bd 9a 1a 1a be ef d4 dc bd 9d 92 81 3c
       -0.07154686 -0.1504921 -0.10782801 0.015816981
0000e0 e5 ec c8 bd 70 66 b2 ba b9 a6 39 bd af c3 91 3c
       -0.09810809 -0.0013610851 -0.045325015 0.017793505
0000f0 a2 07 f5 bc cf a8 82 bd d3 a5 9e 3d c7 5a 1b 3c
       -0.029910866 -0.06379854 0.07746472 0.009482092
000100 80 01 32 bd 6b c7 1b 3d 9b 50 57 3c 69 0f 2e be
       -0.04345846 0.038031977 0.013141776 -0.16998066
000110 d6 2d 10 3d 41 5d b2 3d 01 f9 28 bd 34 ba a7 bc
       0.035199963 0.08709193 -0.041253094 -0.02047453
000120 e4 8e 22 3e 26 69 4e 3d db c1 0e 3d d4 b2 0a be
       0.15874821 0.050393246 0.034852844 -0.1354478
000130 6a cb 2b 3d c8 59 d0 3d ed 21 53 bd be 88 c0 bc
       0.041942038 0.101733744 -0.051546026 -0.023502704
000140 96 75 f0 bc 85 e8 99 3d 84 54 98 bd 48 80 c6 bd
       -0.029352944 0.07515053 -0.07437995 -0.096924365
000150 47 68 58 3d c9 fe 38 be 62 67 f0 bd a4 83 0e be
       0.05283382 -0.18065943 -0.11738469 -0.13917404
000160 8e 89 c9 bd 3f 48 92 bc 91 41 0b bb b2 32 41 3d
       -0.098406896 -0.017856715 -0.0021248797 0.047167487
000170 85 e2 54 3e 91 cd 0f 3c 5a 00 23 3e 3f 8c 37 be
       0.20789535 0.008777038 0.15918103 -0.17924593
000180 71 21 59 3e 7f 63 c1 bc 8b 0b d6 3b e6 f7 03 bd
       0.21204163 -0.023607014 0.0065321377 -0.032218836
000190 88 79 93 3d 34 fb 10 bd b0 81 f9 bc 87 47 c9 3c
       0.072009146 -0.035395816 -0.030457348 0.02457024
0001a0 cd cd 8e 3d ca b4 03 3d d2 28 34 3d db 9d 6a 3d
       0.06972847 0.032154836 0.04398424 0.05727945
0001b0 cf fc f4 3d 54 c6 a0 bc 08 1f ca bc 0a fc 93 3d
       0.11962282 -0.01962582 -0.024673 0.07225807
0001c0 ee b1 ba bb 36 b5 03 bd a9 e8 1a bb bc 15 6f bd
       -0.0056974804 -0.032155238 -0.0023637211 -0.058370337
0001d0 28 cf 8e 3d e4 4f c1 bc c6 0e 8b bd 07 12 e8 3c
       0.06973106 -0.023597665 -0.06789927 0.028328909
0001e0 1c b6 b8 3b 20 1c 3d bb 7a f9 2d 3c 70 f4 4a bd
       0.0056369435 -0.0028855875 0.010618562 -0.04954952
0001f0 03 8a 94 bc fe d8 b2 bd 6b e6 36 bb c2 f5 83 bb
       -0.018132215 -0.08732794 -0.0027908336 -0.0040270993

lstm.bias_hh_l1 f4 [128]
000000 5a cf 95 bd 2e 25 58 bb ec 57 31 3c 97 dc b0 3c
       -0.0731494 -0.0032981145 0.010824185 0.02158956
000010 a3 f5 bc bd 6e a7 ab 3b 0e 6f e4 bc d4 2a b4 3d
       -0.09226539 0.005238465 -0.027884986 0.08797231
000020 55 a3 75 3d 35 1d 89 3d cc 2f 36 3d 0b c6 21 3c
       0.05997022 0.06695024 0.044479176 0.009873877
000030 b6 2d 9e 3d db 7a 04 3e 4e 85 f5 bc 34 53 a7 3d
       0.077235624 0.1293749 -0.029970791 0.081701666
000040 d0 85 03 3d 9f c6 a6 bb a4 72 8f 3d 80 67 19 3d
       0.032110035 -0.0050895954 0.07004288 0.03745222
000050 d7 45 87 3d c9 72 5e bc b2 b4 97 bd d4 c0 5f 3d
       0.06605118 -0.013577172 -0.07407512 0.054627255
000060 4b 57 55 bd 73 5b 68 3c 27 e9 2c 3c b3 1b db bc
       -0.052085202 0.014181959 0.010553635 -0.026746606
000070 05 48 81 bd f4 15 5c bd 28 5a 91 3d 76 be 4b bd
       -0.06312565 -0.053731874 0.07097274 -0.049742185
000080 47 4d 52 3e 5d 9d b9 bd 0d 54 20 3d 19 d2 2f bd
       0.20537291 -0.09063218 0.039142657 -0.042924974
000090 b5 c3 2c bd b6 ff 6f bd 8e 53 4e bd b2 1c a9 bb
       -0.04217883 -0.058593474 -0.050372653 -0.0051608915
0000a0 e1 00 98 3d d9 56 fc bd 4d 47 be bd eb 69 95 3c
       0.07422043 -0.123212524 -0.09290943 0.018238982
0000b0 d2 1a 68 3d e4 b1 c0 3d b2 40 4a 3b 89 a9 7f bd
       0.056666203 0.0940893 0.0030861315 -0.06241754
0000c0 10 7f ba bc e8 8f fe bd 91 59 ed 3d 9b 28 b6 3d
       -0.022765666 -0.12429792 0.11589349 0.08894464
0000d0 9b 43 53 3c 62 38 6a bd 1c dd 6e bd 6e 60 87 3d
       0.012894536 -0.057182677 -0.058316335 0.066101894
0000e0 81 9d 8a 3c 97 ec 16 3b 8c 07 ac bd 40 b0 af 3c
       0.016920807 0.0023029202 -0.08399877 0.021446347
0000f0 30 b7 ed bc 6d 96 4f 3d bb f7 15 3d 1d e9 05 3e
       -0.029018015 0.050680567 0.036613207 0.13077207
000100 3b 86 cf 3d b5 72 9c 3d 7c 8a 1c 3e ec d4 ec 3a
       0.10133024 0.07639066 0.15287203 0.0018068827
000110 fa eb b7 bd 22 ee 18 bd e8 9f ab bd 4d 4c c6 bc
       -0.08980556 -0.037336476 -0.08380109 -0.024206305
000120 48 7c 28 3e 38 23 1b bd 24 33 2e 3d c1 fe b9 3d
       0.1645366 -0.037875384 0.04252924 0.090817936
000130 11 66 d2 3d 52 76 96 3d f5 cd 09 be 9e 4a 62 bc
       0.10273374 0.073467866 -0.13457473 -0.013811735
000140 61 ba d5 3d 1c 2b 10 3e 6c 9f 1e be ef 10 c4 3d
       0.104359396 0.14078945 -0.15490502 0.09573542
000150 a7 09 d5 bd 94 4b 3b be 4b a5 39 bd 07 94 44 be
       -0.10402232 -0.1829055 -0.04532365 -0.19197093
000160 50 1a c0 bc f9 56 ea bd d1 2e 67 3d cd c1 13 be
       -0.023450047 -0.1144237 0.056441132 -0.14429398
000170 31 7e 50 bd 84 2e 0b bd e7 0e c1 bd 26 ec 36 be
       -0.050901596 -0.033979908 -0.094266705 -0.17863521
000180 8f e1 27 bc 6f 1e 69 bc d8 08 c5 3d 13 1f 2f 3d
       -0.010246648 -0.014228447 0.096208274 0.042754244
000190 95 24 c2 bd ac fa 72 3c 10 2a 72 bd a1 02 5c 3e
       -0.09479634 0.014830273 -0.059122145 0.21485378
0001a0 34 2e 0a bd 62 16 d3 3c ab 12 0a 3d d0 d5 eb bb
       -0.03373547 0.025767509 0.03370921 -0.0071971193
0001b0 79 93 00 3e fd f2 53 bb b9 ee 72 bc e6 8f 70 bc
       0.12556256 -0.0032340877 -0.014827424 -0.014682746
0001c0 10 62 53 3d 47 8f 02 bd 03 c9 85 bd 8a 9a 0d 3d
       0.05160719 -0.03187492 -0.065324806 0.034571208
0001d0 d7 e1 4b 3d fb f8 cb bd 1f ad fc bd 8a 1f 10 3d
       0.049775925 -0.09959599 -0.12337708 0.035186328
0001e0 db f0 ae 3d 34 58 00 bd c9 bf 02 3d a8 f5 d1 bd
       0.08542033 -0.031334117 0.03192118 -0.10251933
0001f0 82 a2 b3 bc 3e 31 38 bc 4f 3d 47 bd 84 03 07 bd
       -0.021928076 -0.011242209 -0.048642453 -0.032962337

bn.weight f4 [32]
000000 9f 25 54 3f 75 03 5a 3f 40 a7 5a 3f b0 3d 8c 3f
       0.82869905 0.85161525 0.85411453 1.0956326
000010 d5 e4 4f 3f 67 c7 3d 3f f5 a7 79 3f e5 f4 65 3f
       0.81208545 0.7413239 0.9752191 0.89826804
000020 f0 c6 77 3f 9d 08 80 3f 82 a1 68 3f b7 bd 60 3f
       0.9678793 1.0002629 0.9087144 0.8778948
000030 76 92 4a 3f 09 27 86 3f 11 14 7a 3f 6b 2c 76 3f
       0.7912973 1.0480663 0.9768687 0.96161526
000040 d5 69 64 3f 25 da 78 3f 9a 98 58 3f e9 6b 61 3f
       0.89223987 0.9720786 0.8460785 0.8805528
000050 f8 a2 79 3f 1c 96 8a 3f b7 fe 7a 3f 88 3c 63 3f
       0.97514296 1.082706 0.98044914 0.8876424
000060 6b 23 7a 3f b1 1d 18 3f 9a 1e 72 3f 26 69 45 3f
       0.97710294 0.59420305 0.94577944 0.7711357
000070 04 a2 75 3f 4c 21 67 3f 00 79 5d 3f 03 1b 64 3f
       0.9595034 0.9028518 0.86512756 0.89103717

bn.bias f4 [32]
000000 e3 06 62 3c 0b f6 7d bd 90 23 25 3c 48 40 bb 3c
       0.013795587 -0.062002223 0.01007928 0.0228578
000010 a1 e0 d0 3d 4c b6 49 3d 77 63 09 bd 25 de 03 bd
       0.101990946 0.049246117 -0.033542123 -0.032194275
000020 f4 28 9c 3c ec c4 10 3d a8 b9 36 3a b4 71 75 3b
       0.019062497 0.03534405 0.0006970414 0.0037451806
000030 49 4d 4a 3d f1 6a 06 bd b7 f3 9e 3d 86 17 ad 3c
       0.04939011 -0.03281683 0.07761329 0.02112938
000040 a7 bb ab bd 9d b3 9f 3d 64 9a a4 3d dd 04 6f bd
       -0.08385401 0.077979304 0.0803726 -0.058354247
000050 30 7e 33 bd 86 30 7f bd c0 1c 07 3c f6 5a 6a 3d
       -0.043821514 -0.062302135 0.008246601 0.057215653
000060 3b 9c 1b bd 7c ef 91 3d b9 1c f6 bc 73 d7 5f bd
       -0.03799079 0.07125756 -0.030042993 -0.054648828
000070 01 c2 03 bc a3 5e e2 bd 6a 1c 19 bc 6a 3f 7b bd
       -0.00804186 -0.11053207 -0.009345153 -0.061339773

bn.running_mean f4 [32]
000000 fb 7c 1c 3d be 41 9a 3b 01 75 d9 3d 21 02 fe bd
       0.03820513 0.004707544 0.1061802 -0.1240275
000010 45 ec 8e 3d a4 05 b1 bc 91 8d a8 bd 6d 64 4a bd
       0.069786586 -0.021609135 -0.08230127 -0.04941218
000020 1d 8d 5c 3e 12 b6 44 bd fe 7b b0 bc 5b 47 a3 bd
       0.21538205 -0.0480252 -0.0215435 -0.07972594
000030 34 b3 cc bc f3 66 87 3e 05 0e f8 bc 63 f4 cc bc
       -0.024987794 0.26445732 -0.030280123 -0.025018876
000040 84 d5 bd 3c 3b a4 fa 3d 30 50 b2 bc f1 cf dc 3c
       0.023173101 0.12238356 -0.021766752 0.026954623
000050 65 01 6c bd 23 7b 26 be a4 29 f5 bd 30 10 97 be
       -0.057618517 -0.1625791 -0.11970833 -0.29504538
000060 02 67 b8 bd 2a f9 f9 bc 29 e4 ed 3d 1f 22 b0 bd
       -0.09004022 -0.030514318 0.11615784 -0.08600258
000070 e4 75 96 3d 7c e6 cd bd 33 6a 56 3d 1f a0 37 be
       0.073467046 -0.10053727 0.052347373 -0.17932175

bn.running_var f4 [32]
000000 0a c5 a4 3c 0d 6c 54 3b a2 5c 64 3c bc 9b 6f 3b
       0.020113487 0.0032413036 0.013938101 0.003656133
000010 7c 96 ae 3b f8 94 45 3b 90 a5 4b 3b 04 d6 c3 3c
       0.0053279977 0.0030148607 0.0031074025 0.023905762
000020 0e 67 d1 3b 94 40 80 3b f1 ae ac 3b cc 00 13 3c
       0.006390459 0.0039139483 0.005269878 0.008972358
000030 3f 6a 95 3c 63 9b b4 3b 0a 57 af 3a aa 86 68 3b
       0.018239139 0.0055116876 0.001337738 0.0035480657
000040 51 bc 97 3b 68 0e 6f 3b fc fc 12 3c 75 3a bb 3b
       0.0046306034 0.0036477093 0.008971449 0.0057137557
000050 d7 f6 d9 3b aa e8 15 3b e5 40 15 3b 0d d0 da 3a
       0.00665174 0.0022874274 0.0022774276 0.0016694084
000060 c3 51 71 3b 77 46 11 3b 6f cd d6 3b 21 64 6a 3b
       0.0036822415 0.0022167244 0.0065552513 0.0035765248
000070 82 0f 31 3b a6 22 27 3b 3a 7d ed 3b 45 67 82 3b
       0.00270173 0.002550283 0.007247594 0.003979596
