checkpoints/2023-09-08_18-04-18_checkpoint.pth (torch, 428251 bytes, 39 tensors)

lstm.weight_ih_l0 f4 [128, 309]
000000 26 14 49 bb 1f b4 1b bd ff 43 67 bd c1 1a b0 3b
       -0.0030682175 -0.038013574 -0.05646133 0.005374283
000010 49 3e 18 bc a3 69 5e bd 1c ed 01 bb 28 52 f9 3c
       -0.009292194 -0.05429996 -0.0019825166 0.030434683
000020 a4 bc f9 3c 8b d9 fc 3c a5 c7 f3 3c eb 73 fd 3c
       0.030485459 0.030865451 0.029758284 0.030939063
000030 7e ff fc 3c 0e 09 00 3d 55 a3 fa 3c 7b ea f2 3c
       0.030883547 0.031258635 0.03059546 0.029652825
000040 cf 61 f7 3c 1c 19 e9 3c 92 80 f0 3c 5a 74 f5 3c
       0.030198006 0.028454356 0.029358182 0.029962707
000050 54 e7 fe 3c 31 23 03 3d 4f 76 ff 3c 39 7b fa 3c
       0.031116165 0.032015983 0.031184344 0.030576335
000060 0c 72 f2 3c 44 9b ed 3c 75 00 f2 3c d1 97 fc 3c
       0.029595397 0.0290047 0.029541234 0.03083411
000070 9b ff fe 3c 74 bb fc 3c 30 42 f9 3c 48 c3 f4 3c
       0.031127742 0.030851103 0.030427068 0.029878274
000080 6c d2 f7 3c bf 12 00 3d 5a 2b 02 3d d2 35 1a 3d
       0.030251704 0.031267878 0.031779625 0.037648983
000090 74 4a 16 3d 8d b7 1b 3d 45 6c 21 3d bc 65 20 3d
       0.036692098 0.038016845 0.039409894 0.03915952
0000a0 78 9e 23 3d 3a bb 23 3d df 2b 1d 3d 77 50 18 3d
       0.03994605 0.039973475 0.038371917 0.037186112
0000b0 41 31 19 3d cc 3e 19 3d 52 b4 1d 3d c9 69 26 3d
       0.037400488 0.037413403 0.038502045 0.04062823
0000c0 a5 07 2e 3d 2a e7 34 3d 09 39 34 3d ec 40 28 3d
       0.04248776 0.044165768 0.043999705 0.04107754
0000d0 48 a4 22 3d eb 5f 1f 3d a5 0a 1c 3d 83 d0 1b 3d
       0.039707452 0.038909834 0.03809609 0.03804065
0000e0 70 a1 21 3d 0a 17 24 3d 82 96 27 3d 39 d5 23 3d
       0.0394606 0.040061034 0.04091502 0.039998267
0000f0 4c 69 21 3d a4 c9 1a 3d a6 66 1c 3d 1e 0a 9c 3b
       0.03940706 0.037789956 0.03818383 0.0047619483
000100 5d e7 91 3b 19 43 8e 3b f5 72 21 3a 44 75 fb ba
       0.0044526295 0.0043414948 0.00061587925 -0.0019184728
000110 8c d2 d9 37 7b a0 3d 3b af c3 89 3b 10 f9 60 3c
       2.596646e-05 0.0028934765 0.0042042355 0.013731256
000120 69 67 ed 3b ae 55 a6 3b d6 41 86 ba b6 95 5f bb
       0.0072449935 0.005076132 -0.0010243009 -0.0034116334
000130 0b 0a 6c bb a8 d2 c9 3a 60 7b 8a ba 22 7a 89 bb
       -0.0036016728 0.0015397863 -0.0010565333 -0.0041954676
000140 de 7e 8b bb 9a 4e e5 ba d7 2d b5 3b 81 f0 9d 3b
       -0.004257067 -0.0017494739 0.005529146 0.00481993
000150 91 3b c8 3a 2e 41 46 39 c7 2e e8 38 8a 56 9e 38
       0.0015276541 0.00018907033 0.00011071335 7.550146e-05
000160 0c 76 27 3b e8 5a 33 3b cf 3a 69 3b d1 3a 42 bb
       0.002555254 0.0027367417 0.0035588031 -0.0029637108
000170 a2 63 50 bb 91 a3 8b bb cb ac a5 bb 64 08 f3 bb
       -0.0031797667 -0.004261442 -0.005055999 -0.0074167717
000180 1e 14 f4 bb 8d ef 93 bb 7f 9e 88 bb 8f 0b e5 ba
       -0.007448687 -0.0045146407 -0.004169285 -0.0017474758
000190 52 f1 21 bb 78 2b 33 bb c3 8e 89 bb 16 88 86 bb
       -0.0024710489 -0.0027339142 -0.0041979267 -0.004105578
0001a0 e9 2f 21 bc d7 bd 61 bc 8b 7f 3a bc 84 a9 b2 bb
       -0.009838083 -0.0137781715 -0.011382948 -0.0054523367
0001b0 cf 54 85 bb e2 9d 77 bb 3b 80 53 bb 39 95 42 bb
       -0.004068948 -0.0037783314 -0.0032272476 -0.0029690994
0001c0 ef 26 a0 bb 92 a2 c8 bb ca 85 e3 bb 7b 61 b9 bb
       -0.0048874537 -0.0061228955 -0.006943439 -0.0056573725
0001d0 cd c6 87 bb 35 40 61 bb 76 cf b1 bb a9 fe 0a 3d
       -0.004143572 -0.0034370546 -0.0054263426 0.03393427
0001e0 48 e8 08 3d d5 c6 03 3d 9d 16 02 3d d9 1c 06 3d
       0.033424646 0.032172043 0.031759847 0.032742355
0001f0 0f b7 02 3d 9a e4 05 3d 0b a0 07 3d 7e d0 05 3d
       0.03191286 0.032688715 0.033111613 0.032669537
000200 12 bb 01 3d cd 4a 02 3d c8 5e 02 3d 3c 7b 05 3d
       0.031672545 0.031809617 0.03182867 0.03258823
000210 70 1a 05 3d 52 44 08 3d a4 02 07 3d 9e 8c 02 3d
       0.032495916 0.03326828 0.032961503 0.031872384
000220 9e c9 00 3d 58 f6 07 3d 14 29 00 3d 49 93 07 3d
       0.031442277 0.033193916 0.031289175 0.033099446
000230 07 cf 07 3d a0 c3 01 3d d7 48 ff 3c ab 13 04 3d
       0.03315642 0.031680703 0.031162662 0.03224532
000240 4b 62 09 3d f5 b3 0e 3d d5 a3 0b 3d 3f 12 03 3d
       0.033541005 0.03483959 0.03409179 0.031999823
000250 38 05 06 3d 94 5e 04 3d 85 5c 08 3d 4c 4c 09 3d
       0.03271982 0.03231676 0.03329136 0.033520028
000260 c5 a9 09 3d c8 2c 09 3d 9d 02 06 3d e4 cd 0e 3d
       0.03360917 0.033489972 0.032717336 0.03486432
000270 7d db 0e 3d a7 53 0d 3d e6 ee 0f 3d de 07 11 3d
       0.03487729 0.034503605 0.03513994 0.035407893
000280 17 4e 15 3d cb bf 1f 3d 7b 02 16 3d 3f 26 14 3d
       0.036451425 0.039001267 0.03662346 0.036169287
000290 27 56 0e 3d 66 34 09 3d e5 20 0e 3d d7 03 08 3d
       0.03475013 0.033497237 0.03469934 0.033206787
0002a0 13 96 09 3d 3b 49 0a 3d b6 4f 0c 3d db e3 0b 3d
       0.033590388 0.033761244 0.034255706 0.034152847
0002b0 92 71 07 3d a9 42 09 3d 67 1e 06 3d 1c fb a3 3b
       0.033067293 0.033510838 0.032743838 0.0050043
0002c0 96 64 21 3b 10 d8 02 3b 32 b8 d7 b9 4a a4 40 3b
       0.0024626604 0.001996521 -0.00041145232 0.00293948
0002d0 4d dc d4 39 98 73 4b 3b 75 41 e3 3a fe cc f6 3b
       0.00040599928 0.003104424 0.0017338233 0.007531761
0002e0 ca 38 14 3c 30 a1 3c 3b 6a ab e1 b9 44 53 26 bb
       0.009046743 0.0028782599 -0.00043043058 -0.002537922
0002f0 c3 8c a2 ba 2b 48 30 3b 0b 63 3a 3b 7a 37 74 bb
       -0.0012401569 0.0026898484 0.0028440382 -0.0037264512
000300 9c 09 aa b9 b0 23 73 39 67 3b d2 3b 2f fe a6 3a
       -0.00032432086 0.0002318758 0.0064157727 0.0012740548
000310 b8 5a 9b 3a 49 5b 12 3b d6 be 69 3b 49 46 81 3b
       0.0011852598 0.0022332242 0.0035666726 0.003945146
000320 85 b0 93 3b ef ae 9a 3b c6 ce 38 3b e7 53 db b9
       0.0045071268 0.0047205607 0.0028199418 -0.00041833447
000330 a6 60 b2 ba 63 02 6c 3a 53 74 43 3a 82 20 f8 b9
       -0.0013609126 0.0009003041 0.00074559933 -0.00047326466
000340 df e3 65 b9 60 24 58 b9 a4 59 23 bb 69 b6 83 bb
       -0.0002192403 -0.00020612916 -0.0024925256 -0.0040195477
000350 8a e1 8d bb 4d af f9 39 1d 78 50 b9 c9 bb f9 3a
       -0.004329865 0.0004762359 -0.00019881171 0.0019053157
000360 3c 46 22 bb 5e ea 56 bb 7c 27 97 ba 30 cb 42 ba
       -0.0024761101 -0.0032793502 -0.0011532153 -0.000743079
000370 ac c6 7d 3a 97 08 59 bb eb e5 65 bb 5a 5a 4c 3a
       0.00096807885 -0.0033116692 -0.0035079669 0.0007795446
000380 d6 c5 9f 38 4f 5d 61 38 0b 33 99 ba 37 39 43 38
       7.6185606e-05 5.373108e-05 -0.0011688186 4.654491e-05
000390 7b ce 09 3b 6d c9 fa b8 7d 9a 63 39 2c 67 2e 3d
       0.0021027613 -0.000119584474 0.00021705958 0.04257886
0003a0 5c c9 33 3d b8 b3 31 3d d5 1f 31 3d 05 1e 2c 3d
       0.043893203 0.043384284 0.043243248 0.042020816
0003b0 0c 4e 2b 3d 13 7d 2c 3d 3d f8 2c 3d d3 61 2c 3d
       0.04182248 0.042111468 0.042228926 0.04208548
0003c0 51 06 30 3d 2f 0f 2d 3d 9e 1e 30 3d d1 06 2e 3d
       0.042974774 0.04225081 0.04299795 0.04248697
0003d0 bf ae 2b 3d 93 72 29 3d 89 19 2d 3d e6 2c 2c 3d
       0.041914698 0.041369032 0.04226068 0.042035006
0003e0 ba 22 2c 3d d4 61 2b 3d 00 9a 2b 3d 43 c5 2d 3d
       0.042025305 0.041841343 0.041894913 0.04242445
0003f0 21 5e 2c 3d ee a2 2b 3d 85 94 2c 3d 04 9e 2d 3d
       0.042081956 0.04190343 0.042133827 0.042387024

lstm.weight_hh_l0 f4 [128, 32]
000000 f7 ca 35 bc a1 15 3d 3c 6e da ea 3a 48 f3 27 bb
       -0.011095754 0.011540801 0.001791788 -0.0025627185
000010 1c 70 8f 3c 99 c4 d9 ba c0 15 52 3a 1c 4d 0b ba
       0.017509513 -0.0016614377 0.0008014105 -0.00053139194
000020 ff 91 ad bb c4 19 e1 3b e1 00 76 3d 72 48 d4 bb
       -0.005296945 0.0068695266 0.060059432 -0.0064783627
000030 54 d6 be bc e0 6e 1a 3c 5f 38 9e 3a b3 a8 03 bd
       -0.023295559 0.009425849 0.0012071243 -0.032143306
000040 25 ec 09 bd 73 92 cd 3b 53 fa e2 3c 0d 67 9e bc
       -0.03367247 0.0062735616 0.027707255 -0.019336248
000050 6a 83 62 bb 1c 90 8d ba ef 6d 4d 3c 3e a2 2b bb
       -0.0034563192 -0.0010800394 0.012538417 -0.0026189233
000060 9f 3b 99 3c 26 94 55 3d 3e a4 1c bd 86 98 8e bd
       0.018705187 0.05214324 -0.03824257 -0.06962685
000070 b9 dc bf bb 9f 0d 65 3c 14 43 54 bd df 64 43 bd
       -0.0058551696 0.013980298 -0.051821783 -0.04770362
000080 7b 36 0a 3c 13 ec 05 3c 4b 73 d7 38 01 56 84 39
       0.008435841 0.00817396 0.00010273474 0.0002524108
000090 b2 e3 dc 3c ec 2b 05 39 75 1c 39 ba ab 46 80 3b
       0.026964042 0.0001270023 -0.00070614304 0.0039146743
0000a0 39 44 fd 3b cf 21 2a bc fe dc 08 3c 6f 22 7d bc
       0.00772908 -0.010384037 0.00835347 -0.015450104
0000b0 8b 17 90 ba 79 24 97 3c 69 d3 fb ba 66 ad bb 3b
       -0.0010993344 0.018450009 -0.0019212785 0.005727458
0000c0 15 0c 18 bc 86 a6 11 bc 5d 1f 4d bb ec 55 8a bc
       -0.009280224 -0.0088898 -0.0031299212 -0.016886674
0000d0 57 41 4b 39 40 43 5f 37 cd 62 5a 3c 7a 1d 17 39
       0.0001938393 1.3307494e-05 0.01332922 0.00014411463
0000e0 6d 43 24 3b 60 d9 49 3c 44 00 bc ba c5 63 87 bb
       0.0025064603 0.012319893 -0.0014343341 -0.0041317665
0000f0 c2 83 9c bc c6 11 4e 3a 11 96 fd 3b e3 f5 96 3b
       -0.019105796 0.0007860925 0.0077388366 0.0046069487
000100 5d 55 00 bc 49 04 dc ba 62 1c 3e b9 c7 26 b1 b9
       -0.007832852 -0.0016785945 -0.00018130385 -0.00033788962
000110 b3 78 a1 3b ab 6a 93 38 64 d2 30 39 ec c7 52 bb
       0.0049277185 7.029375e-05 0.00016863045 -0.003216262
000120 da 16 94 ba 38 96 82 3a 89 2f df bb 43 0e 81 3c
       -0.0011298314 0.0009962982 -0.0068110866 0.01575387
000130 af e5 3a 3a 3e fb f1 ba 22 24 2b 3a fe 29 b9 ba
       0.00071295624 -0.0018461717 0.00065285165 -0.0014126895
000140 99 f0 32 bc 5b 82 f1 3b e1 61 9d 3b 6a 1f 9a 3c
       -0.010921621 0.007370276 0.004802928 0.018813808
000150 ca 06 c5 b9 02 b9 d4 b9 b5 79 aa 3b cc 06 d6 39
       -0.00037579826 -0.00040573633 0.005202497 0.00040822325
000160 8d bd 66 bb 56 39 a9 bb 2b 4a 83 3a ff 44 ce 3b
       -0.0035208196 -0.0051643057 0.0010016611 0.006294846
000170 6b 7c 8b 3c 07 18 9e 3a 08 ef 38 ba 53 54 b6 bb
       0.0170271 0.0012061604 -0.00070546614 -0.0055642514
000180 05 e6 45 bc b5 62 11 bb 4b 41 0c ba 3b e9 c7 b8
       -0.012078767 -0.0022184078 -0.00053503056 -9.532502e-05
000190 ed 27 f3 3a a9 bb e5 b9 fb ee aa 3a ba 53 f8 bb
       0.0018551328 -0.000438181 0.0013041192 -0.0075783404
0001a0 3f 52 34 bb d7 99 9c 3b 9c 69 32 bc 18 45 53 3c
       -0.0027514843 0.0047790813 -0.010889437 0.012894891
0001b0 9a 50 8e bb 7a 6c c1 bb 1f d5 3c 3a 52 07 8f bb
       -0.0043431045 -0.005902824 0.00072033884 -0.0043648863
0001c0 6c 7b 4e bc e4 88 e6 3b e6 4c 00 3c 66 68 88 3c
       -0.012602668 0.0070353616 0.007830834 0.016651344
0001d0 cd b2 6f b9 15 3b 59 b9 c4 de 96 3b 12 87 14 ba
       -0.00022859425 -0.00020716742 0.0046041925 -0.0005665879
0001e0 6d 68 66 bb eb 84 5f bc f0 5d a9 3b b5 7a ff 3b
       -0.0035157457 -0.01364253 0.005168669 0.0077966102
0001f0 35 f9 67 3c a2 78 5f bb c4 60 5e 3a ce 2b b8 bb
       0.014158537 -0.0034099002 0.0008483047 -0.0056204563
000200 4f f7 34 3e 76 fd bd bb a5 d8 44 3c d2 ed 21 ba
       0.17672466 -0.005798037 0.012014543 -0.00061771006
000210 21 84 c4 3d 5f b3 99 3a 01 d4 16 3c 59 8a 16 be
       0.09595514 0.001172643 0.009205819 -0.14701213
000220 90 1a 73 3d 39 b8 66 3d 7d c4 a3 3c 13 ff ce 3c
       0.059351504 0.056328032 0.019991154 0.025268113
000230 6e 96 3f 3d 9a 50 af bc ce 09 e9 3b 45 4a 3a 3b
       0.04677432 -0.021400739 0.0071117645 0.0028425616
000240 70 61 1a bd bb 7f a7 bb 53 99 56 3e e6 4f fe 3d
       -0.03769058 -0.005111662 0.20956926 0.12417583
000250 a5 1e 89 ba 7c 7f 8f 3b 09 de 5f 3d 5f 30 a8 bb
       -0.0010461403 0.004379211 0.05465511 -0.0051327194
000260 55 f8 23 be 7c af 5f 3e 88 d7 a5 3d e0 0d d8 3d
       -0.160127 0.21844286 0.0809775 0.105495214
000270 da 10 67 3d 0b f5 d8 bc 3a 8a d4 3c 20 8c 19 3d
       0.056412555 -0.026484033 0.025944818 0.03748715
000280 e3 11 2b bb ad 8d 06 bb 8d 7e 06 39 d3 92 d2 b9
       -0.002610319 -0.0020531223 0.0001282638 -0.00040163714
000290 c4 3d f8 3a 79 6b d7 39 af a2 19 3a 57 06 ae ba
       0.0018939306 0.0004108807 0.00058607286 -0.0013277036
0002a0 a6 4b 91 ba 9b 47 be 3a 00 4c 39 3b fc d5 84 3c
       -0.0011085167 0.001451719 0.002827406 0.016215317
0002b0 0f bd a5 bb 5a 47 51 3a 09 bc e1 3a 40 dd a3 bb
       -0.005057938 0.00079833495 0.0017222177 -0.0050007403
0002c0 96 95 58 bc 59 cc 25 3c 5f c2 f0 b9 d6 30 a1 3c
       -0.013219258 0.010119521 -0.00045921185 0.019676607
0002d0 73 be 0a ba f7 e5 2a ba 84 0f 57 3b 96 4f 95 b8
       -0.00052926614 -0.0006519253 0.0032815645 -7.119698e-05
0002e0 c4 24 fd 39 d1 e4 4b bb cd ba 2d bb 4b 32 83 3b
       0.00048283313 -0.0031111727 -0.0026509047 0.004003798
0002f0 80 7b a1 3c 85 5b c6 3a 1b b5 b8 ba d4 a8 d8 b8
       0.01971221 0.0015133476 -0.001409206 -0.00010331129
000300 2d 15 42 bc a0 58 19 3b 22 fd 69 b9 a1 81 09 38
       -0.011845869 0.0023398772 -0.00022314911 3.278407e-05
000310 cc 65 50 3c 97 e8 6e ba 94 fc d9 3a 72 00 7e bc
       0.012719583 -0.0009113638 0.001663106 -0.015503036
000320 5e 77 4c 3b 93 ff 6f 3a ba 0d 18 bc 48 d1 67 3c
       0.0031199078 0.000915521 -0.009280616 0.014149018
000330 d5 04 3b 3c 4b cc 63 bb 5e a1 dc b9 18 f6 fd 3a
       0.011414726 -0.003475922 -0.00042081898 0.001937571
000340 93 81 67 bc c4 15 a8 3b 71 e4 c3 3a 5a 0f 9e 3c
       -0.014130014 0.005129548 0.00149454 0.01929443
000350 13 46 56 39 b2 35 77 3a c0 ca 17 3c 91 a0 5c 3a
       0.00020434735 0.00094303035 0.009264648 0.000841626
000360 b2 b9 13 bb df fb 0f ba 54 26 5c 3c 56 c7 20 3c
       -0.0022541103 -0.0005492549 0.0134368725 0.00981315
000370 19 aa a2 3c fa f1 9c 3a 24 48 36 bb 85 45 09 bb
       0.0198565 0.001197397 -0.0027813995 -0.0020945978
000380 24 05 14 3d 24 89 b6 3c 05 1e 56 39 fa ea ae ba
       0.036137715 0.02228219 0.00020419814 -0.0013345175
000390 f2 e0 ff 3c 1e f1 be b9 3d 77 20 b9 18 ad ff bb
       0.031235192 -0.0003641927 -0.00015303209 -0.007802617
0003a0 b8 e7 97 3c ef 98 ff 3a 1a e1 16 3d 56 37 8d bd
       0.01854311 0.0019500534 0.036835767 -0.0689532
0003b0 f5 b1 a0 bc 47 6e 2a 3c b3 dd 96 bb 38 c6 28 3c
       -0.019616107 0.010402269 -0.0046040653 0.010301165
0003c0 ee 2e 69 3c dc d6 e3 bc ff 41 68 3c 91 63 5f bd
       0.01423238 -0.027812414 0.014175891 -0.054538313
0003d0 76 ca 7d b9 f7 63 88 39 32 e2 e9 bc 52 b3 e8 3a
       -0.00024203383 0.0002601442 -0.028550241 0.0017753637
0003e0 d9 7e 27 bb 43 71 6d 3d f0 9c 01 bd 7b 8a 10 bc
       -0.0025557785 0.057969343 -0.031643808 -0.008822079
0003f0 25 81 9b bd ec 2d 14 bc 2c 67 5a bc fc dc 24 bc
       -0.07592992 -0.009044152 -0.013330262 -0.010062452

lstm.bias_ih_l0 f4 [128]
000000 e1 fb 6b 3c c4 fd f2 3c c9 7e af bc a1 c1 a0 bc
       0.014403314 0.02966202 -0.02142276 -0.01962358
000010 cf 5a 15 bd b1 5e d6 bc 4e f3 82 bc bc 79 a8 3d
       -0.036463555 -0.0261682 -0.015985157 0.08226344
000020 16 93 8b 3d bc b5 8b 3d d6 8a 9a 3d a0 42 9e 3d
       0.06815164 0.068217725 0.07546012 0.077275515
000030 0c 2b b3 3d 31 90 09 be d2 1c c8 3a 98 99 96 3d
       0.08748445 -0.13433911 0.0015267378 0.073535144
000040 bd 40 ad 3d 94 45 0b bc 41 6f fe 3a bc 22 60 bc
       0.084596135 -0.008500475 0.0019411818 -0.013680156
000050 74 ca dd bc 55 ea ce bc 8f 80 62 3d 34 49 d0 bc
       -0.027074076 -0.025258223 0.055298384 -0.025425531
000060 21 32 ca bc 39 90 7e 3c 1e 1f c1 3d e9 62 58 3d
       -0.024682106 0.015537315 0.09429763 0.052828703
000070 68 1e f5 3c a3 b8 92 3d 49 78 79 3d df db b9 bd
       0.029921725 0.07164123 0.06090573 -0.0907514
000080 b3 f8 f1 bc 91 55 71 3d 18 93 29 bc 03 bc 6c bc
       -0.029537534 0.058919493 -0.010350011 -0.014449122
000090 b2 19 2b 3e 91 71 5b bc dd 39 2c bc 5d fa c0 3b
       0.1670902 -0.013393776 -0.010511843 0.0058892206
0000a0 ee 35 fb 3d 63 77 04 3d f2 6c f6 3d 0d 8e af 3d
       0.12266146 0.03234042 0.120324984 0.08572016
0000b0 d0 c3 4e 3e 3b c6 9f bd 48 b6 5e bb 79 ad eb 3d
       0.20191884 -0.07801481 -0.003398316 0.11507697
0000c0 b8 ec 25 3e 7c f7 e1 3c 38 52 e2 bd 5d a2 ab 3d
       0.16203582 0.02758383 -0.11050838 0.08380578
0000d0 6b 0f 77 bc 10 00 4d bc 3c fe ef 3a 35 c5 45 bc
       -0.0150793595 -0.012512222 0.0018310021 -0.012070944
0000e0 b7 ba 0c bc 5d 88 47 3c d0 db f3 3d 46 79 66 bd
       -0.008589438 0.012178508 0.1190716 -0.056268
0000f0 5d 8a 55 3d d5 78 6e 3c ff 07 c1 3d 3b 99 43 3d
       0.052133907 0.014555176 0.09425353 0.047753554
000100 e3 2a a5 3c 29 ab 40 3d 29 43 73 3a c3 37 88 bb
       0.020162052 0.04703823 0.0009279722 -0.004157038
000110 ff ca 46 3d db af ed ba ac c6 f1 bc a6 cf 86 bd
       0.048533436 -0.0018134074 -0.02951368 -0.065825745
000120 19 ec 2b 3d 14 1e 0d bd 8c 07 81 3d fb a8 50 3d
       0.041973207 -0.034452513 0.063002676 0.050942402
000130 2d 83 5e bc af e3 8a 3d 01 6a 62 bd b4 80 c1 3c
       -0.013581079 0.067817084 -0.055276874 0.02362094
000140 3c 9c 0a be 53 ea 80 3d 3d 3f 35 3e 54 ec 15 3e
       -0.13536161 0.06294694 0.17699905 0.14640933
000150 11 fa 32 bd 80 70 5c 3d 5f 80 22 3e 6c 02 7c bb
       -0.043695513 0.053818226 0.15869282 -0.0038453592
000160 e2 35 34 3e 27 e5 0b 3e c3 f9 0d bd 33 a1 d0 bd
       0.1759868 0.13661633 -0.03466202 -0.10186996
000170 0b 36 ec 3d b3 bb db 3c 97 fc 12 be a2 d8 e7 3d
       0.115337454 0.0268229 -0.14354168 0.11320616
000180 38 dc 4a ba d9 fc 97 3d 3e 7d d1 bc 91 7f 34 bd
       -0.00077385036 0.07421274 -0.025572415 -0.04406697
000190 ad 4e 84 bc 9d 63 fd bc f9 95 7a bc c5 6b 00 bc
       -0.016150797 -0.030931288 -0.015294545 -0.007838194
0001a0 6d ba d0 3d 52 28 e4 3d 90 91 9f 3d 0d 30 c6 3d
       0.10191808 0.11140503 0.07791436 0.09677134
0001b0 93 0f c3 3d 8c d4 4c 3c 04 76 41 bd 02 34 7a 3d
       0.09524455 0.012501847 -0.04723169 0.061084755
0001c0 8e bd 16 3e 4e 1b b3 3c 65 e3 30 3e b8 7b b5 3d
       0.14720747 0.021863606 0.17274244 0.08861488
0001d0 9b 26 ce bc c3 b9 ef bc 02 1c 56 3e 6e bf d9 bc
       -0.025164893 -0.029263383 0.20909122 -0.026580539
0001e0 3f de b4 bd 14 a0 bc 3d 16 24 d1 3d 39 99 cc bd
       -0.088314526 0.0921022 0.10211961 -0.099901624
0001f0 56 0b 1b 3d 51 1d 9f 3d fe 08 00 3e bb 26 89 bd
       0.037852608 0.077692635 0.1250343 -0.066968404

lstm.bias_hh_l0 f4 [128]
000000 24 c3 0c 3d 83 fd f2 3c cb 7e af bc a8 3a a1 bc
       0.034365788 0.0296619 -0.021422764 -0.01968129
000010 19 00 ad 3c 9b 5e d6 bc fe ec 82 bc 84 2c a8 3d
       0.02111821 -0.026168158 -0.015982147 0.08211616
000020 99 b7 8b 3d 4e 38 a9 3c fc 46 99 3d 2b 06 9f 3d
       0.06822128 0.020656731 0.07484242 0.07764848
000030 46 b8 44 3e 61 28 10 be de 49 0f 3b 52 19 ac 3d
       0.1921092 -0.14077903 0.0021864097 0.08403267
000040 2f 22 15 3e e8 f2 cc 3d 38 c4 3c be d7 d0 76 3c
       0.14563821 0.10007268 -0.18434227 0.01506444
000050 dc cc dd bc c9 f2 ce bc b3 d5 dc 3c 38 49 d0 bc
       -0.027075224 -0.025262253 0.026957368 -0.025425538
000060 2f af 73 bc fc 03 71 3c 0e 92 c2 3d 8f ca 4c 3d
       -0.01487331 0.014710423 0.09500514 0.049997862
000070 0a 26 1d bd 7d f1 8b 3d 48 59 a1 3d 06 8e 89 bd
       -0.038366355 0.068331696 0.07878357 -0.06716542
000080 01 b3 3a bd 5b 57 71 3d f5 92 29 bc 98 d5 6c bc
       -0.045580868 0.0589212 -0.010349979 -0.014455222
000090 97 6e 72 3d b8 71 5b bc 7d f1 2c bc 17 45 12 3c
       0.059187498 -0.013393812 -0.010555622 0.008927605
0000a0 20 b6 f8 3d 30 64 6a 3d 10 af a0 3d 4c 7a 3e 3c
       0.121441126 0.057224452 0.078458905 0.011625838
0000b0 4a 3a ff 3d dd 21 ca bd ca 3e 6b bb 38 5a e3 3d
       0.1246229 -0.0986974 -0.003589558 0.11101192
0000c0 e0 4a c6 3d ad 39 ed 3c 41 d4 8f bd 25 51 c5 3d
       0.0968225 0.028958166 -0.07022906 0.09634618
0000d0 77 92 76 bc d0 46 47 bc 07 52 31 bb 49 c5 45 bc
       -0.015049568 -0.012162879 -0.0027056949 -0.012070962
0000e0 32 fc 3b 3d 9e 0c 90 3d b0 99 e1 3d 1c ce 9a 3d
       0.04589481 0.070336565 0.11015642 0.075588435
0000f0 28 3b 39 bd 53 15 0b 3d d0 08 14 3e 9b 7c 48 3d
       -0.04522243 0.033955883 0.14456487 0.048946958
000100 a4 84 45 3d 2b a0 40 3d 5d ff 79 3a cb 85 8a 3c
       0.0482222 0.047027748 0.0009536648 0.0169095
000110 24 8a 09 3e 0f b2 ed ba de 22 44 3c 6e 53 a9 3d
       0.13431603 -0.0018134731 0.011971204 0.08267866
000120 19 bd 35 3d 0d b6 ef bc 6f 7d 83 3d 5f 5f b8 bd
       0.04436979 -0.029261613 0.06420409 -0.090025656
000130 68 84 f3 3d b0 9c cf bb 5a 83 8e bd 87 fb af 3c
       0.11890489 -0.0063358173 -0.06958647 0.021482242
000140 13 37 10 be 7f 63 66 3d 24 30 06 3d 55 b3 f3 bc
       -0.14083509 0.05624723 0.032760754 -0.029748598
000150 9b c1 68 bc a8 0a 54 3d 78 9a 68 3d a4 00 7c bb
       -0.014206315 0.051767975 0.056787938 -0.003845253
000160 b8 20 05 3e 78 84 2b bd ef 82 ea 3c 74 db 16 3e
       0.13000762 -0.04187438 0.028626887 0.14732152
000170 0f c7 22 bc b1 a4 c9 bd fe ac de bb 18 3f 3e 3e
       -0.009935155 -0.098458655 -0.0067955246 0.18578756
000180 14 65 a2 3a 2d ec bd 3d fa 7c d1 bc 39 fc 34 bd
       0.0012389743 0.092735626 -0.025572289 -0.04418585
000190 05 aa 64 3d b5 63 fd bc 10 ba e4 bc 0e 58 25 3d
       0.055826206 -0.030931333 -0.027920753 0.04036718
0001a0 f0 93 05 3e d7 1e ea 3d 4e 71 81 3d be 8b c0 3d
       0.13044715 0.114316635 0.06320439 0.09401654
0001b0 15 23 d2 3d 14 66 02 3e ef 1f 85 bc e3 bd ee 3d
       0.102605976 0.12734252 -0.016250579 0.11657312
0001c0 5e 32 25 3e d1 b4 4f 3d 5a 88 92 3d 48 7a 1a 3e
       0.16132495 0.05070955 0.07154913 0.15085709
0001d0 53 c2 fa bc dc 73 af bc 1f ed 93 3d 92 bf d9 bc
       -0.03061024 -0.02141755 0.07222962 -0.026580606
0001e0 49 ff ae bd cb 89 c8 3d cc a3 ec 3d d3 59 d4 3c
       -0.085447855 0.09791907 0.11554679 0.025921738
0001f0 ee 1d 9d 3d 80 d9 a1 3d e3 3a 0d 3e a6 ef ab bc
       0.07671724 0.07902813 0.13791995 -0.020988297

lstm.weight_ih_l1 f4 [128, 32]
000000 51 7d e3 bb 92 a2 ee 3a c8 ff f4 b8 48 27 92 b9
       -0.006942429 0.0018206409 -0.000116824696 -0.00027876557
000010 8c 0c 08 3c 8b e5 71 39 16 4c a1 b7 4a 88 3b b6
       0.008303773 0.00023069062 -1.9228126e-05 -2.7944502e-06
000020 4c c7 98 39 9e dc c2 3a 7d cb 12 bc 8a 41 dd 3b
       0.00029140187 0.0014866774 -0.008959648 0.0067521976
000030 12 6c ed ba ec cc fa ba e5 42 13 ba 81 9a 9c b9
       -0.0018113873 -0.0019134558 -0.0005617573 -0.00029869753
000040 4b b8 e7 bb ef f3 42 3b 5d 0d 25 3b 86 c2 cf 3b
       -0.00707153 0.0029747447 0.0025184967 0.0063403277
000050 9d 20 8f 39 e5 a6 a3 b9 b4 08 8c 3b 36 97 f3 37
       0.00027299384 -0.0003121413 0.0042734984 2.903827e-05
000060 f0 22 13 bb a8 04 a9 bb cf 34 81 39 f4 04 ae 3b
       -0.0022451244 -0.005158026 0.00024644143 0.005310649
000070 46 d8 28 3c 05 9c f8 ba 01 81 48 ba 9c eb e4 b9
       0.01030547 -0.0018967396 -0.00076486176 -0.00043663091
000080 d6 56 92 bc da 1d 2e ba 19 c3 3d 3a 13 4c 0a 39
       -0.017863672 -0.00066420215 0.00072388496 0.00013189045
000090 14 0d 7d 3c 7e 6e aa 3a c5 61 9c 39 db 93 3d bb
       0.015445013 0.00130029 0.00029827483 -0.002892724
0000a0 7a ad ba b9 ec 15 54 b8 72 dd 9f bc 82 50 86 3c
       -0.00035605935 -5.0565155e-05 -0.019514773 0.016395811
0000b0 0d db d1 bb bc c7 5f bb 5e 48 2e 3a 2e 96 c3 3b
       -0.0064042867 -0.003414615 0.0006648357 0.0059688305
0000c0 30 ba 67 bc ad 8b 13 3c 88 83 d5 3b cd ad 8d 3c
       -0.014143512 0.009005469 0.006515924 0.017294789
0000d0 ea bb ae b9 ac 74 6c b9 7c 64 3e 3c d0 c7 d9 3a
       -0.00033327873 -0.00022550178 0.011620637 0.0016615335
0000e0 a8 9c 10 bb 21 2a 08 bc c3 0a 06 3b 16 d8 7c 3c
       -0.002206603 -0.008310826 0.0020453192 0.015432378
0000f0 3f 5e bb 3c da 68 0a bc 84 9c a8 3a ce 8f b9 ba
       0.022872088 -0.00844785 0.0012864028 -0.0014157237
000100 dd 28 47 bc 07 d0 de 3a 01 9b c2 b9 76 cb 06 b9
       -0.012155739 0.0016999253 -0.0003711805 -0.00012855031
000110 3b 55 df bb 95 90 7c ba e0 0e f5 b9 0b f9 58 bb
       -0.00681558 -0.00096345815 -0.00046741124 -0.0033107426
000120 21 ff c6 39 a4 f5 3b ba 30 c3 1a 3b 2f 0f 05 bb
       0.0003795559 -0.0007170087 0.0023614876 -0.002030324
000130 42 c4 41 3b 1a 58 c1 ba 95 c9 56 b9 19 0f 68 3b
       0.0029566442 -0.0014750988 -0.00020483726 0.003540939
000140 d9 80 8c bc 25 8f 38 bb d8 d3 86 3c 2c 1f 99 ba
       -0.017151283 -0.0028161493 0.016458437 -0.0011682264
000150 6c 88 89 b9 69 ab 68 39 08 2b fc 3b 22 f1 a1 b9
       -0.00026232318 0.000221891 0.0076955594 -0.0003088797
000160 81 f6 2e 3b f2 fe cf 3a b6 94 72 bc 33 b2 e7 39
       0.002669722 0.0015868826 -0.014805963 0.00044192522
000170 1b da c7 ba e2 05 36 bc f6 e7 2e 3c 6c 95 70 bc
       -0.0015247496 -0.011109801 0.010675421 -0.014684062
000180 af a7 e1 ba 91 e4 6f 39 a5 c1 09 38 5c 9c fc b7
       -0.0017216111 0.00022877964 3.284369e-05 -3.0113551e-05
000190 48 e0 87 3b 2c 3e 99 38 8d ad 3e 36 e1 b5 c4 b9
       0.0041466095 7.307189e-05 2.8413226e-06 -0.00037519544
0001a0 ec e1 7d 37 f7 dd 97 b9 89 e5 3a bb 88 e8 17 3b
       1.5132577e-05 -0.0002896634 -0.0028518161 0.002317937
0001b0 1d 2d 07 3a 01 61 8a b8 b7 42 86 37 02 71 93 ba
       0.0005156564 -6.598421e-05 1.6005111e-05 -0.0011248889
0001c0 0f f0 4e bb f0 36 94 3a e1 95 e4 3a 4b 86 5f 3b
       -0.0031576192 0.0011307877 0.0017439687 0.0034107144
0001d0 9f ef 06 b8 46 70 8a 38 6f 09 9f 3a 59 ce 74 37
       -3.2171254e-05 6.601265e-05 0.0012133549 1.4591577e-05
0001e0 f8 c9 2e ba d8 22 92 ba 84 ee 31 3a 6d 16 8a 3a
       -0.0006667669 -0.00111493 0.0006787556 0.0010535248
0001f0 b2 7e 82 3b bc 4d 21 37 87 70 15 39 f8 16 4f b8
       0.0039823884 9.614447e-06 0.00014251667 -4.9374037e-05
000200 2f 97 06 bd fe ad e3 3c e3 d3 53 37 e5 bd 3a 39
       -0.032859024 0.027792927 1.2625914e-05 0.00017809084
000210 ac 87 60 bd b6 e5 4d ba 35 56 db ba fa 87 84 bc
       -0.054816887 -0.0007854359 -0.0016734066 -0.01617812
000220 42 e0 e1 3b ba fb 9c bc 76 89 36 3c ff 96 2f bd
       0.0068931887 -0.019163001 0.011141172 -0.04286861
000230 99 c0 58 3c de 6c 85 bc dd 69 07 bb dc 41 3b 3c
       0.013229513 -0.016287263 -0.0020662465 0.011429276
000240 74 d1 00 bd d5 b6 ac bc 4e 81 3d 3d 8b 22 d9 bc
       -0.03144975 -0.021083275 0.046265893 -0.02650573
000250 1a bd c4 ba 9f 77 46 bb 78 e7 ae 3c 08 e7 a1 3a
       -0.001500997 -0.0030283702 0.021350607 0.0012352178
000260 3d 98 5e 3c 10 c8 ff 3c a6 9a 8d bd 7e 57 0f bc
       0.013586101 0.031223327 -0.069142625 -0.008748887
000270 ee 04 fc bc 24 36 26 bd df e9 7d 3d e7 02 48 bd
       -0.03076407 -0.040578976 0.061990615 -0.048830893
000280 e3 c2 c1 bc 3a 8a 5e 3d 10 b9 d2 ba d6 4c 19 3a
       -0.0236525 0.054331042 -0.0016076881 0.0005847936
000290 f3 33 c9 bd 87 1c 54 ba b9 2e 36 ba 97 b3 6d bd
       -0.09824362 -0.0008091409 -0.0006949711 -0.0580326
0002a0 87 32 9b 3b 45 ca 8c bd 2a 71 93 bc 79 0c a3 bd
       0.004736248 -0.06874517 -0.017998297 -0.07961363
0002b0 f7 41 fe 3c e9 f0 06 3d 1b 2d cf bb a1 26 81 bd
       0.031037314 0.032944594 -0.0063225157 -0.06306196
0002c0 5d b0 16 3d fc 4b 97 bd 99 a7 d3 3c e0 13 c1 bd
       0.036789287 -0.0738754 0.025836753 -0.09427619
0002d0 11 f7 6d ba 68 9d 89 39 75 9c dd bc 9c fc 43 3b
       -0.0009077648 0.00026247953 -0.027052144 0.0029905206
0002e0 ee c2 60 3c 4f cd 01 3d b7 91 09 be ec 96 94 bd
       0.01371835 0.03168994 -0.13434492 -0.072553486
0002f0 b5 a5 bc bd dd 1b 88 3c 7a 89 f6 3c 85 0a bd bc
       -0.092112936 0.016614849 0.03009485 -0.023076305
000300 1e 1b 31 bc 2d 3f b6 ba db 08 be 39 40 3d 75 b9
       -0.010809688 -0.0013904326 0.00036246222 -0.00023387838
000310 65 9e 11 3c 8a 16 14 39 a7 2b a3 39 33 3a 50 ba
       0.008887862 0.00014122776 0.00031122306 -0.00079432427
000320 a7 79 af b9 6a 3a fd 38 62 0e 3b bc 40 15 1f 3c
       -0.0003346924 0.000120748606 -0.011417003 0.009709656
000330 4d fe 59 bb fe cf 53 bb 32 9b d3 39 8d 7b 59 3b
       -0.0033263147 -0.0032320018 0.00040360686 0.0033185214
000340 85 68 09 bc 68 f5 a1 3b 54 4b a0 3b d4 35 37 3c
       -0.008386736 0.004942585 0.0048917923 0.011182267
000350 e3 b2 5f b9 3e c3 97 b9 73 47 e4 3b ed 3a 2b 3a
       -0.00021333578 -0.0002894643 0.006966525 0.0006531913
000360 8c d5 a1 ba 83 34 7b bb a3 1e 14 3a a0 a5 18 3c
       -0.0012346967 -0.003833086 0.0005650317 0.009316832
000370 5e 37 64 3c 5a 7d 8e bb c9 c3 8b 3a 6c 13 60 bb
       0.013929216 -0.004348439 0.0010663207 -0.0034191264
000380 88 36 e4 bd 14 33 5a 3b 30 9b 63 bb 77 6f 5b 3c
       -0.111432135 0.0033294605 -0.003472995 0.0133932745
000390 78 7d b2 3d 4b 16 8a bc 62 9f 49 bc f1 41 09 bb
       0.087153375 -0.016856333 -0.012306066 -0.0020943845
0003a0 53 a0 b3 bc 03 c7 25 bd 13 50 3f 3d a7 43 7d bd
       -0.021927034 -0.040472995 0.046707224 -0.061832096
0003b0 b8 ec 1d 3e 2a 40 17 3c 5d 4c 3c 3c 53 ad ce 3d
       0.15422332 0.0092316065 0.011492816 0.10091653
0003c0 83 25 89 bc d3 01 99 3d 15 8e 36 3d 20 92 5e 3d
       -0.01674152 0.07471051 0.044569094 0.054338574
0003d0 3a af 38 3b 58 fb 08 3c ea 79 97 3d 3a c0 43 3a
       0.0028180615 0.008360706 0.073963 0.00074673037
0003e0 65 fc 1a bd e6 ed 1f 3d 80 37 81 3d 1e b9 07 3e
       -0.03783836 0.039045237 0.06309414 0.1325421
0003f0 f1 c7 d9 3d 7e 8c 8d bd 9a 6d 95 bd 73 31 15 be
       0.10633839 -0.069115624 -0.072962955 -0.14569645

lstm.weight_hh_l1 f4 [128, 32]
000000 04 6a 68 b9 4e dc 96 39 21 43 44 b9 47 2c d0 b7
       -0.00022164738 0.0002877437 -0.00018717024 -2.481615e-05
000010 bb b0 1b ba 86 1a 86 3a 37 49 08 39 fd 00 3a b9
       -0.00059391157 0.0010231293 0.00012997245 -0.0001773871
000020 2c bc 05 b9 6a ef 49 ba 8f 92 32 3a fe 3c a3 b7
       -0.00012753968 -0.0007703217 0.0006812 -1.9459516e-05
000030 f5 2c 49 b9 54 0f ea b8 fe 7f 7b ba b9 44 27 39
       -0.00019185602 -0.000111608446 -0.00095939625 0.00015951962
000040 b4 86 4a b9 ac 92 cd 38 57 0d 31 ba e4 26 ee b5
       -0.00019314402 9.8024815e-05 -0.0006754002 -1.77437e-06
000050 d5 f5 d2 39 7c 68 67 39 45 b3 a7 38 16 5a 75 39
       0.0004023748 0.000220688 7.996572e-05 0.0002339858
000060 52 96 4d 3a df 1b fe b9 3a e2 a1 ba 48 14 51 b6
       0.0007842529 -0.0004846742 -0.0012350746 -3.1155232e-06
000070 12 14 ab 38 66 0f 80 38 ab 0d de b8 e7 3a 70 ba
       8.157654e-05 6.106384e-05 -0.00010588331 -0.00091640506
000080 9f 56 27 39 40 61 cd ba 0f ee 13 bb f4 d6 f7 b8
       0.0001595863 -0.0015669242 -0.0022572314 -0.00011817916
000090 21 c5 8e ba 25 e6 de 3b df 84 88 ba e6 03 b5 bb
       -0.0010892489 0.0068023377 -0.0010415575 -0.0055241464
0000a0 de 76 1e 38 a4 c1 6e 3a 33 5f 45 3a 02 3d b7 ba
       3.778084e-05 0.0009107834 0.00075291394 -0.0013979974
0000b0 4e 50 f1 ba 0b 16 c9 3a 55 67 e4 ba 6c b8 d4 ba
       -0.0018410773 0.0015341652 -0.0017425815 -0.0016229278
0000c0 05 c7 c0 ba 43 c0 ca 39 6c 53 22 bb 95 f2 21 37
       -0.001470775 0.00038671689 -0.0024768962 9.652828e-06
0000d0 0a 35 3d ba 75 23 8e 39 86 1b 88 39 b0 f4 a1 b9
       -0.0007217681 0.00027110768 0.00025960448 -0.0003089062
0000e0 27 53 95 3a b9 a5 f2 ba 93 58 6b ba 56 23 ea 38
       0.0011392579 -0.0018512524 -0.0008977737 0.00011164571
0000f0 59 d8 7d 39 4e b2 5a 39 49 44 9e ba c7 b3 b7 ba
       0.00024208556 0.00020856524 -0.0012074794 -0.001401537
000100 a6 63 e8 39 cb 93 4a 39 21 fb 0d 3a 39 80 b1 39
       0.00044324732 0.00019319278 0.0005416144 0.00033855604
000110 92 c3 1f bb 7d d5 88 3b a0 ec 35 b9 8d 18 c6 bb
       -0.0024378044 0.0041758404 -0.00017349655 -0.006045407
000120 ee 21 26 b9 63 95 12 ba f4 78 82 39 70 b2 95 3a
       -0.00015843633 -0.00055917184 0.0002488565 0.0011420976
000130 40 5e 96 3a 13 90 30 ba a2 4b 9e 3a 18 2a 45 b7
       0.001147218 -0.0006735336 0.0012076984 -1.1751916e-05
000140 30 6a 91 b8 08 46 89 ba 4b ef 6c ba 1e 08 1f bb
       -6.933918e-05 -0.0010473141 -0.0009038343 -0.0024266313
000150 86 a0 dc ba 83 8c fa b9 90 40 15 b9 b0 ae 63 ba
       -0.0016832508 -0.00047788405 -0.00014233799 -0.0008685393
000160 5b c3 a3 bb 10 3e cf ba 77 64 87 ba 5d 28 ee 39
       -0.0049976534 -0.0015811343 -0.0010329623 0.0004542497
000170 e3 4f cc b9 57 92 45 3b 52 8b b5 ba ca 8e 40 38
       -0.00038969432 0.003014704 -0.0013850725 4.590935e-05
000180 b0 0f 5c 37 64 6f c3 37 77 ef a2 b8 4f a8 46 b7
       1.3116674e-05 2.3297682e-05 -7.769366e-05 -1.1840907e-05
000190 45 84 2d b9 92 16 c6 39 36 5a ee b7 7b bf 31 ba
       -0.0001654784 0.0003778232 -2.8413819e-05 -0.0006780547
0001a0 f8 0e 1a 38 58 55 35 39 63 fe 2d 37 b9 a6 01 37
       3.6730402e-05 0.00017293298 1.0370833e-05 7.727817e-06
0001b0 ac 01 7c 38 68 97 ba 37 3f cf 48 b9 6b 79 45 b7
       6.008304e-05 2.2243432e-05 -0.00019150692 -1.1770385e-05
0001c0 54 e4 ce b8 78 7a 6d 38 2a 34 8b b9 5b 27 2c 39
       -9.865375e-05 5.661926e-05 -0.0002655101 0.0001641786
0001d0 e8 2b 6c 39 05 7e 97 b8 63 0b 1d 38 db e2 88 b8
       0.0002252307 -7.223714e-05 3.744232e-05 -6.5272405e-05
0001e0 db 4c 69 b9 48 5a 53 b9 70 19 15 b9 06 82 99 b7
       -0.00022249242 -0.0002015616 -0.00014219224 -1.8299568e-05
0001f0 02 f3 66 38 1e bc 58 39 47 7a 7e b9 b8 ab ed b8
       5.5062592e-05 0.00020669444 -0.0002426888 -0.00011333026
000200 69 d6 8a ba 52 4d bf 3a f2 98 a5 bb 94 33 3d 3b
       -0.0010592464 0.0014595187 -0.005053633 0.0028869854
000210 3b 00 a3 bc c5 0c f1 3c 98 27 d3 3a 6a b4 ba bc
       -0.01989757 0.029425034 0.0016109822 -0.022791106
000220 8a 16 11 bb e3 10 12 bb 31 e4 3c 3c 61 66 c5 b8
       -0.0022138678 -0.0022287897 0.011529014 -9.4127616e-05
000230 2f 62 9d b9 7a ea 6c ba 64 59 2b bc b0 c5 cb 3a
       -0.00030018526 -0.0009037625 -0.010458324 0.0015546586
000240 d6 98 a1 ba 55 97 34 b6 4a e3 30 bb 7e 18 23 3c
       -0.0012328874 -2.6910177e-06 -0.0026990944 0.00995457
000250 fd cb c8 3b eb 11 06 bb d4 f6 dd 39 a1 41 60 3b
       0.006127833 -0.0020457457 0.00042336306 0.0034218805
000260 2d b8 b9 bc fa 5d 6e ba 60 9f a1 bc e7 7f e1 b9
       -0.02267083 -0.0009092983 -0.019729316 -0.0004301064
000270 54 b4 2c 3a 54 ac 72 3c ca 83 d1 bb db 65 0f bc
       0.000658815 0.014811594 -0.0063938843 -0.008752312
000280 c7 00 e4 bb 1d b2 2a 3c 04 6f 2e bc 14 02 d9 3b
       -0.0069581005 0.010418442 -0.010646585 0.006622562
000290 93 50 f1 bc 90 3c 16 3d 15 91 06 3c a0 00 60 bd
       -0.029457366 0.03667885 0.008213301 -0.054688096
0002a0 95 c4 b5 bb aa ad 9e 3b 0c d8 88 3c 3d 9c a1 ba
       -0.005547116 0.0048424797 0.016704582 -0.0012329888
0002b0 21 54 a3 bb 05 5e f8 bb 25 dc 5c bc f2 57 15 3c
       -0.004984394 -0.0075795674 -0.013480221 0.009115206
0002c0 fc 9f c5 3b d9 c9 0d 3b a0 64 fc ba a8 2a a4 3c
       0.0060310345 0.0021635203 -0.0019256063 0.020039871
0002d0 17 97 d1 3b 09 93 7a 38 67 84 03 3b a2 25 17 3c
       0.006396185 5.9741582e-05 0.0020067932 0.009225281
0002e0 2a 62 22 bd 8d 84 5f 3c 77 2a f1 bc d2 87 c2 ba
       -0.039644398 0.013642442 -0.029439194 -0.0014841503
0002f0 e5 81 0e 3b 79 a1 d8 3c 93 7a 7c bc d0 b5 0a bc
       0.0021744904 0.026444184 -0.015410083 -0.008466199
000300 20 4f 90 39 3c 07 67 b9 fe e5 e6 38 3a b5 35 38
       0.00027524773 -0.00022032572 0.00011010094 4.3322543e-05
000310 73 a6 b6 b9 a1 81 9b 3b 11 93 6e 39 32 bb 52 bb
       -0.0003483776 0.0047456776 0.00022752235 -0.0032155034
000320 5a 1a cb 38 c4 7c a3 3a 46 67 61 b8 16 6d 43 39
       9.684703e-05 0.0012473096 -5.374036e-05 0.00018637287
000330 f1 0c c0 37 1b b4 f4 39 c7 9b 62 39 1e 1b 55 b9
       2.289421e-05 0.00046673496 0.00021611071 -0.00020323365
000340 ae 44 83 39 91 55 97 39 83 1a d0 b9 55 fb 46 39
       0.00025037437 0.00028864716 -0.00039692604 0.0001897638
000350 5a 0b a0 b9 b2 5f cc b8 fa 10 3f 39 f3 cb 8f 39
       -0.00030526036 -9.745303e-05 0.00018221504 0.0002742704
000360 9e ea 09 3a 83 db f2 38 b2 e3 60 3a d8 e7 64 b9
       0.0005261096 0.000115803465 0.0008578851 -0.00021830143
000370 3c 9e 4e 39 2f e6 99 b9 2c 89 34 b9 f5 74 d6 37
       0.00019704638 -0.00029353934 -0.00017217238 2.556525e-05
000380 2d e8 5e 3b 32 3a 54 3a 72 0e 00 bc 19 3a ff bb
       0.00340129 0.000809583 -0.007815944 -0.007788908
000390 28 a1 82 bd eb 88 2e 3d 9c 2c 08 b8 d7 a3 c7 3a
       -0.06378394 0.042611044 -3.2466472e-05 0.0015231323
0003a0 c1 a1 89 3b c7 a2 99 3b 2e 35 f7 3c 06 8f 30 bb
       0.004200191 0.004688594 0.030176725 -0.0026940717
0003b0 f0 33 0f 3b 94 61 c3 bb 83 b1 90 3c 17 5b de 3a
       0.0021851026 -0.00596256 0.01766277 0.0016964403
0003c0 51 5b 99 bc 9a e5 64 bb 3d 63 2c bb d9 1b dc bb
       -0.0187203 -0.0034926892 -0.0026304268 -0.006717187
0003d0 39 e8 94 bb 92 7a 3c 3c 07 4a ad bb 9b bc 75 ba
       -0.0045442847 0.011503832 -0.0052883658 -0.00093741127
0003e0 bc 17 55 3c 0f 22 2a 3b 70 a1 0e bd 40 e0 95 3b
       0.013006147 0.0025960242 -0.034821928 0.004573852
0003f0 c4 9a 7f bb 96 17 c9 3c 99 59 75 bc bb 6e 01 bd
       -0.003900216 0.02454738 -0.014974975 -0.03159974

lstm.bias_ih_l1 f4 [128]
000000 f7 95 07 bc dd 4c a9 bc 4e 84 88 3a 81 a2 79 bb
       -0.0082755005 -0.020666534 0.0010415406 -0.0038091245
000010 36 39 0a 3d bd 01 ef 3d d0 b3 54 bc fa 02 a2 bd
       0.033745967 0.116702534 -0.012982324 -0.07910724
000020 4d e4 c1 ba 11 01 29 3b 46 0f c2 3c ac 14 c7 3a
       -0.001479277 0.002578799 0.023688924 0.0015188656
000030 a1 24 21 3b ae d9 84 bc 89 71 ad 3d e8 a5 91 bc
       0.0024588483 -0.016217079 0.08468921 -0.017779306
000040 30 ee f8 bc 83 c7 9d bb 39 3b 32 bd f0 3e d3 3b
       -0.030387014 -0.0048150434 -0.04351351 0.0064467117
000050 73 bb 14 bd 81 81 05 bc d9 76 2c bb 36 51 1c bc
       -0.036311578 -0.008148552 -0.0026315956 -0.009540847
000060 b1 d9 8a bc 9b b0 d9 3c 5a d5 6c 3c f1 83 62 bb
       -0.016949506 0.02657347 0.014455164 -0.0034563506
000070 1e 26 4d bb 5b b3 0d 3d ef b1 8b bd 7d bf 1c 3d
       -0.0031303237 0.034594875 -0.068210475 0.038268555
000080 1c 71 f6 bb 6a 39 99 bc ed 42 a1 bb fa f9 50 bb
       -0.007520808 -0.018704135 -0.0049213083 -0.003188728
000090 3c 46 b7 3c 16 ee 5b 3d af c4 47 bc 26 88 83 3e
       0.022372358 0.053693853 -0.012192889 0.2568981
0000a0 78 04 8f ba 9d a3 28 3e 97 d7 b0 3b 47 b8 40 ba
       -0.0010911366 0.16468664 0.005396794 -0.0007351678
0000b0 9c 9f e3 3a c8 ad 7a bc c0 22 76 3d e4 de 86 bc
       0.0017366293 -0.015300222 0.060091734 -0.016463704
0000c0 98 e8 c0 3c 48 57 9b bb da d5 c0 3d 27 3a 99 ba
       0.02354841 -0.0047406293 0.09415789 -0.0011690304
0000d0 1e 8b b6 bc c5 0c f4 bb 17 b9 21 bb 64 25 06 bc
       -0.022283133 -0.0074478113 -0.0024676973 -0.008187626
0000e0 18 e5 f0 3d 1b 73 d1 3d f7 3b 84 3c c8 b4 54 bb
       0.11762446 0.10227033 0.016141875 -0.0032456387
0000f0 72 05 47 bb dd da 0b 3e ba ec 11 3e 9b 18 82 3c
       -0.0030368236 0.13657708 0.1425046 0.015880873
000100 4f 6f bb 3b 4b 21 e3 3a 71 58 89 bc 7b 08 85 bb
       0.005720056 0.0017328648 -0.016765805 -0.004059849
000110 9d ec 17 3c bb 65 4c 3c 49 ff e5 3b 03 f9 9b 3c
       0.009272722 0.012475426 0.0070189578 0.019039636
000120 e2 10 6f 3b 57 df 66 3d 94 4a f1 3c 1c 49 a0 bc
       0.0036478569 0.056365337 0.029454507 -0.019566111
000130 10 b3 0a bd 61 bb 8f bb 8c c4 c7 3d e6 83 d8 3a
       -0.033862174 -0.004386351 0.09754285 0.0016518801
000140 c9 18 a0 3d 79 f9 96 bb 68 94 2b 3d a4 87 9c 3c
       0.078172274 -0.004607376 0.041889578 0.019107647
000150 d3 02 56 bb bf 39 5f b9 60 70 3c bb 5a 14 67 bb
       -0.0032655492 -0.0002128845 -0.0028753504 -0.0035259933
000160 61 cc a0 bd 34 93 23 bd 93 f5 76 bd 40 08 28 3b
       -0.07851482 -0.039935306 -0.06029279 0.0025639683
000170 cb 45 47 bb 92 bc f0 3c da 0e 72 3c ec 5e 0e 3d
       -0.003040659 0.029386792 0.014774049 0.034758493
000180 d0 b5 07 bc b4 79 a9 bc a6 41 c3 3a 93 12 7b bb
       -0.008283094 -0.020687915 0.0014896884 -0.0038310632
000190 8c d3 2a 3d d7 94 13 3e 8d a3 53 bc 58 78 a7 3d
       0.041705653 0.14412247 -0.0129174115 0.081772506
0001a0 0b 9a c2 ba bf c7 1c 3d 9e 17 e2 3c c7 a7 bb 3a
       -0.0014846934 0.03827643 0.027599152 0.0014316969
0001b0 46 d4 29 3b 72 cb 84 bc d5 77 fe 3d 3b b7 90 bc
       0.0025913878 -0.016210292 0.124252 -0.017665496
0001c0 a0 02 8b bc 70 cf 9d bb 33 68 99 3b 59 2f 59 3b
       -0.016969025 -0.0048159882 0.004681611 0.0033139794
0001d0 d4 7b 0a bd f3 8e 05 bc a7 19 2e bb 3f a2 1e bc
       -0.033809498 -0.0081517575 -0.0026565583 -0.009682237
0001e0 32 61 94 3d a8 66 65 3d 91 8b d2 3c e9 a2 62 bb
       0.07245101 0.056006104 0.025701316 -0.0034581965
0001f0 a0 fa 4d bb 2e 3b 2e bb 3a 0b 85 bc f2 47 2d 3d
       -0.0031429902 -0.0026585567 -0.016240705 0.04230494

lstm.bias_hh_l1 f4 [128]
000000 c1 95 07 bc ee 4d a9 bc 5f 88 88 3a c6 a1 79 bb
       -0.00827545 -0.020667043 0.0010416618 -0.003809081
000010 42 c9 10 3d 95 62 ee 3d 06 b5 54 bc 52 85 aa bb
       0.035348184 0.11639897 -0.0129826125 -0.0052038813
000020 1f e3 c1 ba 8c 59 d1 ba 09 39 c2 3c 79 f5 c6 3a
       -0.0014792419 -0.0015972122 0.023708837 0.0015179358
000030 7f 25 21 3b 89 d9 84 bc 8c 2d ba 3d af a2 91 bc
       0.0024589 -0.01621701 0.090907186 -0.017777769
000040 03 f3 a8 bc 8d c7 9d bb b8 ba b6 bb 12 32 25 3b
       -0.02062369 -0.004815048 -0.005576458 0.0025206846
000050 29 8c 0f bd 80 81 05 bc 02 75 2c bb e6 7c 1c bc
       -0.035045777 -0.008148551 -0.002631486 -0.0095512625
000060 e1 0f 8b bb 77 f9 e7 3c a4 54 58 3c 2c 82 62 bb
       -0.0042438363 0.028317196 0.013203774 -0.0034562452
000070 e1 26 4d bb b0 49 76 bc ef 4d c2 3c 4c ed 1c 3d
       -0.0031303691 -0.015032217 0.023718802 0.03831224
000080 1a 71 f6 bb 1c 39 99 bc a4 43 a1 bb 03 fd 50 bb
       -0.007520807 -0.01870399 -0.0049213935 -0.0031889088
000090 74 95 a8 3c dc d2 5c 3d 47 c5 47 bc d4 bd 33 3e
       0.020579077 0.05391203 -0.012193031 0.17552882
0000a0 77 03 8f ba 38 6a dd 3d 4b 59 af 3b f6 c7 40 ba
       -0.0010911067 0.10811275 0.0053512207 -0.0007354015
0000b0 34 9e e3 3a c8 ad 7a bc da 3b 0d 3d 82 e2 86 bc
       0.0017365874 -0.015300222 0.034480907 -0.01646543
0000c0 43 c9 6f 3c 49 57 9b bb 85 d7 52 3d d9 72 f4 3b
       0.014635387 -0.00474063 0.051475067 0.00745998
0000d0 ad 9b b8 bc c0 0c f4 bb ab b1 21 bb 16 3c 06 bc
       -0.02253517 -0.007447809 -0.0024672549 -0.008193037
0000e0 e4 0f 53 3e 45 25 d1 3d 11 d5 19 3b 19 b5 54 bb
       0.2061153 0.10212187 0.0023472945 -0.0032456575
0000f0 c9 05 47 bb b1 26 cd 3d 83 a8 16 3e 7f 28 83 3c
       -0.0030368438 0.100171454 0.1471272 0.016010521
000100 ab 4b bb 3b 04 08 d8 3a 4d 46 fb 3c 0f fd 60 bb
       0.0057158074 0.0016481881 0.03067317 -0.0034330522
000110 75 fd 04 bc e6 79 d0 3c 12 00 66 ba f5 fc 40 bd
       -0.0081170695 0.02544875 -0.0008773814 -0.04711624
000120 49 56 3e 3b cd c3 12 3e e5 9a d7 3b ba 88 96 bb
       0.002904313 0.14332505 0.006579744 -0.004593936
000130 d8 0f d6 3c 40 e8 89 bb 48 83 bb 3d 01 88 a3 3a
       0.026130602 -0.0042085946 0.09155899 0.0012476445
000140 43 4d 41 bd 71 9c 9a bb 3e 21 3e bd 2b 2c 2f bd
       -0.047192823 -0.0047183563 -0.04641842 -0.04276673
000150 4e 4f 44 bd 8b 63 9d bb ec ab cd bb fe 12 17 3a
       -0.047927193 -0.004803126 -0.006276598 0.0005763023
000160 a3 02 97 3d 62 1f ad bd cc 2e 89 3d db 64 32 3b
       0.0737355 -0.084532514 0.06698379 0.002722076
000170 2d 0c 65 bb bd ba ac 3d 09 8e 75 3d ac bc 6d bd
       -0.0034949884 0.08434055 0.05994991 -0.05804126
000180 cb b5 07 bc 37 7a a9 bc 79 48 c3 3a 45 14 7b bb
       -0.008283089 -0.02068816 0.0014898918 -0.0038311642
000190 2d ca 2c 3d c6 6f 13 3e f5 a1 53 bc 28 e9 01 3d
       0.042184997 0.14398107 -0.0129170315 0.031716496
0001a0 6b 99 c2 ba e1 11 26 3d fe 12 e2 3c 7b e2 bb 3a
       -0.0014846748 0.040544394 0.027596947 0.0014334464
0001b0 57 d9 29 3b 70 cb 84 bc b6 5f f7 3d 9b b4 90 bc
       0.0025916898 -0.016210288 0.12078802 -0.017664244
0001c0 a4 93 ae bc 8a cf 9d bb bf 9e 34 bd ba ca 81 b9
       -0.021310635 -0.0048160003 -0.044096705 -0.0002475584
0001d0 6c 40 0d bd f5 8e 05 bc 7f 19 2e bb f3 fc 1e bc
       -0.034485266 -0.008151759 -0.002656549 -0.0097038625
0001e0 13 53 67 bc a8 5b 97 bc 9b 9f 28 3b e5 a2 62 bb
       -0.0141189275 -0.018476322 0.0025729898 -0.0034581956
0001f0 ea fb 4d bb 02 f2 1b 3d 0d e8 3a 3d 8d a6 2e 3d
       -0.003143067 0.038072594 0.045631457 0.042639304
