checkpoints/2023-09-08_20-39-30_checkpoint.pth (torch, 257179 bytes, 19 tensors)

lstm.weight_ih_l0 f4 [128, 309]
0.036319584 0.034126844 0.010594531 0.009744166 0.022549538 0.03505916 0.016557459 0.008340406
0.0048979493 0.009384979 0.0154940225 0.01457634 0.0042086565 0.008416266 0.015676606 0.010536319
0.007063522 0.00817213 0.0060582194 0.015391524 0.00911508 0.0127409585 0.00821763 0.0031499767
0.01528857 0.012719279 0.016686555 0.0024270457 0.009715224 0.007227578 0.010919935 0.005717355
0.014399944 0.0061900285 0.006080892 0.013786941 0.007917761 0.011510569 0.009393341 0.014308611
0.01219558 0.013169746 0.008002811 0.011317901 0.015838258 0.015671602 0.011117163 0.01276503
0.010933136 0.013774646 0.010548536 0.008676574 0.009073959 0.010955314 0.0068612294 0.0099299215
0.012316072 0.012752971 0.00913569 0.007872707 0.012809192 0.010374835 0.013354033 0.015125988
-0.0074620154 0.0074985214 0.019561147 0.0059258873 -0.00027876667 0.008428561 0.012734929 0.0011710303
-0.010720563 0.0009791114 -0.011799855 -0.004216968 0.015152515 0.011440167 -0.010523724 0.016967371
-0.001559554 -0.0067122155 0.0015962712 -0.014823614 -0.005412086 -0.0066386117 0.01837932 -0.006625991
-0.007895535 0.00018201064 -0.016087769 0.012845415 -0.0066564996 0.00071240787 -0.004059678 0.009564064
0.008965091 0.0023678357 0.011335208 -0.0084900055 -0.005213828 0.0047771656 0.008746406 -0.0023225173
0.00014005536 -0.0062570237 -0.003433601 0.01030883 -0.002748445 0.0036197882 -0.0060295467 0.0020631077
0.0050709974 0.012930128 -0.0038685221 0.007720781 -0.0020143215 0.011242091 -0.00020218058 0.0054300106
0.010257161 0.016100317 0.010756849 0.014883796 0.0035394141 0.016732363 0.0024260865 0.012533145
0.002910439 0.010414547 0.0088774925 0.015961668 0.005373531 0.008800135 0.003746632 0.008464325
0.0038686043 0.017004702 0.0034285425 0.009553701 0.0048835007 0.010109295 0.016440889 0.0139788035
0.006460279 0.009260367 0.009757761 0.014442612 0.012212048 0.010627312 0.010869297 0.014610172
0.014171066 0.010263457 0.013327065 0.008381137 0.006964837 0.008291563 0.013572752 0.012063526
0.014063161 0.015805118 0.015779367 0.013661 0.013723074 0.01595971 0.015498534 0.015363774
0.015104168 0.0073743616 0.00673178 0.007058579 0.009013129 0.012439379 0.006502703 0.014796942
0.0069408813 0.013200401 -0.0071754456 0.0026947276 0.020558957 0.0039851326 -0.0056659034 0.0018121771
-0.0015712302 0.028200766 0.027866727 -0.00949976 0.016195932 0.021410162 0.0014409516 -0.005588135
0.02641623 0.02084482 0.003476344 -0.007373722 0.028315343 0.01685296 0.020692158 -0.008693493
0.025352098 0.014192625 0.0005597869 -0.0051524346 -0.0075794407 -0.00807938 0.015653053 0.016602619
0.012879815 0.00019348267 0.015973698 0.0055201356 -0.008809341 0.0067574005 0.0029103155 -0.005275061
-0.003823247 0.018527808 0.00055914384 -0.007807956 0.012479739 -0.0056433342 0.011344193 0.011343422
-0.009718933 0.005084055 -0.005678822 -0.006036531 0.01418809 0.015534601 0.018112134 0.024078771
0.03107909 0.020769993 -0.011305006 -0.00060550036 -0.017766196 0.0026569678 -0.035031896 0.03673774
0.05501964 0.003887061 0.0018429378 -0.023402734 0.042382497 0.053436663 0.011286042 0.050579254
-0.03212952 0.037192218 0.023359066 0.061043918 0.037403394 0.017551687 0.049777396 -0.030062111
00000000: d8c3 143d 97c8 0b3d af94 2d3c ffa5 1f3c
00000010: cfb9 b83c 329a 0f3d 82a3 873c 33a6 083c
00000020: fa7e a03b 74c3 193c a4da 7d3c 9ad1 6e3c
00000030: c5e8 893b 61e4 093c 3a6c 803c 86a0 2c3c
00000040: 1e75 e73b 66e4 053c 0784 c63b bb2c 7c3c
00000050: 6b57 153c 74bf 503c 3da3 063c d76f 4e3b
00000060: e97c 7a3c 8664 503c 3eb2 883c 120f 1f3b
00000070: 9a2c 1f3c 52d5 ec3b 87e9 323c a658 bb3b
00000080: beed 6b3c b9d5 ca3b 3842 c73b 9fe2 613c
00000090: 7fb9 013c d396 3c3c 87e6 193c aa6e 6a3c
000000a0: f8cf 473c ebc5 573c 391e 033c b86e 393c
000000b0: 3cbf 813c bb61 803c c324 363c 6b24 513c
000000c0: e520 333c 0eaf 613c c4d3 2c3c 3028 0e3c
000000d0: f1aa 143c eb7d 333c 2ad4 e03b 1cb1 223c
000000e0: 5ac9 493c d6f1 503c dcad 153c 87fc 003c
000000f0: a5dd 513c 36fb 293c e0ca 5a3c fed2 773c
00000100: ec83 f4bb 28b6 f53b b33e a03c f22d c23b
00000110: 6e27 92b9 f217 0a3c 2aa6 503c 427d 993a
00000120: 4da5 2fbc 8755 803a 2e54 41bc 7e2e 8abb
00000130: 4142 783c 8a6f 3b3c b36b 2cbc 28ff 8a3c
00000140: f369 ccba 25f2 dbbb f939 d13a bede 72bc
00000150: de57 b1bb b688 d9bb 3a90 963c d71e d9bb
00000160: 465c 01bc 1cda 3e39 7fca 83bc 9375 523c
00000170: c41e dabb e2c0 3a3a 0c07 85bb 98b2 1c3c
00000180: 51e2 123c b12d 1b3b 4fb7 393c aa19 0bbc
00000190: c2d8 aabb c589 9c3b 164d 0f3c 6035 18bb
000001a0: d3db 1239 b807 cdbb 4406 61bb 5ee6 283c
000001b0: 411f 34bb f839 6d3b 8193 c5bb 3435 073b
000001c0: 9c2a a63b e3d8 533c 0887 7dbb 9bfe fc3b
000001d0: b502 04bb bf30 383c 7000 54b9 3bee b13b
000001e0: a70d 283c d0e4 833c 7f3d 303c 2adb 733c
000001f0: 84f5 673b 4f12 893c fafe 1e3b d257 4d3c
00000200: 10bd 3e3b c7a1 2a3c e772 113c 0bc2 823c
00000210: 7214 b03b 712e 103c 0e8a 753b f4ad 0a3c
00000220: 6988 7d3b 724d 8b3c 66b1 603b 2087 1c3c
00000230: c605 a03b 75a1 253c 0baf 863c 5a07 653c
00000240: c0b0 d33b cbb8 173c 04df 1f3c b5a0 6c3c
00000250: 0b15 483c 2d1e 2e3c 2315 323c 815f 6f3c
00000260: c22d 683c 0f28 283c c359 5a3c 0951 093c
00000270: 4a39 e43b 56d9 073c 3f60 5e3c 18a6 453c
00000280: 2c69 663c bc79 813c bb43 813c 63d2 5f3c
00000290: bfd6 603c f0bd 823c 90ed 7d3c 57b8 7b3c
000002a0: 7977 773c a1a4 f13b 4396 dc3b a74b e73b
000002b0: ceab 133c 89ce 4b3c a014 d53b df6e 723c
000002c0: 5570 e33b 7f46 583c 0020 ebbb 079a 303b
000002d0: 426b a83c b795 823b 0ba9 b9bb 9386 ed3a
000002e0: bdf1 cdba 4b05 e73c c348 e43c e2a4 1bbc
000002f0: 55ad 843c 5d64 af3c 50de bc3a ad1c b7bb
00000300: d966 d83c c2c2 aa3c 60d3 633b 439f f1bb
00000310: 94f5 e73c 380f 8a3c 9a82 a93c 276f 0ebc
00000320: 34af cf3c 2f88 683c aabe 123a c1d5 a8bb
00000330: f55c f8bb 605f 04bc d53a 803c 3702 883c
00000340: dc05 533c 9ce1 4a39 46db 823c 41e2 b43b
00000350: 0e55 10bc 2f6d dd3b feba 3e3b 6bda acbb
00000360: 718f 7abb a1c7 973c 8293 123a e2d9 ffbb
00000370: d277 4c3c b8eb b8bb fedc 393c c3d9 393c
00000380: 293c 1fbc 2598 a63b 6915 babb 18ce c5bb
00000390: 2a75 683c d784 7e3c e65f 943c d840 c53c
000003a0: 9399 fe3c d525 aa3c a238 39bc 71ba 1eba
000003b0: 6a8a 91bc 8620 2e3b 9b7d 0fbd 507a 163d
000003c0: 465c 613d 10be 7e3b bb8e f13a 17b7 bfbc
000003d0: 4599 2d3d 67e0 5a3d 17e9 383c 312c 4f3d
000003e0: 3e9a 03bd de56 183d 835b bf3c 3009 7a3d
000003f0: 4d34 193d 8ec8 8f3c 62e3 4b3d d144 f6bc

lstm.weight_hh_l0 f4 [128, 32]
0.0006188626 -0.0138090355 0.019174075 0.019169616 -0.020492192 -0.008585199 -0.005262953 0.0050585615
-0.023358902 -0.005137063 -0.007335117 -0.014964291 -0.015968071 -0.0746881 -0.03468282 -0.01223368
0.00044203617 -0.0052699973 -0.011129036 -0.0015420179 -0.005905472 -0.018631518 0.0022333527 0.01221369
0.037214056 -9.470488e-05 -0.005447015 0.0024300423 0.00070356374 -0.0046529463 -0.010164159 -0.0037447044
0.021361012 0.07339209 0.040441494 -0.012088994 -0.003145805 0.026562918 0.105150834 -0.038056515
0.03839978 -0.06647525 0.017776128 -0.06271562 0.008251559 0.10543639 0.014620688 -0.03448466
-0.042943947 -0.03010516 -0.031214796 0.02518926 -0.00880308 0.034773692 0.026949538 -0.033085
-0.092439614 0.026391676 -0.02395491 0.12471461 -0.12187953 -0.065274455 -0.09219167 -0.029350877
-0.08930596 -0.02290578 0.06510478 0.060068253 -0.029155625 0.08641138 0.016292054 -0.00797361
-0.03922046 -0.014144787 -0.022020012 0.050635494 -0.013802133 0.009070208 -0.11353794 -0.07396863
0.048751395 0.017898347 -0.14370084 0.05336577 -0.0023448728 -0.019844111 -0.0011098757 0.021350438
-0.0064576194 0.075543985 -0.07796001 0.06076834 0.046353616 -0.079280145 0.0041128034 0.038506094
-0.018300679 -0.016112847 0.013856291 0.022896482 -0.021802986 0.012143394 0.019487007 0.009053563
-0.02047864 -0.01971779 -0.0066754646 0.03542449 -0.015570142 -0.02595025 -0.039666213 -0.018039742
0.005875786 -0.00018701771 -0.021433787 0.00786238 0.006895405 -0.01997562 0.02520579 0.0065041683
-0.00412566 0.015866242 0.0071238065 -0.063773915 0.017720448 -0.006649599 0.004764832 0.0055094613
0.012502287 -0.062884815 0.04927843 0.11668555 -0.044681236 0.13160206 0.00088574324 0.10148892
-0.009333691 -0.09742946 -0.024510603 0.0113643035 -0.049539242 -0.11508188 -0.017487284 -0.096836016
-0.014428567 -0.09813853 -0.0053982073 0.044207 0.034684207 -0.09605674 0.00558638 0.09172934
-0.045683894 0.0518669 0.059142213 0.054672685 -0.04121573 0.043788977 -0.11150876 -0.041974016
0.03379019 -0.089224234 0.01092422 0.0026615667 -0.14332819 -0.016634151 -0.036417324 -0.32706198
0.08081773 0.19933073 0.01948316 0.18075624 0.03843924 0.17740527 0.23036225 0.21300852
-0.04092388 0.16409746 0.22678362 0.014192663 -0.16442578 -0.05488398 -0.069038995 -0.17326042
-0.05783544 -0.16072154 -0.11288563 0.21780731 0.08193702 0.038818378 0.18204194 -0.08550098
-0.09344654 -0.029910905 0.1947893 0.21266286 -0.08957035 -0.082786724 -0.15008056 0.108068295
-0.13935791 -0.13599122 -0.01317737 -0.1084903 -0.11413183 0.1350205 -0.020273373 -0.036612175
0.09436707 -0.0237644 0.08670477 0.128857 -0.11567699 0.027002575 0.095543824 0.1737655
0.16112919 0.14260896 -0.026240125 -0.02401864 -0.018049853 -0.092072695 0.17265287 0.31452572
-0.028545536 -0.0016694837 0.02909294 0.03827459 -0.011697603 0.009544072 0.010323479 0.01567037
-0.014901704 -0.01075791 -0.033500206 -0.041836247 -0.0001990036 -0.07329756 0.009990339 -0.025170013
0.016518531 -0.044693343 0.036555894 0.013539178 -0.0027132207 -0.014093038 0.026522338 0.020500818
-0.04497626 0.02160694 -0.0076069166 -0.10620449 -0.06706742 0.0008749384 -0.055139918 0.02042456
00000000: 2b3b 223a 4b3f 62bc f312 9d3c 9909 9d3c
00000010: 3edf a7bc efa8 0cbc da74 acbb 4ac2 a53b
00000020: 2b5b bfbc cf54 a8bb 6c5b f0bb c92c 75bc
00000030: 79cf 82bc 13f6 98bd 930f 0ebd c66f 48bc
00000040: 17c1 e739 f1af acbb 8f56 36bc 891d caba
00000050: b182 c1bb 20a1 98bc 715d 123b ee1b 483c
00000060: c46d 183d 4c9c c6b8 e07c b2bb 5841 1f3b
00000070: 5d6f 383a be77 98bb 9387 26bc b769 75bb
00000080: 4afd ae3c 984e 963d fba5 253d ea10 46bc
00000090: da29 4ebb 7a9a d93c 5259 d73d 26e1 1bbd
000000a0: 1649 1d3d 2d24 88bd 3e9f 913c 0c71 80bd
000000b0: 8c31 073c 09ef d73d 9c8b 6f3c c93f 0dbd
000000c0: fee5 2fbd 199f f6bc 2cb6 ffbc b559 ce3c
000000d0: cb3a 10bc dc6e 0e3d 47c5 dc3c 2384 07bd
000000e0: fb50 bdbd 5b33 d83c 163d c4bc 606a ff3d
000000f0: fa9b f9bd 9dae 85bd fcce bcbd 4071 f0bc
00000100: 0be6 b6bd e7a4 bbbc a855 853d 210a 763d
00000110: c7d7 eebc 73f8 b03d ea76 853c bfa3 02bc
00000120: a2a5 20bd 89bf 67bc 5063 b4bc 2a67 4f3d
00000130: 5722 62bc 369b 143c 9486 e8bd dd7c 97bd
00000140: 8baf 473d 8e9f 923c 5026 13be 1196 5a3d
00000150: 70ac 19bb 1e90 a2bc 4079 91ba 1de7 ae3c
00000160: 709a d3bb ceb6 9a3d 7fa9 9fbd 39e8 783d
00000170: 4add 3d3d a15d a2bd b2c4 863b 91b8 1d3d
00000180: 4eeb 95bc 17ff 83bc 7f05 633c 6791 bb3c
00000190: 2d9c b2bc 16f5 463c 37a3 9f3c 6555 143c
000001a0: d2c2 a7bc 3487 a1bc dbbd dabb 4519 113d
000001b0: e919 7fbc 9e95 d4bc 0a79 22bd 15c8 93bc
000001c0: aa89 c03b 2f1a 44b9 e995 afbc 36d1 003c
000001d0: d9f2 e13b e9a3 a3bc 5f7c ce3c eb20 d53b
000001e0: 8b30 87bb ecf9 813c d26e e93b e69b 82bd
000001f0: 792a 913c e1e4 d9bb 4f22 9c3b b688 b43b
00000200: 64d6 4c3c c1c9 80bd 2ed8 493d d5f8 ee3d
00000210: ac03 37bd b1c2 063e 3931 683a 6cd9 cf3d
00000220: 56ec 18bc 1989 c7bd 76ca c8bc 5831 3a3c
00000230: a9e9 4abd 0cb0 ebbd 7e41 8fbc f651 c6bd
00000240: cc65 6cbc dbfc c8bd 72e3 b0bb 6612 353d
00000250: 0711 0e3d 65b9 c4bd f40d b73b 98dc bb3d
00000260: 091f 3bbd 6372 543d 1b3f 723d 77f0 5f3d
00000270: d3d1 28bd 125c 333d b45e e4bd f2ec 2bbd
00000280: 9567 0a3d 32bb b6bd 80fb 323c ae6d 2e3b
00000290: a0c4 12be 5844 88bc 552a 15bd ab74 a7be
000002a0: c483 a53d 5b1d 4c3e 269b 9f3c 2a18 393e
000002b0: 7772 1d3d baa9 353e 15e4 6b3e e81e 5a3e
000002c0: cc9f 27bd 2a09 283e f739 683e 5888 683c
000002d0: 3b5f 28be 06ce 60bd 5164 8dbd 2e6b 31be
000002e0: dbe4 6cbd 3094 24be 9530 e7bd e108 5f3e
000002f0: 99ce a73d 0500 1f3d 3469 3a3e 231b afbd
00000300: e660 bfbd b707 f5bc d976 473e 4bc4 593e
00000310: a970 b7bd 168c a9bd b8ae 19be e952 dd3d
00000320: d7b3 0ebe 4841 0bbe e5e5 57bc 2a30 debd
00000330: f3bd e9bd d042 0a3e 5814 a6bc a6f6 15bd
00000340: 8643 c13d 8fad c2bc 4592 b13d 17f3 033e
00000350: 0fe8 ecbd 8134 dd3c 7bac c33d 95ef 313e
00000360: 0dff 243e 1508 123e 88f5 d6bc bdc2 c4bc
00000370: 49dd 93bc 9c90 bcbd eacb 303e 8409 a13e
00000380: 54d8 e9bc 94d2 daba 5154 ee3c d1c5 1c3d
00000390: 4ea7 3fbc bd5e 1c3c cf23 293c 265f 803c
000003a0: 4726 74bc f241 30bc 8337 09bd 7c5c 2bbd
000003b0: 9fab 50b9 081d 96bd 85ae 233c 5831 cebc
000003c0: df51 873c 5e10 37bd a2bb 153d 6ed3 5d3c
000003d0: 4ad0 31bb 7ce6 66bc 6045 d93c 55f1 a73c
000003e0: 0739 38bd 0a01 b13c 7143 f9bb bd81 d9bd
000003f0: a55a 89bd 1f5c 653a 65da 61bd 6851 a73c

lstm.bias_ih_l0 f4 [128]
0.029555628 -0.05324407 0.036513843 0.096422546 0.09091301 -0.0030517706 0.12785482 0.101889
0.06595176 0.049924858 0.0028399911 -0.014728595 -0.044456 0.08889838 -0.044307556 -0.021937327
-0.061107107 0.047374737 -0.009473139 0.026634242 -0.10071906 0.03835322 -0.0036471013 0.024582755
-0.13468601 -0.11750996 -0.018875724 -0.010219439 0.010861061 -0.13343656 0.040571652 0.009660554
-0.040632043 0.08488978 0.19218479 0.033409618 0.07547332 0.031850938 0.17722821 0.010384441
0.06366276 -0.050285965 -0.09440411 -0.02596335 0.039051127 0.09268456 -0.075812034 0.020345133
0.064609334 -0.088460475 0.1904189 0.043448202 -0.02752822 0.1273704 0.09521114 0.046138167
-0.10050522 -0.159481 0.112275966 0.12112396 0.105751105 -0.103036895 0.060275532 0.03632213
-0.113975786 0.08021899 0.046331204 0.13577405 0.0049700057 0.054335844 0.075128324 0.14075825
0.03963168 -0.08360341 -0.13934782 -0.19171844 -0.006789262 -0.04365628 -0.13489887 -0.09923514
0.007369381 -0.12656257 0.16509211 -0.015010495 -0.1389586 -0.02184647 -0.09436539 0.04514458
-0.0249 0.14007078 0.15147637 0.11919378 -0.08029726 -0.10781374 -0.180277 -0.088029504
-0.04142024 -0.11454092 0.08877483 0.109281 0.05184196 -0.07855154 -0.08456325 0.07499215
0.11146445 0.11232406 0.017744357 0.09846411 0.016635709 -0.0691963 0.010996894 0.07199502
0.14285436 -0.026898049 -0.09124 -0.0069504716 -0.09970267 0.021261655 -0.0535094 -0.0395881
0.109164976 0.061690167 0.023898315 0.15319975 0.067594424 0.0035115401 0.04879586 0.10500156
00000000: a51e f23c 7416 5abd 8a8f 153d 2f79 c53d
00000010: 9a30 ba3d 3700 48bb 60ec 023e 2eab d03d
00000020: b711 873d 027e 4c3d 251f 3a3b 3450 71bc
00000030: 7f17 36bd 5b10 b63d d77b 35bd e9b5 b3bc
00000040: 724b 7abd 030c 423d 3a35 1bbc 0e30 da3c
00000050: cb45 cebd 4418 1d3d 3504 6fbb c661 c93c
00000060: 21eb 09be 10a9 f0bd 43a1 9abc 6f6f 27bc
00000070: 97f2 313c 98a3 08be 762e 263d 4d47 1e3c
00000080: c96d 26bd b1da ad3d 17cc 443e 86d8 083d
00000090: c291 9a3d 2176 023d 507b 353e 8123 2a3c
000000a0: 9f61 823d a8f8 4dbd f156 c1bd 17b1 d4bc
000000b0: 13f4 1f3d 67d1 bd3d 5743 9bbd d6aa a63c
000000c0: e651 843d c42a b5bd 2cfd 423e bef6 313d
000000d0: dd82 e1bc 636d 023e 0ffe c23d 60fb 3c3d
000000e0: aed5 cdbd fd4e 23be f1f0 e53d d70f f83d
000000f0: 0994 d83d 0205 d3bd 7ae3 763d 84c6 143d
00000100: 236c e9bd db49 a43d cac5 3d3d 5a08 0b3e
00000110: 6edb a23b 438f 5e3d e1dc 993d ee22 103e
00000120: d454 223d 4438 abbd 32b1 0ebe d751 44be
00000130: 7578 debb edd0 32bd ee22 0abe cb3b cbbd
00000140: d97a f13b 9e99 01be e80d 293e 94ee 75bc
00000150: 2a4b 0ebe 5ef7 b2bc a442 c1bd 86e9 383d
00000160: 16fb cbbc b76e 0f3e 9f1c 1b3e de1b f43d
00000170: e472 a4bd 73cd dcbd 899a 38be d048 b4bd
00000180: 45a8 29bd 6e94 eabd 94cf b53d b8ce df3d
00000190: 3c58 543d a1df a0bd 7f2f adbd 7c95 993d
000001a0: 7947 e43d 280a e63d 9d5c 913c 8da7 c93d
000001b0: 9c47 883c cab6 8dbd 512c 343c 2072 933d
000001c0: 6a48 123e 4c59 dcbc 0adc babd c8c0 e3bb
000001d0: ea30 ccbd ec2c ae3c ac2c 5bbd 2227 22bd
000001e0: e391 df3d d4ae 7c3d 66c6 c33c 65e0 1c3e
000001f0: f26e 8a3d de21 663b 2bde 473d 0f0b d73d

lstm.bias_hh_l0 f4 [128]
0.08508884 -0.07286505 -0.028428322 0.075806744 0.053875953 -0.19394377 0.16823994 0.084277324
0.11862504 0.07625142 0.025387438 0.0980007 -0.033985566 0.048694886 0.067984305 0.054469027
0.028330272 0.10871066 -0.0057835625 0.022842655 -0.005763134 0.038199373 -0.031844817 0.023016956
0.09158301 -0.05032005 0.00068102777 0.033978406 0.12754856 -0.078783646 -0.119212806 0.0677233
0.107128434 -0.117101885 0.124485545 0.09675237 0.18127862 0.065877736 0.09035994 -0.023676226
0.08292211 0.06822326 0.024056157 -0.032445397 0.06912724 -0.0020434153 -0.010174669 0.07854587
-0.10387755 -0.028725605 0.037479132 0.020078907 -0.0949487 0.09810592 0.0254966 0.04030011
0.13743062 0.02311384 0.03732865 -0.08008958 0.17591342 0.13158616 0.015380847 0.11505118
-0.15799028 -0.16849579 0.18920681 0.1069976 -0.14481482 0.062301874 -0.05247447 -0.06751813
0.047071874 -0.0014703906 -0.012980982 0.05527703 -0.14261349 -0.12832974 0.1048132 -0.027647955
0.06942048 0.13550176 0.0088919345 0.09982624 0.045336027 -0.076510675 0.123026974 0.1795063
0.030045088 0.030104617 0.12566341 0.037160967 -0.053214975 0.1809786 -0.18392149 0.07623158
-0.036503475 0.013801774 -0.011413721 0.09510677 0.17615874 0.13074802 -0.05624827 0.0444368
0.04959973 0.08072312 0.12164338 -0.008771202 -0.03087567 0.11130019 0.118594676 0.025239728
0.15148096 -0.112999484 -0.08426206 0.08009818 -0.015057018 0.091555044 -0.015329516 -0.0407485
0.13973607 0.11863867 -0.034087006 0.066459 0.037851352 0.092053846 -0.10321455 -0.070668034
00000000: 0f43 ae3d 453a 95bd 83e2 e8bc 9140 9b3d
00000010: 08ad 5c3d 3299 46be 1747 2c3e 9799 ac3d
00000020: aff1 f23d b429 9c3d 51f9 cf3c 97b4 c83d
00000030: 7334 0bbd 4a74 473d 5b3b 8b3d ea1a 5f3d
00000040: e314 e83c b2a3 de3d 0a84 bdbb 8520 bb3c
00000050: acd8 bcbb f276 1c3d b66f 02bd 0e8e bc3c
00000060: e08f bb3d 661c 4ebd 0087 323a f12c 0b3d
00000070: 179c 023e 5259 a1bd d825 f4bd 83b2 8a3d
00000080: 2766 db3d 1dd3 efbd 47f2 fe3d 1b26 c63d
00000090: 1aa1 393e e8ea 863d a20e b93d a5f4 c1bc
000000a0: 11d3 a93d a3b8 8b3d 6b11 c53c 77e5 04bd
000000b0: 9592 8d3d d2ea 05bb a8b3 26bc a8dc a03d
000000c0: c1bd d4bd f651 ebbc b883 193d 857c a43c
000000d0: 7774 c2bd c2eb c83d 3fde d03c ba11 253d
000000e0: 9dba 0c3e 3c59 bd3c ede5 183d 0106 a4bd
000000f0: a622 343e 86be 063e f3ff 7b3c f49f eb3d
00000100: 34c8 21be 298a 2cbe 6ebf 413e 8f21 db3d
00000110: 564a 14be 4030 7f3d 78ef 56bd f246 8abd
00000120: 70ce 403d 1fba c0ba 2fae 54bc 2b6a 623d
00000130: 4509 12be df68 03be 4ea8 d63d f77d e2bc
00000140: 532c 8e3d f9c0 0a3e 7aaf 113c b371 cc3d
00000150: 45b2 393d a1b1 9cbd 91f5 fb3d 80d0 373e
00000160: 1e21 f63c f59d f63c e9ad 003e 1936 183d
00000170: f2f7 59bd 7452 393e ea55 3cbe 4d1f 9c3d
00000180: ab84 15bd d620 623c 9e00 3bbc 57c7 c23d
00000190: f562 343e cfe2 053e 9664 66bd 5d03 363d
000001a0: 1629 4b3d 2a52 a53d 2a20 f93d 16b5 0fbc
000001b0: f9ee fcbc 5bf1 e33d c4e1 f23d 8cc3 ce3c
000001c0: d31d 1b3e 466c e7bd 9691 acbd 840a a43d
000001d0: b6b1 76bc 3681 bb3d a628 7bbc e6e7 26bd
000001e0: f916 0f3e d5f8 f23d d19e 0bbd a81b 883d
000001f0: 050a 1b3d ba86 bc3d 2662 d3bd 67ba 90bd

lstm.weight_ih_l1 f4 [128, 32]
0.08613437 0.020820947 0.030143954 -0.0047608 -0.005342005 -0.047771666 0.0776382 -0.048885092
0.042918663 0.15847135 -0.024068542 0.13710782 0.0035581659 -0.018415825 -0.03809065 0.014254031
-0.03304755 -0.06956636 0.1159965 -0.03344962 0.009418711 -0.023351649 0.04950485 -0.08893427
-0.12059452 0.022842547 0.008794505 -0.11179955 -0.07300339 0.03243233 -0.07273127 -0.08559642
0.027077971 0.07075907 0.06461345 -0.020047251 0.047139224 0.056956083 -0.056632172 -0.12752023
-0.020731997 0.07738974 -0.043968394 -0.095042095 0.007854001 0.108381264 0.07831429 -0.0005301392
0.06258058 0.052968096 0.08260166 0.039053947 0.006696968 -0.022825357 0.04360504 0.04909906
-0.058667812 -0.049768966 -0.05294752 0.08169573 0.04144405 0.051557727 0.0114040105 0.01658021
-0.043270834 -0.054825846 0.117598556 0.06311368 0.021871524 -0.02560794 -0.023057163 -0.11708314
0.012375948 -0.121467836 0.023538925 0.080645174 0.010129867 0.08262696 0.18851222 -0.00023139639
0.11264485 -0.057806827 0.15875745 -0.009879599 0.0086511355 -0.029934295 0.0062520886 0.037182722
-0.037336517 -0.090882845 -0.05640502 0.07938342 0.08972254 0.1453732 -0.12479148 -0.003231386
0.10000961 -0.044118956 0.0462313 0.053299848 0.026385924 0.015421174 0.057100575 0.07947768
0.007669485 -0.06995251 0.08721484 0.028711066 -0.0052038967 0.046858814 0.14097819 0.017103173
-0.025621882 0.012866806 -0.1107538 -0.00029707275 -0.027432846 0.022020543 -0.041204166 -0.05135363
-0.021360071 -0.09358778 0.027373074 -0.010436954 0.03136855 0.015020213 -0.150721 -0.07062381
0.047577426 0.050061442 -0.0024492417 0.01803992 -0.012255535 0.045436114 -0.02734947 -0.004746292
-0.0016425133 -0.03425328 0.00082224305 0.06868765 -0.001301709 -0.042532064 0.06465424 0.002304818
0.0073075728 -0.0029492893 0.07429281 0.005628792 -0.0022753624 0.004750877 0.012434038 0.009877649
-0.081622586 0.046173785 0.013123532 -0.05301689 0.068206996 -0.01829229 -0.049101897 0.008729831
0.03489357 0.011939371 -0.000388798 -0.024132518 -0.0053746034 0.020105338 0.04114653 -0.017619094
0.0009922828 0.029208338 -0.005196304 -0.04284785 0.0008327345 0.07180996 -0.0139821125 0.0069165416
0.0032862793 0.025918953 0.09257009 -0.0067823534 -0.0047255284 0.0043785805 -0.028549893 -0.012369638
0.0014295045 -0.009580765 0.007570172 0.033798177 0.050858844 0.03349866 -0.03077679 -0.016017275
-0.08030961 0.18101555 0.11432234 0.08497723 -0.0247182 -0.14418663 0.036386803 -0.020591853
0.07506784 0.18116361 0.090725124 0.020334926 0.0026093205 -0.073763646 0.057855207 -0.019129653
-0.054757077 0.06544832 -0.106582165 -0.026684431 0.0051629026 0.08610183 0.027780121 -0.06374784
0.003700749 -0.06995432 0.0020329934 0.14495465 -0.068159744 -0.11257816 0.056696612 0.14660901
0.023965633 0.047024816 -0.00067004975 0.004194365 -0.0036896549 -0.0072511556 -0.04056004 -0.042050287
0.0013644109 -0.0104883695 -0.01893145 0.057038475 0.0021999213 0.018408546 0.04157543 0.006161214
-0.0116305305 0.018744603 0.021641418 -0.0016824336 0.0024386228 0.0031468566 -0.02936184 -0.014504758
-0.022922084 -0.044903487 -0.00962418 0.068245 0.04576529 0.0053804414 -0.036775324 0.02514512
00000000: 3767 b03d b190 aa3c 74f0 f63c 7c00 9cbb
00000010: fc0b afbb 39ac 43bd c700 9f3d bc3b 48bd
00000020: 7bcb 2f3d 5046 223e 642b c5bc fe65 0c3e
00000030: 1e30 693b c9dc 96bc f104 1cbd bd89 693c
00000040: de5c 07bd cf78 8ebd 938f ed3d 7802 09bd
00000050: f050 1a3c f54b bfbc 99c5 4a3d 2c23 b6bd
00000060: 42fa f6bd 4b20 bb3c d416 103c 2af7 e4bd
00000070: cd82 95bd c3d7 043d 22f4 94bd 2d4d afbd
00000080: 9fd2 dd3c 22ea 903d 0e54 843d 223a a4bc
00000090: 0f15 413d c84a 693d 23f7 67bd aa94 02be
000000a0: 26d6 a9bc 837e 9e3d 3418 34bd 6ea5 c2bd
000000b0: 11ae 003c fff6 dd3d 3e63 a03d 0af9 0aba
000000c0: 3f2a 803d 13f5 583d 0f2b a93d 08f7 1f3d
000000d0: 3d72 db3b 3efc babc 339b 323d 191c 493d
000000e0: a94d 70bd 8bda 4bbd 80df 58bd 1750 a73d
000000f0: 3cc1 293d 322e 533d e3d7 3a3c 38d3 873c
00000100: c23c 31bd 1191 60bd 83d7 f03d bf41 813d
00000110: e92b b33c bec7 d1bc 60e2 bcbc 49c9 efbd
00000120: 7dc4 4a3c 21c4 f8bd b4d4 c03c 4c29 a53d
00000130: bef7 253c 5338 a93d 5909 413e ffa2 72b9
00000140: 58b2 e63d dac6 6cbd 5091 223e 0bde 21bc
00000150: 7ebd 0d3c c438 f5bc 52de cc3b e94c 183d
00000160: 2dee 18bd c920 babd f308 67bd c693 a23d
00000170: 73c0 b73d b6dc 143e ad92 ffbd a9c5 53bb
00000180: d7d1 cc3d 14b6 34bd 085d 3d3d f150 5a3d
00000190: 4b27 d83c 17a9 7c3c 4be2 693d 32c5 a23d
000001a0: 4e50 fb3b 4343 8fbd b29d b23d 7833 eb3c
000001b0: 7385 aabb 07ef 3f3d 965c 103e f41b 8c3c
000001c0: fbe4 d1bc 4ccf 523c e3d2 e2bd 6ec0 9bb9
000001d0: d9ba e0bc 6d64 b43c b3c5 28bd 2f58 52bd
000001e0: 51fb aebc f3aa bfbd 7f3d e03c c2ff 2abc
000001f0: 4f7c 003d 5717 763c 9b56 1abe 37a3 90bd
00000200: 8ce0 423d 3a0d 4d3d 7583 20bb 74c8 933c
00000210: 71cb 48bc 381b 3a3d ff0b e0bc c886 9bbb
00000220: 9a49 d7ba 2b4d 0cbd cc8b 573a 1cac 8c3d
00000230: 1b9e aaba 1a36 2ebd 7169 843d 6e0c 173b
00000240: 5d74 ef3b dd48 41bb d426 983d bb71 b83b
00000250: 3f1e 15bb 3fad 9b3b 23b8 4b3c ddd5 213c
00000260: be29 a7bd b920 3d3d 1504 573c 3d28 59bd
00000270: 1cb0 8b3d b6d9 95bc 121f 49bd 9107 0f3c
00000280: 8fec 0e3d 5a9d 433c 96d7 cbb9 8fb1 c5bc
00000290: 711d b0bb f3b3 a43c 4489 283d eb55 90bc
000002a0: 7c0f 823a 5346 ef3c c245 aabb 3a81 2fbd
000002b0: de4b 5a3a 1a11 933d 3b15 65bc 28a4 e23b
000002c0: 9e5e 573b fc53 d43c 6395 bd3d 813e debb
000002d0: 9bd8 9abb 327a 8f3b 77e1 e9bc 06aa 4abc
000002e0: 365e bb3a a4f8 1cbc 350f f83b f56f 0a3d
000002f0: 5d51 503d e435 093d 9b1f fcbc a936 83bc
00000300: 5d79 a4bd 245c 393e d521 ea3d 8b08 ae3d
00000310: d37d cabc a9a5 13be 540a 153d 3fb0 a8bc
00000320: 2bbd 993d f482 393e 18ce b93d 6e95 a63c
00000330: 2201 2b3b 6511 97bd 95f9 6c3d cab5 9cbc
00000340: f548 60bd c509 863d c047 dabd 4f99 dabc
00000350: 912d a93b 2856 b03d 2393 e33c 3a8e 82bd
00000360: 4488 723b 3644 8fbd f83b 053b fe6e 143e
00000370: 5697 8bbd 618f e6bd b53a 683d ac20 163e
00000380: 9353 c43c 189d 403d 47a6 2fba e270 893b
00000390: 23ce 71bb 1a9b edbb 4922 26bd ec3c 2cbd
000003a0: 08d6 b23a 69d7 2bbc 2116 9bbc 2da1 693d
000003b0: 8e2c 103b 85cd 963c 004b 2a3d 02e4 c93b
000003c0: fb8d 3ebc 488e 993c 5849 b13c 1b85 dcba
000003d0: 4dd1 1f3b 7e3b 4e3b 3e88 f0bc 5da5 6dbc
000003e0: 18c7 bbbc b8ec 37bd bdae 1dbc 09c4 8b3d
000003f0: 6274 3b3d 6a4e b03b b9a1 16bd 24fd cd3c

lstm.weight_hh_l1 f4 [128, 32]
-0.019739714 -0.0011759605 -0.021569988 -0.020375537 0.0051689083 0.0049177757 0.05880681 0.013206016
-0.009157785 -0.0016073071 -0.012039045 0.016476048 -0.015470781 0.024242185 0.016123796 -0.010798391
0.009006891 -0.0075712353 0.0007575691 0.013213739 0.023677835 0.00079370604 0.044062052 0.082104534
-0.0054999297 -0.01146653 0.042866115 0.025022764 -0.016665343 -0.0070884097 0.0050073303 0.013891887
-0.0094043305 -0.016394418 -0.017009104 0.019004688 0.014087247 0.015176696 -0.0046761287 -0.010041772
0.005008665 -0.028913034 -0.0144406855 -0.0064116833 -0.0077811903 -0.00767048 0.012701779 -0.004299388
0.011076417 -0.0052263574 -0.018973779 -0.0025177696 0.0025764687 -0.000580957 0.009571772 -0.027641578
0.01027458 -0.027993428 -0.0138949845 0.01535538 -0.005740318 -0.028376533 -0.014509563 -0.018776793
-0.020545226 -0.01782012 0.0007084885 0.015963443 0.010085667 0.0064446344 0.03198651 0.006842021
-0.000904091 -0.027062027 0.013623082 0.0018433068 0.0020106072 -0.056242492 0.02002532 -0.0060034026
0.014365224 0.003986373 -0.0231277 -0.0010839689 -0.0034692534 -0.0020799707 0.019287579 -0.013796179
0.024362627 -0.03479257 -0.0030239394 0.021170128 -0.006007672 -0.010326978 -0.04856282 -0.01144499
-0.010449704 0.017235294 0.013734336 -0.020864835 0.009522141 -0.01640399 0.018160308 0.008673386
0.0010920779 0.0024607356 0.012647727 0.011504969 0.00020696328 -0.01682154 -0.010743952 -0.0053182296
-0.013194331 0.0072813774 -0.02589354 0.005345753 -0.0192505 0.013008547 -0.005269899 0.024677582
-0.010577211 0.01954575 -0.00872493 0.028715331 -0.00010663224 0.017825026 0.012150392 0.011020304
-0.008263099 0.0049823173 -0.00060170476 -0.0034916867 -8.7383196e-05 -0.001423572 -0.0046189595 0.0006088371
0.0030525776 0.0075996704 -0.003724144 -0.0038716248 -0.0008313496 -0.03179797 -0.0059625655 -0.0007330991
-0.00622015 0.005242692 -0.011041175 -0.0029871063 0.0011707504 0.003948831 -0.013902784 0.0072357524
-0.003058681 -0.0019760828 0.004877847 0.012875852 -0.0036382508 0.0033281327 0.002086664 0.00055405137
-0.00311521 0.0065470017 0.0037300508 6.664302e-05 0.005579102 0.0017765381 0.0030931907 0.0038702192
0.007845101 -0.006347367 -0.011513996 -0.0017210579 0.0030558563 -0.016359052 -0.0005954269 0.004983724
-0.0040813508 0.0060427245 -0.011302959 -0.000392593 -6.950446e-05 -0.0022412764 -0.0062708003 0.005911918
-0.00060653884 -0.0044562393 -0.007803165 0.018612372 -0.010168914 -0.0033963812 0.008797826 0.0057434584
0.053989664 -0.0032085294 -0.008873574 0.05632179 0.018035168 0.009570811 -0.0018087272 0.048800368
-0.0068358295 -0.0633424 -0.04047502 0.09559523 0.0015117242 0.0710104 -0.003201986 -0.024142735
0.039477885 0.050307777 0.037943054 0.014540482 0.063551895 0.010818022 -0.022417856 -0.009260162
0.021783968 0.0009936515 -0.059598524 0.040540352 -0.0034897774 -0.05625516 0.06972797 -0.026672808
-0.0051895143 -0.0014732849 -0.0048291883 -0.00031531756 0.0016304093 -3.1787727e-05 0.009736799 0.0016700098
-0.0025184515 -0.0039090547 -0.004490119 0.0015140888 -0.0017613163 -0.009761785 0.0040894225 -0.0022258111
0.004648551 0.00182589 -0.00384363 0.006029528 0.0048592757 -0.009570396 -0.004765549 0.0018305471
-0.0027168018 -0.0035347585 -0.0056803897 0.007135486 -0.0013405863 -0.004771499 0.0071201622 0.0043953103
00000000: 2eb5 a1bc b022 9aba 8bb3 b0bc 99ea a6bc
00000010: f25f a93b 4b25 a13b 69df 703d 0c5e 583c
00000020: 890a 16bc 47ac d2ba 6a3f 45bc c7f8 863c
00000030: 2979 7dbc 8c97 c63c 0d16 843c bceb 30bc
00000040: a491 133c 2018 f8bb 9a97 463a 707e 583c
00000050: 05f8 c13c b610 503a 697a 343d 6c26 a83d
00000060: c138 b4bb 1dde 3bbc 6194 2f3d 8afc cc3c
00000070: c285 88bc e445 e8bb 8814 a43b cc9a 633c
00000080: 9f14 1abc 964d 86bc ad56 8bbc b8af 9b3c
00000090: 32ce 663c ada7 783c 363a 99bb 3f86 24bc
000000a0: ba1f a43b 07db ecbc a098 6cbc 1919 d2bb
000000b0: 5bf9 febb a658 fbbb 1f1b 503c e1e1 8cbb
000000c0: dc79 353c dd41 abbb e66e 9bbc 2a01 25bb
000000d0: f9d9 283b 5d4b 18ba ecd2 1c3c 9770 e2bc
000000e0: b656 283c 7952 e5bc caa7 63bc 2295 7b3c
000000f0: 4719 bcbb e775 e8bc 85b9 6dbc cad1 99bc
00000100: 764e a8bc 80fb 91bc dcb9 393a c4c5 823c
00000110: 5a3e 253c 832d d33b 4904 033d 0833 e03b
00000120: 8500 6dba 2fb1 ddbc 5933 5f3c 1d9b f13a
00000130: 64c4 033b 875e 66bd 240c a43c 31b8 c4bb
00000140: 1e5c 6b3c 1fa0 823b 4d76 bdbc f613 8eba
00000150: 6a5c 63bb 1e50 08bb fc00 9e3c 5e09 62bc
00000160: 2294 c73c a782 0ebd 492d 46bb fa6c ad3c
00000170: 01dc c4bb 7c32 29bc cfe9 46bd c483 3bbc
00000180: 3c35 2bbc 0831 8d3c fb05 613c bbec aabc
00000190: c102 1c3c a961 86bc edc4 943c d11a 0e3c
000001a0: 0e24 8f3a 4b44 213b 6938 4f3c 567f 3c3c
000001b0: 4804 5939 54cd 89bc 6707 30bc 8b44 aebb
000001c0: 092d 58bc 9f98 ee3b b01e d4bc 6d2b af3b
000001d0: 39b3 9dbc cd21 553c 1eaf acbb a428 ca3c
000001e0: 0a4c 2dbc 691e a03c 02f3 0ebc 6a3c eb3c
000001f0: bf9f dfb8 ca05 923c 7012 473c 818e 343c
00000200: f361 07bc b542 a33b b9bb 1dba c8d4 64bb
00000210: 7f41 b7b8 2697 baba a45a 97bb 5e9a 1f3a
00000220: c10d 483b a806 f93b c510 74bb 16bb 7dbb
00000230: edee 59ba 973e 02bd a061 c3bb 732d 40ba
00000240: 66d2 cbbb e3ca ab3b 0be6 34bc 54c3 43bb
00000250: dd73 993a 3265 813b 81c8 63bc e419 ed3b
00000260: 2774 48bb 2b81 01bb 59d6 9f3b 3df5 523c
00000270: b86f 6ebb cd1c 5a3b 6ac0 083b c23d 113a
00000280: 8d28 4cbb 3b88 d63b de73 743b b3c2 8b38
00000290: e6d0 b63b bada e83a 21b7 4a3b 81a3 7d3b
000002a0: bd88 003c 93fd cfbb 33a5 3cbc 1f95 e1ba
000002b0: c344 483b 6b03 86bc 6c16 1cba 824e a33b
000002c0: dabc 85bb 0c02 c63b 0c30 39bc f1d4 cdb9
000002d0: ecc2 91b8 61e2 12bb 497b cdbb c3b8 c13b
000002e0: 2200 1fba a505 92bb b1b1 ffbb f978 983c
000002f0: 849b 26bc d295 5ebb c224 103c 9f33 bc3b
00000300: 4424 5d3d 3146 52bb 7862 11bc adb1 663d
00000310: 7dbe 933c e4ce 1c3c d012 edba e5e2 473d
00000320: 18ff dfbb a9b9 81bd 22c9 25bd 6fc7 c33d
00000330: 0c25 c63a e76d 913d 69d8 51bb fcc6 c5bc
00000340: 90b3 213d 870f 4e3d 2d6a 1b3d 343b 6e3c
00000350: 7f27 823d 133e 313c a7a5 b7bc efb7 17bc
00000360: 4b74 b23c 693d 823a 951d 74bd a40d 263d
00000370: c0b4 64bb d06b 66bd 8acd 8e3d ef80 dabc
00000380: cd0c aabb 3d1b c1ba 2b3e 9ebb 3551 a5b9
00000390: 75b3 d53a d053 05b8 1887 1f3c 3be4 da3a
000003a0: 9b0c 25bb 8717 80bb d921 93bb 6474 c63a
000003b0: f8db e6ba e5ef 1fbc 9000 863b eade 11bb
000003c0: df52 983b b452 ef3a 69e5 7bbb 5993 c53b
000003d0: 8f3a 9f3b 26cd 1cbc 5328 9cbb f8ee ef3a
000003e0: 5f0c 32bb 68a7 67bb 9022 babb ccd0 e93b
000003f0: 9db6 afba 3c5a 9cbb 4050 e93b 8906 903b

lstm.bias_ih_l1 f4 [128]
0.04813683 -0.09475416 -0.017011883 -0.03773317 -0.06479494 0.034134977 -0.11553839 -0.026948335
-0.051455643 -0.07174015 0.10986398 0.022862323 -0.04614957 0.065340504 0.009899626 -0.09189561
-0.038773067 0.03691581 0.01892028 -0.043180536 0.021944033 -0.03556459 -0.11079573 -0.1241317
-0.059731975 0.02767127 0.05269085 0.05695908 -0.0005046156 -0.052869197 -0.070658155 -0.03298044
-0.038037144 -0.08906108 -0.05842547 -0.10396219 0.003739434 -0.07424331 -0.04304981 -0.009124307
-0.04716737 -0.08274792 0.015517294 0.0022360696 -0.018574402 0.005169441 0.013922683 -0.06599994
-0.0028738088 -0.080789596 -0.13414763 -0.034974866 -0.025338683 0.026292238 -0.10416045 0.007103681
-0.04070159 0.001187994 0.10371639 -0.039399453 -0.021442188 -0.055332348 -0.0687518 0.006874908
-0.10460612 -0.051969707 -0.14256802 0.1183626 -0.012514071 0.04676784 0.062753074 0.017036948
0.07655256 -0.044905074 -0.016934616 -0.014219669 0.08219729 0.20462464 -0.094255365 0.056731034
0.04991504 -0.043315284 0.043575622 0.021959672 0.06939695 0.1353049 0.15224163 -0.041740373
0.06260203 -0.055180218 0.1250968 -0.11185261 -0.020128757 0.12036732 -0.13744082 -0.048510227
-0.083312266 0.014671236 -0.12429821 0.03967384 -0.10142716 -0.10521014 0.10526398 -0.030285629
-0.05146288 0.01939133 -0.03096706 -0.0021110005 -0.021574248 -0.10404672 -0.009787515 -0.018091824
-0.08797964 0.06385152 0.051414367 -0.03984272 0.028127586 -0.041514218 -0.049067818 -0.05948389
-0.03581469 -0.012320166 -0.033977196 -0.08133564 -0.07874296 -0.101933755 -0.12696815 -0.035540394
00000000: 202b 453d 780e c2bd 815c 8bbc 198e 1abd
00000010: 36b3 84bd 1ed1 0b3d 649f ecbd c1c2 dcbc
00000020: 27c3 52bd 80ec 92bd 5e00 e13d c449 bb3c
00000030: 5507 3dbd 3ed1 853d 0a32 223c c433 bcbd
00000040: 82d0 1ebd 0835 173d b4fe 9a3c 13de 30bd
00000050: f9c3 b33c 2dac 11bd dfe8 e2bd c338 febd
00000060: 84a9 74bd dcae e23c 5cd2 573d ed4d 693d
00000070: 2e48 04ba 5f8d 58bd 39b5 90bd 7f16 07bd
00000080: d6cc 1bbd a865 b6bd 8c4f 6fbd 21ea d4bd
00000090: 4b11 753b e00c 98bd ff54 30bd 1e7e 15bc
000000a0: 9232 41bd be77 a9bd 403c 7e3c 068b 123b
000000b0: 5829 98bc 6a64 a93b f71b 643c fa2a 87bd
000000c0: 8356 3cbb 0475 a5bd ff5d 09be ce41 0fbd
000000d0: 1293 cfbc d262 d73c 1352 d5bd ffc5 e83b
000000e0: b6b6 26bd 77b6 9b3a 4269 d43d 5261 21bd
000000f0: 87a7 afbc 2ca4 62bd becd 8cbd e946 e13b
00000100: bc3b d6bd 30de 54bd 5afd 11be 1768 f23d
00000110: d107 4dbc a28f 3f3d af84 803d 1291 8b3c
00000120: 97c7 9c3d 62ee 37bd 77ba 8abc 9df9 68bc
00000130: 0e57 a83d 1f89 513e f508 c1bd cd5e 683d
00000140: b773 4c3d 5e6b 31bd 5a7c 323d c5e4 b33c
00000150: fd1f 8e3d 5e8d 0a3e 3be5 1b3e f4f7 2abd
00000160: 7e35 803d a704 62bd 6019 003e fb12 e5bd
00000170: 10e5 a4bc 2483 f63d 49bd 0cbe a9b2 46bd
00000180: 9f9f aabd a05f 703c 0f90 febd 0981 223d
00000190: 0bb9 cfbd 6a78 d7bd a494 d73d 9119 f8bc
000001a0: beca 52bd 91da 9e3c a2ae fdbc b658 0abb
000001b0: 7abc b0bc 7216 d5bd d05b 20bc 4e35 94bc
000001c0: ab2e b4bd 96c4 823d df97 523d 1f32 23bd
000001d0: d36b e63c d00a 2abd 56fb 48bd 61a5 73bd
000001e0: 6db2 12bd 86da 49bc ac2b 0bbd 4d93 a6bd
000001f0: fd43 a1bd a5c2 d0bd f003 02be ce92 11bd

lstm.bias_hh_l1 f4 [128]
-0.00020719388 0.09656166 -0.12497641 0.00015599479 -0.0035562546 -0.09843565 -0.021203158 -0.051861156
-0.08282894 -0.06268418 0.0206123 -0.052006144 -0.11836005 -0.04992205 -0.03842181 -0.00942928
-0.06974971 -0.12945038 -0.11382325 -0.06187204 -0.055569615 0.00062797806 -0.01982587 -0.01879607
-0.06468162 -0.08409878 0.058900606 0.029297 -0.07430519 0.016712336 0.027642801 0.01922722
-0.06370554 0.057255883 0.09166502 0.027998833 -0.069586456 -0.015111603 -0.110157736 -0.016564362
-0.031018686 -0.047558356 -0.08633704 -0.05826765 -0.03470297 -0.10139731 -0.028369064 -0.052282084
-0.062239196 -0.00781912 -0.083508946 -0.048273683 -0.04016929 -0.01190441 0.0045680706 0.18593292
-0.039124172 -0.09666502 -0.10978985 -0.07403134 -0.023387361 -0.0416568 -0.04898269 -0.019413974
0.0942367 0.10758748 0.1396163 -0.10745813 0.038216498 -0.14321831 0.004842111 -0.14171804
-0.09254342 -0.014436223 -0.110937364 -0.07368476 -0.0489127 0.13917038 -0.08451203 0.10522491
-0.023572896 -0.08623357 0.10966637 -0.016142476 0.0732593 -0.06457803 -0.0091194045 0.11374597
0.035876077 0.06372926 -0.15685308 -0.07730233 0.055385534 0.0036392463 0.026267773 -0.03317861
0.016822848 -0.05617631 -0.061770704 -0.050067935 -0.085808024 0.020515501 -0.08579064 -0.077592954
0.00429904 0.13637412 0.025804864 0.08439423 -0.041072756 -0.07993395 0.0011762818 -0.06942862
0.017948356 -0.044544388 -0.0035997399 -0.07460097 -0.07679818 -0.01633067 -0.11641187 0.13500969
-0.04899278 -0.049065225 -0.091158055 0.045402236 -0.030845232 -0.052134223 -0.032039933 -0.048789755
00000000: 2f42 59b9 1fc2 c53d a2f3 ffbd 8892 2339
00000010: 0d10 69bb a198 c9bd 3fb2 adbc 5d6c 54bd
00000020: 38a2 a9bd 9060 80bd 20db a83c 6504 55bd
00000030: c166 f2bd 107b 4cbd 3060 1dbd 447d 1abc
00000040: f0d8 8ebd a48e 04be 2a1c e9bd 896d 7dbd
00000050: f79c 63bd e59e 243a dd69 a2bc 37fa 99bc
00000060: cc77 84bd fb3b acbd c341 713d 4300 f03c
00000070: 522d 98bd 4fe8 883c 2873 e23c 6782 9d3c
00000080: 0d78 82bd 2585 6a3d dfba bb3d cf5d e53c
00000090: 5883 8ebd a896 77bc 619a e1bd fcb1 87bc
000000a0: e61a febc 8dcc 42bd 79d1 b0bd 0faa 6ebd
000000b0: b424 0ebd 65a9 cfbd 3d66 e8bc bd25 56bd
000000c0: 87ee 7ebd c41b 00bc bd06 abbd a0ba 45bd
000000d0: 8e88 24bd b70a 43bc c1af 953b 3365 3e3e
000000e0: ab40 20bd 4ff8 c5bd 80d9 e0bd be9d 97bd
000000f0: da96 bfbc 52a0 2abd 13a2 48bd 0e0a 9fbc
00000100: 2cff c03d d356 dc3d 93f7 0e3e 0213 dcbd
00000110: e788 1c3d d2a7 12be 92aa 9e3b 891e 11be
00000120: 6887 bdbd e885 6cbc 2133 e3bd 09e8 96bd
00000130: af58 48bd ae82 0e3e a514 adbd 2880 d73d
00000140: f21b c1bc 3a9b b0bd c398 e03d 3a3d 84bc
00000150: f908 963d 7c41 84bd 8e69 15bc a6f3 e83d
00000160: cbf2 123d 7c84 823d 189e 20be af50 9ebd
00000170: f1db 623d 6c80 6e3b 832f d73c 4be6 07bd
00000180: 12d0 893c 2119 66bd 4703 7dbd 0914 4dbd
00000190: 1ebc afbd 2010 a83c 01b3 afbd 0ee9 9ebd
000001a0: f6de 8c3b a8a5 0b3e b964 d33c e2d6 ac3d
000001b0: e83b 28bd 69b4 a3bd 782d 9a3a 9830 8ebd
000001c0: 6e08 933c 2d74 36bd 9de9 6bbb 65c8 98bd
000001d0: 5d48 9dbd e6c7 85bc 5969 eebd fb3f 0a3e
000001e0: a7ac 48bd 9ef8 48bd 13b1 babd b2f7 393d
000001f0: 24af fcbc b28a 55bd 4e3c 03bd c4d7 47bd

lstm.weight_ih_l2 f4 [128, 32]
-0.06744746 0.025224056 0.0057570124 0.04493465 0.036844965 -0.03226649 0.0136097 -0.006007159
0.028095 -0.07182428 0.055333715 0.058321852 0.02196332 0.0017606181 -0.053362954 0.022708295
-0.028092029 0.012286815 -0.028111337 0.01772404 0.056172866 0.071380444 0.05371626 0.07725082
0.04098582 -0.0100508295 -0.03374076 -0.05321517 0.03352285 0.055764295 0.0031147157 -0.020513479
0.019971546 0.020404316 0.009449992 0.032681104 -0.017503215 0.024610184 0.020876888 -0.0056733657
-0.006223052 -0.003164902 -0.045608778 -0.019532591 0.0050842525 -0.021987977 -0.01695319 0.0044388664
-0.005014394 0.012023856 -0.00880819 -0.0038346134 0.039828002 0.016405355 0.010159193 -0.006232339
0.022128163 -0.018249774 0.016750917 0.056997728 -0.023764232 0.0047375746 0.010924296 0.021871882
0.0076184203 -0.007480331 -0.008180857 0.0023081647 -0.0032056323 0.0076380977 -0.004869067 -0.0016189122
0.0044547203 0.01116207 0.0043836003 -0.00725375 0.004847733 0.0012918712 0.013624005 0.00046498334
0.0122357495 -0.013064292 -0.010062911 -0.0004616407 0.00064125244 0.014086109 -0.0006712388 -0.024827583
0.006462958 -0.0075390227 -0.0062705874 0.025731329 0.0005429275 0.008709162 -0.0043789884 0.0039001177
-0.027380781 0.019642651 0.044721764 0.0145200575 0.037701953 -0.015503994 0.0003441369 0.0071028066
0.04895701 0.0011909581 -0.031099135 -0.047033254 -0.00058357825 -0.009150344 0.002420213 0.010450398
0.017639872 -0.011448958 -0.083799474 0.010807597 0.004414661 0.017573655 0.019065736 0.10128535
0.012067621 0.015711045 -0.056460943 0.037231818 -0.001118034 -0.007931416 0.00032755575 -0.009024083
-0.005194502 -0.0017609866 -0.009249352 0.014947014 0.007876834 0.016908124 0.0013293845 -0.015404165
0.009542857 -0.013366447 -0.009953424 -0.01777421 -0.0014868818 -0.008962224 0.0033292419 0.01035331
0.0007329137 -0.00095692935 -0.020540152 0.004757457 0.017267669 -0.005920068 0.005753697 0.007573949
0.0022674662 -0.019096214 -0.0055514206 0.024207996 -0.012200499 -0.017749919 -0.0031037545 0.0024618616
-0.06663859 -0.019562459 -0.04300236 -0.0380878 -0.041426193 0.00666695 -0.019752432 0.03946204
0.023881702 0.07598602 0.05403238 -0.0129765235 0.015532083 0.027532814 0.02325959 -0.0026372676
-0.0045672213 0.036628235 -0.020598408 0.020928817 0.015610503 -0.02258114 0.008080808 0.05629586
0.017894723 -0.0075708795 -0.040842205 0.083913706 0.012179401 -0.025104392 -0.11291441 0.036027763
0.0008564655 0.016999625 0.011432063 0.0052932138 0.0061019706 0.0025592532 -0.002475032 0.0036519167
0.014007743 -0.011007484 -0.018835846 -0.018130578 0.002733474 -0.012158777 -0.007031362 0.0093344655
-0.0066320635 0.0034289989 -0.016800052 0.0009793778 0.0065763798 0.008724227 -0.003159523 0.03779007
0.0050851735 -0.0055139926 -0.004521967 0.01546206 -0.009043851 -0.002646944 0.00070543366 -0.002843612
-0.008091819 0.005135561 -0.00058127707 0.0028450051 0.0034113326 2.3711154e-05 -0.0027691082 -0.0052730488
0.005701791 -0.013132345 -0.017280092 -0.009406092 -0.002158565 -0.0078756055 -0.0049191825 0.0014746409
-0.0038097957 0.0022457296 -0.012512697 0.0033563052 0.008717816 0.0070072436 -0.009488368 0.016406093
-0.00080932776 -0.0018915837 0.0018736924 0.008971805 -0.0049670185 -0.0043472173 -0.0011309646 0.0029296242
00000000: e521 8abd aea2 ce3c 52a5 bc3b 650d 383d
00000010: bfea 163d de29 04bd 38fb 5e3c b4d7 c4bb
00000020: 7c27 e63c 9c18 93bd 9ba5 623d e5e2 6e3d
00000030: 6cec b33c 8ac4 e63a 1d93 5abd bf06 ba3c
00000040: 4121 e6bc a34e 493c bf49 e6bc 0232 913c
00000050: 8515 663d e92f 923d 9505 5c3d ae35 9e3d
00000060: bfe0 273d 3cac 24bc c033 0abd 26f8 59bd
00000070: 424f 093d 1a69 643d 4220 4c3b e20b a8bc
00000080: 5e9b a33c f426 a73c 24d4 1a3c 9fdc 053d
00000090: e762 8fbc 4c9b c93c 0206 ab3c a4e7 b9bb
000000a0: beea cbbb 3f6a 4fbb 45d0 3abd d002 a0bc
000000b0: cd99 a63b 2120 b4bc 6be1 8abc e973 913b
000000c0: c94f a4bb b5ff 443c 3a50 10bc 234e 7bbb
000000d0: b022 233d 8664 863c be72 263c a638 ccbb
000000e0: 1f46 b53c 8d80 95bc 3839 893c 7376 693d
000000f0: 35ad c2bc a83d 9b3b d2fb 323c a92c b33c
00000100: f1a3 f93b 911d f5bb 0009 06bc 9444 173b
00000110: 9615 52bb 0249 fa3b b28c 9fbb ae31 d4ba
00000120: e7f8 913b 1de1 363c 4ea4 8f3b deb0 edbb
00000130: bbd9 9e3b 0154 a93a 3837 5f3c 02c9 f339
00000140: 7478 483c 9d0b 56bc e8de 24bc 5e08 f2b9
00000150: b919 283a 6cc9 663c 13f6 2fba 3763 cbbc
00000160: 39c7 d33b e809 f7bb 8079 cdbb 82ca d23c
00000170: 3f53 0e3a dfb0 0e3c 9e7d 8fbb 1e99 7f3b
00000180: a94d e0bc a0e9 a03c 2b2e 373d 89e5 6d3c
00000190: 5d6d 1a3d 7704 7ebc 466d b439 a9be e83b
000001a0: 2587 483d ec19 9c3a 9dc3 febc f1a5 40bd
000001b0: 46fb 18ba 53eb 15bc 709c 1e3b 2538 2b3c
000001c0: 7e81 903c 6994 3bbc 0f9f abbd 5912 313c
000001d0: dca8 903b a0f6 8f3c bf2f 9c3c b26e cf3d
000001e0: 45b7 453c 73b4 803c 9743 67bd 6480 183d
000001f0: ff8a 92ba c5f2 01bc cabb ab39 bfd9 13bc
00000200: a436 aabb e8d0 e6ba 988a 17bc 52e4 743c
00000210: d60d 013c e882 8a3c be3e ae3a c061 7cbc
00000220: a559 1c3c f1fe 5abc b013 23bc 389b 91bc
00000230: 79e3 c2ba 4bd6 12bc 692f 5a3b eea0 293c
00000240: 0121 403a 71da 7aba d243 a8bc 71e4 9b3b
00000250: ed74 8d3c 21fd c1bb 8289 bc3b e42e f83b
00000260: c599 143b aa6f 9cbc b1e8 b5bb d94f c63c
00000270: 9ae4 47bc 4768 91bc 5c68 4bbb 2f57 213b
00000280: d079 88bd 7341 a0bc 3e23 30bd f401 1cbd
00000290: 83ae 29bd 6e76 da3b dacf a1bc f3a2 213d
000002a0: 8fa3 c33c 8f9e 9b3d 0f51 5d3d 7c9b 54bc
000002b0: 477a 7e3c 7f8c e13c e58a be3c 02d6 2cbb
000002c0: a1a8 95bb 7d07 163d febd a8bc e972 ab3c
000002d0: 32c3 7f3c 15fc b8bc 5e65 043c 7d96 663d
000002e0: f497 923c 2415 f8bb 284a 27bd f3da ab3d
000002f0: 1c8c 473c baa7 cdbc ac3f e7bd d991 133d
00000300: 6d84 603a cc42 8b3c 8c4d 3b3c b272 ad3b
00000310: 0af3 c73b 25b9 273b 2534 22bb ff54 6f3b
00000320: bc80 653c bc58 34bc a24d 9abc 9486 94bc
00000330: 1524 333b 9b35 47bc 5767 e6bb 96ef 183c
00000340: c851 d9bb 0eb9 603b 43a0 89bc 775e 803a
00000350: ac7e d73b 0ff0 0e3c 0010 4fbb c3c9 1a3d
00000360: 87a1 a63b b9ae b4bb 022d 94bb 9554 7d3c
00000370: a92c 14bc 5a78 2dbb daec 383a e55b 3abb
00000380: 8c93 04bc 3548 a83b d860 18ba 4473 3a3b
00000390: aa90 5f3b 51e7 c637 ed79 35bb 8ac9 acbb
000003a0: 17d6 ba3b 0c29 57bc fb8e 8dbc 021c 1abc
000003b0: b676 0dbb af08 01bc 1831 a1bb bd48 c13a
000003c0: c4ad 79bb 172d 133b 0e02 4dbc 75f5 5b3b
000003d0: 2cd5 0e3c 059d e53b 1a75 1bbc 1266 863c
000003e0: 1129 54ba 04ef f7ba af96 f53a 7afe 123c
000003f0: 5fc2 a2bb 1a73 8ebb e03c 94ba f0fe 3f3b
