checkpoints/2023-09-09_01-43-28_checkpoint.pth (torch, 261531 bytes, 19 tensors)

bn.weight f4 [309]
000000 b1 de 69 3f 2c d3 9c 3f 4f 7b 9a 3f 27 da 7c 3f
       0.91355425 1.2251945 1.2068881 0.98770374
000010 fb ee 95 3f 87 65 8e 3f 39 0b 73 3f a6 a6 5a 3f
       1.1713556 1.1124734 0.94939 0.85410535
000020 dc c9 65 3f 88 20 4b 3f b4 1b 5d 3f 95 17 56 3f
       0.8976114 0.79346514 0.86370397 0.83629733
000030 1c 95 58 3f 93 ec 65 3f c8 bd 5f 3f 57 35 4b 3f
       0.8460252 0.8981411 0.8739896 0.79378265
000040 51 86 44 3f 38 8e 4b 3f ed 4a 5f 3f a2 4d 63 3f
       0.7676745 0.79513884 0.872237 0.88790333
000050 d1 30 61 3f 76 6f 60 3f 1e 25 59 3f ce b4 59 3f
       0.8796511 0.87670076 0.8482226 0.8504151
000060 97 e5 59 3f 9e da 5a 3f d9 54 51 3f cf 30 5d 3f
       0.8511595 0.85489833 0.8177009 0.864026
000070 12 57 59 3f e6 3e 55 3f 26 c4 62 3f 5c 5e 60 3f
       0.84898484 0.832991 0.8858055 0.8764398
000080 91 a5 61 3f bc 14 5f 3f ea 78 5d 3f a3 65 5e 3f
       0.8814326 0.87141013 0.86512625 0.86873835
000090 95 5e 4e 3f 5d 75 5e 3f 3e 03 72 3f 8c 4f 52 3f
       0.8061307 0.8689783 0.945362 0.8215263
0000a0 4a 7e 59 3f d3 66 50 3f 6e 68 61 3f 10 18 6c 3f
       0.84958327 0.814069 0.8804997 0.92224216
0000b0 7d 96 50 3f 07 ea 58 3f f9 cc 57 3f 11 d6 5a 3f
       0.81479627 0.847321 0.8429714 0.8548289
0000c0 af 9b 5a 3f 60 67 5a 3f f0 b9 5d 3f 75 59 69 3f
       0.85393804 0.8531399 0.86611843 0.91152126
0000d0 1e 0e 65 3f 9b a3 5b 3f 89 c8 57 3f c3 d4 4c 3f
       0.89474666 0.8579652 0.8429037 0.8001215
0000e0 70 fb 5b 3f 48 8c 56 3f 5b 3a 54 3f 24 5d 4f 3f
       0.8593054 0.838078 0.82901543 0.81001496
0000f0 8d e9 60 3f 95 ad 63 3f 99 6c 48 3f ee be 70 3f
       0.8785637 0.8893674 0.78290707 0.94041336
000100 5f fe 6e 3f fa 22 5f 3f 4b 86 5e 3f 0d ee 81 3f
       0.9335689 0.87162745 0.86923665 1.0150772
000110 b3 41 52 3f 4d 3e 6b 3f 2f a9 5d 3f 33 1f 55 3f
       0.821315 0.9189194 0.8658628 0.8325073
000120 60 d1 6a 3f 3e e2 66 3f 06 41 6f 3f ee 43 64 3f
       0.9172573 0.9018897 0.9345859 0.8916615
000130 00 dd 77 3f 16 14 65 3f 97 44 65 3f ad 9b 5b 3f
       0.96821594 0.89483774 0.89557785 0.8578442
000140 7a 75 78 3f 42 97 71 3f 44 e6 63 3f ea 3d 5e 3f
       0.97054255 0.94371426 0.8902323 0.86813223
000150 da 61 6d 3f 44 c9 64 3f fc 79 70 3f b8 27 70 3f
       0.92727435 0.89369607 0.93936133 0.93810606
000160 77 63 6f 3f 2b f3 6c 3f b3 e1 6c 3f 3d f8 66 3f
       0.93511146 0.92558545 0.9253189 0.9022253
000170 b9 70 6d 3f bb d1 6e 3f 59 54 73 3f 11 4b 49 3f
       0.92750126 0.93288773 0.9505058 0.7863017
000180 f7 5a 58 3f 39 6a 63 3f 3e 9a 5a 3f 6a af 52 3f
       0.845138 0.8883396 0.85391605 0.8229891
000190 04 f2 75 3f 4b 19 6f 3f 85 9f 61 3f b3 07 62 3f
       0.9607241 0.9339797 0.8813403 0.88293
0001a0 ec 24 80 3f 38 b7 78 3f c6 54 58 3f 3b c9 57 3f
       1.0011268 0.9715457 0.84504354 0.8429143
0001b0 d2 c9 4d 3f 06 f1 55 3f 6e 0e 57 3f c0 91 55 3f
       0.8038608 0.835709 0.8400639 0.8342552
0001c0 95 7d 56 3f eb 4b 47 3f 13 b4 49 3f 84 4a 6d 3f
       0.8378537 0.77850217 0.78790396 0.92691827
0001d0 e2 af 57 3f 16 7f 74 3f 66 55 65 3f aa 41 6a 3f
       0.8425275 0.9550642 0.8958343 0.91506445
0001e0 16 23 6d 3f a2 f9 64 3f fc 9f 59 3f fb fa 62 3f
       0.9263166 0.8944341 0.8500974 0.88664216
0001f0 e4 8f 63 3f d4 05 59 3f a1 95 64 3f a2 7a 52 3f
       0.88891435 0.8477452 0.89290816 0.8221837
000200 cd 47 67 3f 30 55 67 3f 31 d4 56 3f 93 83 53 3f
       0.90343934 0.9036436 0.8391753 0.8262264
000210 ce 0e 6d 3f cc e0 5a 3f c7 75 52 3f cd 07 52 3f
       0.92600715 0.8549926 0.82210964 0.82043153
000220 6b 87 64 3f 9f 0b 57 3f 58 c5 62 3f fe 82 54 3f
       0.8926913 0.8400211 0.8858237 0.8301238
000230 2d 38 50 3f 0f 9e 5b 3f f7 d0 61 3f 17 a2 53 3f
       0.8133572 0.85788053 0.8820948 0.82669204
000240 4c b6 5b 3f 71 00 67 3f 58 68 58 3f f3 1a 63 3f
       0.8582504 0.9023505 0.84534216 0.88712996
000250 ba b5 5c 3f ea 7f 5c 3f 0f c7 55 3f e9 7c 5a 3f
       0.8621479 0.8613268 0.83506864 0.8534685
000260 c8 a4 4c 3f 48 ae 4e 3f d0 aa 56 3f 75 7c 58 3f
       0.79938936 0.8073468 0.8385439 0.84564906
000270 39 0f 6a 3f 31 b2 4c 3f 56 87 5e 3f a0 f1 52 3f
       0.9142948 0.799594 0.86925256 0.8239994
000280 39 0e 52 3f a3 72 5b 3f 0d ec 4a 3f 4d bc 63 3f
       0.8205295 0.85721797 0.79266435 0.889592
000290 2d 0a 5e 3f 26 99 6c 3f 99 77 61 3f 41 ff 63 3f
       0.86734277 0.92421186 0.88073117 0.8906136
0002a0 4c 07 49 3f 29 69 56 3f de 7d 4e 3f 92 d5 58 3f
       0.7852676 0.8375421 0.8066081 0.8470088
0002b0 ae 35 5e 3f 59 ff 50 3f 57 2a 67 3f 69 89 5c 3f
       0.8680066 0.8163963 0.9029898 0.8614717
0002c0 a9 52 62 3f 56 e3 63 3f 47 f7 64 3f 21 9f 5c 3f
       0.8840738 0.8901876 0.89439815 0.8618031
0002d0 f0 ac 6b 3f 37 84 67 3f 3e 9b 69 3f 92 50 78 3f
       0.92060757 0.9043612 0.91252506 0.9699794
0002e0 52 9d 70 3f 55 ac 69 3f 0b 98 6e 3f 18 f0 62 3f
       0.9399005 0.9127858 0.9320075 0.88647604
0002f0 91 d5 67 3f b1 e1 6c 3f 56 5e 68 3f 83 a6 64 3f
       0.9056025 0.9253188 0.90768945 0.89316577
000300 6a 2c 64 3f a0 0a 72 3f 95 20 68 3f 63 f3 66 3f
       0.8913027 0.9454746 0.90674716 0.9021513
000310 2a 08 6e 3f 27 79 6d 3f b9 ef 72 3f 2a 18 6c 3f
       0.9298121 0.9276299 0.9489704 0.9222437
000320 6f b2 68 3f 10 5a 71 3f b4 61 5a 3f c1 c6 64 3f
       0.9089727 0.9427805 0.85305333 0.89365774
000330 11 0b 61 3f f1 ab 5e 3f b9 52 59 3f bf 60 50 3f
       0.8790751 0.8698111 0.8489185 0.8139762
000340 59 8a 4e 3f ed 59 5a 3f c6 60 54 3f 55 a0 53 3f
       0.8067985 0.85293466 0.82960165 0.8266652
000350 4a 17 66 3f ff ee 61 3f 14 de 60 3f f3 37 53 3f
       0.89879286 0.88255304 0.87838864 0.82507247
000360 52 2f 4b 3f 9e b3 53 3f 83 3a 55 3f e4 26 66 3f
       0.7936908 0.8269595 0.83292407 0.8990309
000370 27 8a 59 3f 2a bc 66 3f a9 17 64 3f 18 c2 61 3f
       0.8497643 0.90130866 0.890986 0.8818679
000380 52 d6 71 3f d6 c0 5e 3f 19 71 5e 3f 01 b3 67 3f
       0.9446765 0.87012994 0.86891323 0.90507513
000390 ad ea 4a 3f b8 f2 6c 3f 1a eb 53 3f 2a 19 66 3f
       0.79264337 0.9255786 0.8278061 0.8988215
0003a0 8b 88 66 3f e3 8b 62 3f d1 d5 71 3f 49 ab 60 3f
       0.900521 0.884947 0.9446688 0.8776136
0003b0 14 32 59 3f 8b 78 5b 3f 04 d6 5d 3f ad 46 4e 3f
       0.8484204 0.8573081 0.86654687 0.8057659
0003c0 f2 f7 56 3f a6 f1 52 3f a1 eb 5e 3f ec 32 47 3f
       0.83972085 0.82399976 0.8707829 0.77812076
0003d0 55 21 66 3f 14 a9 60 3f b4 b5 5e 3f 09 d1 62 3f
       0.8989461 0.8775799 0.86996007 0.8860021
0003e0 46 0d 5a 3f 33 58 6d 3f 58 f9 58 3f 74 f5 67 3f
       0.85176504 0.92712706 0.8475547 0.90608907
0003f0 be d6 61 3f eb 67 56 3f 4d 7e 5e 3f d4 83 63 3f
       0.88218296 0.83752316 0.8691147 0.8887303

bn.bias f4 [309]
000000 ce 62 60 3c 92 77 8f bc 89 66 07 bd 5c ec 03 3c
       0.013695432 -0.01751307 -0.03305677 0.008051958
000010 20 3c 0c bc 7a 91 b4 bb 07 c6 b4 bd 5f d8 24 3d
       -0.008559257 -0.005510506 -0.08826833 0.04024541
000020 a8 31 12 bc 59 db d8 3c d5 a7 c1 bc bd 24 1e 3d
       -0.008922972 0.02647178 -0.023639599 0.038609255
000030 7e 28 3b bd 4c 7b 60 bd 6d 1e 51 3d 0b 4b 8a bc
       -0.045692913 -0.054805085 0.051054407 -0.016881486
000040 c9 30 9c 3d 7e e6 79 bd 2c 95 c5 3c 26 e2 06 bd
       0.076264925 -0.06101083 0.024118982 -0.032930516
000050 37 43 61 3c f8 8a b9 3c 8c d2 8e bc 9d 5a 47 bc
       0.013748935 0.022649273 -0.017434381 -0.0121676
000060 70 de d0 3d d8 cb b1 3c 07 99 8e 3d 78 f1 0b bd
       0.101986766 0.021703646 0.069627814 -0.03416583
000070 46 df cb 3d ef d0 21 3b 93 2b 30 bb af 52 c7 bd
       0.099546954 0.0024691185 -0.002688144 -0.097325675
000080 be c1 dd bc 94 00 93 3c ba 0b 35 bc 07 36 a7 bb
       -0.027069923 0.017944612 -0.011050159 -0.005102876
000090 ad d7 6e 3d 72 24 c7 bc d3 61 85 ba d6 eb 0e bd
       0.058311153 -0.02430937 -0.0010176249 -0.03489288
0000a0 ba 8e 0d bd a4 37 c5 bc f7 98 86 bc 02 c0 b3 bc
       -0.034559943 -0.024074383 -0.016430361 -0.021942142
0000b0 b6 a8 cc bb 84 f8 17 3d 60 9f 8f bd 25 70 77 3c
       -0.006245698 0.037102237 -0.0701282 0.015102421
0000c0 10 0f 69 3c d4 5c c4 3c 84 7b f6 3c 93 e7 4c 3c
       0.014224783 0.023970045 0.030088194 0.0125063835
0000d0 f2 c7 66 bb 33 9d 52 3d be a0 3d bd 5e 2f 16 3d
       -0.0035214392 0.051419448 -0.046295874 0.036666267
0000e0 41 e1 9c 3c d8 2b 30 3d 02 a8 89 3c d0 8a cd bc
       0.019150378 0.043010563 0.016803745 -0.025090605
0000f0 64 14 a4 3b 0e 95 9c bc 57 de 34 bd 0e 9f be 3c
       0.0050073136 -0.019114044 -0.044157352 0.023269203
000100 ed 24 13 bd cb 52 63 bc 0e cc 2b bd 6c 11 21 3d
       -0.035923887 -0.01387472 -0.04194265 0.039323255
000110 9f d4 d0 3c f5 8b 45 3d 31 af ed 3c bf 6a df 3c
       0.02549201 0.048229177 0.029014202 0.02727258
000120 fe a0 93 bd fa ff 34 3d 62 bb a9 3d e3 93 b9 3b
       -0.07208441 0.04418943 0.082876936 0.0056633814
000130 f8 32 f8 3a 7b d5 cb bb 41 51 5a bb b7 fa 21 3d
       0.0018936088 -0.006220517 -0.0033312591 0.03954574
000140 fe b5 de bb 87 e3 83 ba 37 6a 8c 3c 79 9b 30 3d
       -0.0067965975 -0.0010062315 0.017140491 0.04311702
000150 08 c9 19 3c b1 ea 96 bc fb fb 01 bd 3b dc 05 bc
       0.0093863085 -0.018422456 -0.031734448 -0.008170183
000160 3e a6 b4 3c 5d fb 3c 3d 0f c2 27 bd 44 ff 26 bc
       0.022051927 0.046138156 -0.040956553 -0.010192696
000170 49 3c 07 bd 64 b0 34 3d 14 03 20 bb 40 61 db bc
       -0.033016477 0.04411353 -0.0024415897 -0.02677977
000180 54 26 11 3b b5 a4 c5 3c dc b1 c7 3b 24 f7 aa bd
       0.002214809 0.02412639 0.0060942005 -0.083479196
000190 85 3e 9e bc b7 7e 6f bc 55 2d 29 bd ab e2 18 3c
       -0.019316921 -0.0146176135 -0.041302998 0.009331386
0001a0 44 64 6e bc 69 96 eb 3c d4 69 12 3c a5 3c 03 3c
       -0.014550272 0.028758245 0.008936364 0.008010064
0001b0 3b c1 6f 3c 66 cd 1d 3d c1 a6 68 3c 5b 27 b7 3c
       0.014633472 0.03852596 0.0141999135 0.022357633
0001c0 b2 01 93 3c 63 49 48 bc 34 db 93 bd 0f 92 25 bd
       0.017945144 -0.012224528 -0.07219544 -0.040422495
0001d0 80 f9 24 3b 57 c5 b9 3c 84 37 b7 3c cf ac 86 bd
       0.0025173128 0.022677107 0.02236534 -0.065759294
0001e0 08 9b 93 bd 7a df 55 bc 12 21 4d 3d 5b 3c bb 3b
       -0.07207304 -0.013053769 0.050080366 0.005713982
0001f0 4d 26 35 bc bc c3 cf bd b3 5d c4 bd 15 80 92 3c
       -0.011056495 -0.10144755 -0.09588184 0.01788334
000200 28 1c 3b 3d cd aa 82 bc 20 6f 26 bd a8 e0 c7 bc
       0.04568115 -0.015950585 -0.04063332 -0.024399117
000210 7c 8e 78 3c 50 1e 3a 3d 9d d0 ca 3b 3f 6b a6 3c
       0.01517069 0.045439065 0.0061894194 0.02031481
000220 53 5c d3 3c 80 f7 18 bd 17 a4 cc bd 12 65 ff 3c
       0.02580086 -0.03734541 -0.09992235 0.031176124
000230 fa 3a 87 bc 9c f0 04 3d 72 3b 0c bd 2c 64 6d bb
       -0.016507614 0.032456025 -0.03423638 -0.0036223037
000240 5c a6 8b bd 86 6d a3 bd 73 2c 68 3d b6 ac 8d bd
       -0.0681884 -0.07979874 0.056683015 -0.069177076
000250 64 6b e8 bc c3 19 a9 bd 94 70 f1 3b 45 ad bd bc
       -0.02837152 -0.08256867 0.0073681567 -0.02315391
000260 06 a0 bf bc 6c 25 fb 3c b9 89 8f bd 53 5c 8c bd
       -0.023391735 0.030657493 -0.070086904 -0.06853547
000270 a1 e2 fa bb 7f e3 a5 bb c8 cc 14 bd 6a 7f 0b 3d
       -0.007656411 -0.00506252 -0.036328107 0.03405706
000280 de 7c 32 bd 99 d4 f3 3c 8d 47 99 bc 96 00 45 bc
       -0.043576114 0.02976446 -0.018710876 -0.0120240655
000290 39 79 a6 bd 17 a6 20 bd bb 1b a8 3c 20 91 b0 3c
       -0.0812859 -0.039220896 0.020521035 0.021553576
0002a0 da 17 d4 bc 15 06 3a bd 97 f9 24 3d d3 43 4b 3d
       -0.02589028 -0.045415957 0.04027709 0.04962523
0002b0 ea 1a 45 3c 1a 39 9e bd 75 c4 43 bc c1 f5 ac 3b
       0.012030343 -0.07725735 -0.0119486945 0.0052783196
0002c0 55 96 b5 3d 5c c7 5f 3c 62 49 10 bc e5 5d 38 3d
       0.08866564 0.013658371 -0.008806558 0.04501142
0002d0 8e a6 a5 bc 57 2b 8d bc df 76 02 ba a9 ab 76 3d
       -0.020221021 -0.01723258 -0.00049768196 0.0602223
0002e0 28 64 bc bc d1 59 5a 3d 6a ac e6 3c 56 56 b2 3c
       -0.022996977 0.05330831 0.028158385 0.021769684
0002f0 23 50 98 bc d2 c2 fe bc dc bb a0 3c f4 ca 3a 3d
       -0.0185929 -0.031098757 0.019620828 0.045603707
000300 86 5c a4 bc 3b 55 05 3b 28 23 24 bc 87 71 06 3d
       -0.02006365 0.002034499 -0.0100181475 0.03282311
000310 f3 13 32 3c 66 52 f6 bc 93 d1 7f 3d 4b 64 93 3b
       0.010869014 -0.030068588 0.062455725 0.00449804
000320 c4 68 2f bc 9f 0c 31 bc fb 21 57 3c 88 24 7a bb
       -0.01070613 -0.010806232 0.01313066 -0.0038168747
000330 d8 a2 61 3d 26 00 25 3d e1 01 18 3d ed cc 3b 3d
       0.05508694 0.040283345 0.037111167 0.04584973
000340 cd f4 37 3d 62 5b 83 3d 99 ca 3e bc 53 d0 08 3c
       0.044911195 0.06413914 -0.011644983 0.00835045
000350 f8 06 12 3d d5 47 a8 3c 34 4b 16 bc ac 4f 4c 3d
       0.035651177 0.020542065 -0.009173203 0.04988067
000360 75 a7 f4 3b f6 18 d5 3c 82 f9 50 3c 28 dd f3 3c
       0.0074662515 0.026012879 0.0127548 0.029768541
000370 68 ee 1a 3b bc 0a 15 3d 64 89 43 bd f7 b8 3a 3d
       0.0023640636 0.03638719 -0.047738448 0.045586552
000380 29 c8 a1 3b 7c 28 25 3d 3d 92 34 3d 30 aa 8c 3d
       0.004937191 0.040321812 0.044084776 0.06868398
000390 70 14 bb ba 44 45 3d 3d 94 db e2 3c 7b fe 87 bd
       -0.0014273059 0.046208635 0.027692594 -0.06640335
0003a0 aa 91 84 3c c4 2a a7 bc 7d 56 d2 bc 78 81 20 3c
       0.01618274 -0.020406134 -0.025676006 0.009796493
0003b0 4f 04 86 3c dd 42 b5 3c af 6b 84 bd ca 8b 97 3c
       0.016359476 0.02212661 -0.064658515 0.018499274
0003c0 8b f8 af 3d 46 24 55 3d 1d b9 7e bb f9 8a 85 3d
       0.08592328 0.052036546 -0.003886766 0.065206476
0003d0 9f 5c f4 3c 30 f6 15 bd 6b ff a3 3a b0 06 91 3d
       0.029829321 -0.036611736 0.0012512034 0.07081354
0003e0 df 01 0b 3d 1a fb 12 3d 2d 70 47 3c e6 64 1c bd
       0.03393733 0.035884 0.012172741 -0.03818216
0003f0 a4 15 15 ba 55 d4 a1 bb 27 1b d8 bc f6 95 0e 3d
       -0.00056871236 -0.004938642 -0.026380135 0.034810983

bn.running_mean f4 [309]
000000 2e 42 fc 3e 30 e6 cc 3e 3d 98 04 3f cf 8b f9 3e
       0.4926924 0.4001937 0.517948 0.48739478
000010 c6 2a cc 3e 35 3c 00 3f ae f0 f5 3e ac 60 ff 3e
       0.39876384 0.5009187 0.48035187 0.49878442
000020 c3 a8 ff 3e b9 25 00 3f 62 71 00 3f fe 92 00 3f
       0.49933442 0.5005756 0.5017301 0.5022429
000030 0d 7e 00 3f 03 28 00 3f 07 a5 ff 3e ca 1b ff 3e
       0.5019234 0.50061053 0.49930593 0.4982589
000040 c0 4d ff 3e c9 d3 ff 3e 45 46 00 3f 99 9c 00 3f
       0.49864006 0.49966267 0.5010722 0.5023895
000050 f1 d3 00 3f e6 f9 00 3f 27 c4 00 3f 10 80 00 3f
       0.50323397 0.50381315 0.50299305 0.5019541
000060 99 33 00 3f 8d c9 ff 3e c7 4d ff 3e 6e fe ff 3e
       0.5007873 0.4995846 0.49864027 0.49998802
000070 f8 26 00 3f fe 49 00 3f 82 58 00 3f 76 48 00 3f
       0.5005946 0.50112903 0.5013505 0.50110567
000080 20 24 00 3f 81 fb ff 3e d5 d8 ff 3e bc d6 03 3f
       0.5005512 0.4999657 0.49970117 0.51499534
000090 69 ea 03 3f 62 33 04 3f 42 84 04 3f 8e b6 04 3f
       0.51529557 0.51640904 0.5176431 0.51841056
0000a0 ff 9f 04 3f 6b 55 04 3f 7b fa 03 3f 43 87 03 3f
       0.51806635 0.5169284 0.5155408 0.5137827
0000b0 25 9a 03 3f f2 d2 03 3f a5 2a 04 3f 03 7a 04 3f
       0.5140708 0.5149375 0.5162757 0.51748675
0000c0 9f be 04 3f 12 f5 04 3f 95 cd 04 3f 39 91 04 3f
       0.51853365 0.5193645 0.51876193 0.5178409
0000d0 fb 44 04 3f ae fd 03 3f 5f bd 03 3f 8a 1f 04 3f
       0.51667756 0.5155896 0.5146083 0.51610625
0000e0 92 47 04 3f fd 68 04 3f 1a 72 04 3f df 5b 04 3f
       0.5167171 0.517227 0.51736605 0.51702684
0000f0 b3 36 04 3f db 15 04 3f 74 0b 04 3f a6 35 f2 3e
       0.51645964 0.5159585 0.51579976 0.47306556
000100 36 16 f2 3e 2e e4 f1 3e e2 c9 f1 3e 89 cb f1 3e
       0.4728257 0.472444 0.47224337 0.47225598
000110 06 ba f1 3e 86 e8 f1 3e c2 27 f2 3e e8 ce f3 3e
       0.47212237 0.47247714 0.47295958 0.47618794
000120 42 88 f2 3e 1d 8e f1 3e d4 06 f1 3e 8e 5d f1 3e
       0.4736958 0.47178736 0.47075522 0.4714169
000130 21 6c f2 3e 95 b9 f3 3e ea 8c f3 3e 6e 64 f3 3e
       0.4734812 0.47602525 0.47568446 0.4753756
000140 f9 72 f3 3e 24 af f3 3e e9 e9 f3 3e 95 0d f2 3e
       0.47548655 0.4759456 0.47639397 0.47275987
000150 27 f3 f1 3e a0 e0 f1 3e 7d d7 f1 3e 21 df f1 3e
       0.47255823 0.47241688 0.47234717 0.47240546
000160 8c f1 f1 3e 20 07 f2 3e 52 0e f2 3e ca ea f1 3e
       0.47254598 0.4727106 0.4727655 0.47249442
000170 e0 d8 f1 3e 30 95 f1 3e 72 55 f1 3e f9 54 f1 3e
       0.47235775 0.47184134 0.47135502 0.47135141
000180 93 74 f1 3e 9d a4 f1 3e 54 d0 f1 3e 3f 19 f4 3e
       0.47159252 0.47195902 0.47229254 0.4767551
000190 60 9b f2 3e ad 37 f1 3e 67 5c f0 3e 2a 6b f0 3e
       0.47384167 0.4711279 0.46945497 0.4695676
0001a0 1c 02 f1 3e 1f e6 f1 3e d0 8a f2 3e b4 ec f2 3e
       0.47071922 0.4724588 0.4737153 0.47446215
0001b0 be 34 f3 3e fb 7e f3 3e 31 c9 f3 3e 0a bd f1 3e
       0.47501177 0.47557816 0.47614434 0.47214538
0001c0 e7 a1 f1 3e fd 8a f1 3e 6f 77 f1 3e c2 78 f1 3e
       0.47193834 0.47176352 0.47161433 0.47162443
0001d0 0c 8b f1 3e 0b ab f1 3e 99 c2 f1 3e 52 d7 04 3f
       0.47176397 0.47200808 0.4721878 0.5189105
0001e0 05 de 04 3f d0 e9 04 3f 11 f2 04 3f 8d f3 04 3f
       0.51901275 0.5191927 0.51931864 0.5193413
0001f0 42 ee 04 3f 21 e2 04 3f be d8 04 3f 42 1e 05 3f
       0.5192605 0.51907545 0.5189322 0.51999295
000200 3d 01 05 3f 27 fc 04 3f 5a 0d 05 3f 38 25 05 3f
       0.51955014 0.51947254 0.519735 0.52009916
000210 3b 28 05 3f 0c 1e 05 3f 8b 13 05 3f 28 06 05 3f
       0.5201451 0.5199897 0.51982945 0.5196252
000220 86 02 05 3f ce 01 05 3f 5e 0c 05 3f 1d e2 04 3f
       0.51956975 0.5195588 0.51971996 0.5190752
000230 17 ee 04 3f 71 f6 04 3f 13 fc 04 3f 94 f9 04 3f
       0.51925796 0.5193854 0.51947135 0.51943326
000240 2b ef 04 3f 15 e5 04 3f 1c e0 04 3f 38 ab 01 3f
       0.5192744 0.5191205 0.51904464 0.50651884
000250 58 97 01 3f 25 8f 01 3f e2 9c 01 3f c8 b2 01 3f
       0.5062156 0.50609046 0.5063001 0.50663424
000260 5e c6 01 3f 44 d1 01 3f a5 c4 01 3f 47 9d 01 3f
       0.5069331 0.5070994 0.5069068 0.5063061
000270 48 7e 01 3f 8d 76 01 3f 48 89 01 3f c3 98 01 3f
       0.50583315 0.5057152 0.506001 0.5062372
000280 8f 96 01 3f 2d 87 01 3f 87 96 01 3f 0d a1 01 3f
       0.5062036 0.50596887 0.5062031 0.5063637
000290 0b aa 01 3f c3 ad 01 3f d5 a8 01 3f d7 a8 01 3f
       0.5065009 0.50655764 0.5064824 0.50648254
0002a0 9c b5 01 3f 07 b9 01 3f df b2 01 3f ec a7 01 3f
       0.5066774 0.50672954 0.5066356 0.50646853
0002b0 0e 9b 01 3f b2 95 01 3f c1 9a 01 3f 6a c6 02 3f
       0.5062722 0.5061904 0.5062676 0.51084006
0002c0 42 d2 02 3f d9 e4 02 3f 57 f9 02 3f 78 f8 02 3f
       0.5110208 0.51130444 0.5116171 0.51160383
0002d0 de e7 02 3f 8c cd 02 3f 14 c3 02 3f b8 4d 03 3f
       0.5113505 0.5109489 0.51078916 0.51290464
0002e0 b4 b9 02 3f 7f 4f 02 3f 70 23 02 3f 84 7f 02 3f
       0.5106461 0.5090255 0.50835323 0.50975823
0002f0 42 2d 03 3f 5b ed 03 3f e1 e5 03 3f e1 cd 03 3f
       0.5124093 0.5153405 0.5152264 0.5148602
000300 ef b0 03 3f 28 9d 03 3f 6b 83 03 3f 7b e0 02 3f
       0.51441854 0.51411676 0.513724 0.5112378
000310 bd e6 02 3f 13 ef 02 3f 5d f4 02 3f 7c f2 02 3f
       0.5113333 0.5114605 0.5115412 0.5115125
000320 90 e9 02 3f 8c e1 02 3f 16 de 02 3f e0 08 03 3f
       0.5113764 0.5112541 0.51120126 0.5118542
000330 c3 0c 03 3f 71 f8 02 3f 57 d0 02 3f 2e b3 02 3f
       0.5119135 0.5116034 0.5109915 0.51054657
000340 25 b4 02 3f 78 cc 02 3f c2 ec 02 3f d9 00 04 3f
       0.5105613 0.51093245 0.51142514 0.51563793
000350 b5 41 03 3f 8e a6 02 3f e5 42 02 3f b5 44 02 3f
       0.51272136 0.5103539 0.5088332 0.5088609
000360 68 80 02 3f df e9 02 3f d6 4e 03 3f 9a 91 03 3f
       0.5097718 0.5113811 0.5129217 0.51394045
000370 3f c6 03 3f 84 eb 03 3f 12 ff 03 3f 87 e9 02 3f
       0.51474375 0.51531243 0.5156108 0.51137584
000380 f3 db 02 3f e8 d0 02 3f 4e cf 02 3f 80 d8 02 3f
       0.51116866 0.51100016 0.5109757 0.511116
000390 9f e7 02 3f f4 f0 02 3f cb f3 02 3f f4 68 de 3e
       0.51134676 0.51148915 0.5115325 0.43439448
0003a0 f3 71 de 3e c7 ab de 3e 60 fb de 3e 29 2c df 3e
       0.4344631 0.4349043 0.4355116 0.4358838
0003b0 a9 2a df 3e 7a e2 de 3e bf 94 de 3e 1b 35 de 3e
       0.43587235 0.43532163 0.4347286 0.4339989
0003c0 95 41 de 3e 4a 57 de 3e f4 97 de 3e 32 01 df 3e
       0.4340941 0.4342597 0.43475306 0.435556
0003d0 ac 5b df 3e bc a8 df 3e bf 75 df 3e e4 29 df 3e
       0.43624628 0.43683422 0.4364452 0.43586648
0003e0 80 d6 de 3e 78 91 de 3e 6e 61 de 3e 39 aa de 3e
       0.43523026 0.4347036 0.43433708 0.43489245
0003f0 12 cf de 3e ea eb de 3e 78 f1 de 3e 00 db de 3e
       0.43517357 0.43539363 0.435436 0.4352646

bn.running_var f4 [309]
000000 fd a0 68 3d 8f 97 7d 3d 5b 6d 8e 3d 9d 76 68 3d
       0.056794155 0.061912116 0.06954452 0.056753743
000010 0b 24 81 3d 70 14 8f 3d 02 01 6b 3d bc 01 9a 3d
       0.06305703 0.0698632 0.057374008 0.07519862
000020 dc 38 9a 3d f8 2b 9a 3d 89 db 99 3d 01 94 99 3d
       0.07530376 0.075279176 0.07512576 0.07498933
000030 db 67 99 3d 70 6b 99 3d 7f a5 99 3d 01 ab 99 3d
       0.07490512 0.07491195 0.07502269 0.075033195
000040 5d 16 9a 3d be 27 9a 3d 83 1d 9a 3d 9f 08 9a 3d
       0.07523797 0.075271115 0.0752516 0.075211756
000050 62 e1 99 3d 4d 6c 99 3d 40 a6 99 3d 76 ae 99 3d
       0.075136915 0.0749136 0.07502413 0.07503979
000060 29 b7 99 3d 3d d8 99 3d b9 dc 99 3d 6c d9 99 3d
       0.07505638 0.07511947 0.07512803 0.07512173
000070 97 c7 99 3d 80 c9 99 3d b9 cc 99 3d ce f2 99 3d
       0.07508772 0.07509136 0.07509751 0.075170144
000080 9f 12 9a 3d 4a 17 9a 3d 4e f9 99 3d 74 0d 99 3d
       0.07523083 0.07523973 0.07518254 0.07473269
000090 05 5b 99 3d 2c 6b 99 3d 4a 35 99 3d 0c cf 98 3d
       0.07488064 0.074911445 0.07480867 0.07461366
0000a0 db 82 98 3d ba 7c 98 3d 09 b2 98 3d cd df 98 3d
       0.07446834 0.07445665 0.074558325 0.074645616
0000b0 b8 51 99 3d b5 60 99 3d 24 31 99 3d 96 0a 99 3d
       0.0748629 0.074891485 0.07480076 0.07472722
0000c0 20 cf 98 3d 0d 4b 98 3d 3d 8d 98 3d 35 9e 98 3d
       0.07461381 0.0743619 0.07448814 0.074520506
0000d0 09 9d 98 3d d6 d1 98 3d cc 08 99 3d 08 f8 98 3d
       0.07451827 0.07461898 0.07472381 0.07469183
0000e0 80 db 98 3d 89 d1 98 3d 8a e8 98 3d 55 1e 99 3d
       0.07463741 0.07461841 0.07466228 0.074764885
0000f0 b8 4b 99 3d 3f 47 99 3d 8e 1e 99 3d bd 8c 88 3d
       0.07485145 0.07484292 0.07476531 0.06667469
000100 28 2a 88 3d 7f d4 87 3d 74 ba 87 3d 8d ea 87 3d
       0.06648666 0.06632327 0.0662736 0.06636534
000110 8a 1f 88 3d 4a 5a 88 3d 7a 8e 88 3d e7 ab 89 3d
       0.066466406 0.06657846 0.066678 0.06722241
000120 4b aa 88 3d bf b8 87 3d b4 23 87 3d 3a 56 87 3d
       0.06673106 0.066270344 0.06598607 0.06608243
000130 a2 11 88 3d 54 37 89 3d 8f 81 89 3d c6 64 89 3d
       0.06643988 0.06700006 0.067141645 0.06708674
000140 81 60 89 3d ec c6 89 3d e7 27 8a 3d 83 7e 88 3d
       0.0670786 0.067273945 0.06745892 0.06664755
000150 f4 71 88 3d 50 48 88 3d e9 31 88 3d 9b 23 88 3d
       0.0666236 0.066544175 0.066501446 0.06647416
000160 19 20 88 3d 7d 4b 88 3d 13 76 88 3d 93 8f 86 3d
       0.06646747 0.06655023 0.06663146 0.06570353
000170 db 0c 86 3d 96 ad 85 3d 90 dd 85 3d e0 63 86 3d
       0.06545421 0.065272495 0.065364 0.065620184
000180 29 c9 86 3d 8f d0 86 3d 85 d1 86 3d 23 6b 87 3d
       0.06581337 0.06582748 0.065829314 0.066122316
000190 95 c1 86 3d 99 da 85 3d 0e 40 85 3d 6c 8c 85 3d
       0.065798916 0.06535835 0.06506358 0.06520924
0001a0 c2 23 86 3d c7 da 86 3d e8 96 87 3d ac 89 87 3d
       0.06549789 0.06584697 0.0662058 0.06618056
0001b0 c1 4c 87 3d 88 69 87 3d ad 90 87 3d c5 b7 86 3d
       0.066064365 0.06611925 0.066193916 0.0657802
0001c0 e3 b7 86 3d 88 a7 86 3d d2 7d 86 3d d8 52 86 3d
       0.06578042 0.06574923 0.06566967 0.0655877
0001d0 8f 43 86 3d 23 65 86 3d 76 9b 86 3d 73 18 91 3d
       0.065558545 0.06562259 0.065726206 0.070847414
0001e0 b4 55 91 3d 15 76 91 3d 85 67 91 3d d7 3e 91 3d
       0.07096425 0.071026005 0.07099823 0.07092064
0001f0 04 09 91 3d 2f ed 90 3d 81 ef 90 3d 8b b9 90 3d
       0.07081798 0.07076489 0.07076932 0.070666395
000200 85 0a 91 3d a5 26 91 3d 4a 39 91 3d 8e 3b 91 3d
       0.070820846 0.07087449 0.07091005 0.07091437
000210 56 37 91 3d 00 0b 91 3d 0e 13 91 3d 3c 0b 91 3d
       0.070906326 0.07082176 0.070837125 0.07082221
000220 67 fb 90 3d 44 f6 90 3d 96 e4 90 3d 3f 14 91 3d
       0.07079201 0.070782214 0.07074849 0.0708394
000230 c2 12 91 3d 61 22 91 3d 21 37 91 3d 1c 4a 91 3d
       0.07083656 0.070866354 0.07090593 0.07094213
000240 5e 50 91 3d e9 3d 91 3d 61 24 91 3d 32 64 90 3d
       0.07095407 0.070918866 0.07087017 0.07050361
000250 e9 8a 90 3d f3 96 90 3d 89 8c 90 3d e5 5f 90 3d
       0.07057745 0.07060041 0.07058055 0.070495404
000260 26 39 90 3d 98 21 90 3d b5 27 90 3d 5d 15 90 3d
       0.0704215 0.070376575 0.070388235 0.07035325
000270 7b 65 90 3d 73 88 90 3d f0 88 90 3d fc 64 90 3d
       0.07050606 0.070572756 0.07057369 0.07050511
000280 a8 26 90 3d a9 ac 8f 3d ad 02 90 3d f7 36 90 3d
       0.07038623 0.07015354 0.0703176 0.07041734
000290 f6 44 90 3d 02 44 90 3d de 2f 90 3d b9 37 90 3d
       0.07044403 0.070442215 0.0704038 0.07041878
0002a0 53 3a 90 3d ab 4a 90 3d de 66 90 3d 42 72 90 3d
       0.070423745 0.07045492 0.0705087 0.07053043
0002b0 6b 70 90 3d c2 60 90 3d 53 4a 90 3d 1f ce 7c 3d
       0.07052692 0.07049705 0.07045426 0.06172001
0002c0 49 70 7c 3d 0f 17 7c 3d 17 23 7c 3d de 4a 7c 3d
       0.06163052 0.061545428 0.0615569 0.061594836
0002d0 3b 70 7c 3d 05 aa 7c 3d 3b db 7c 3d 10 3a 7d 3d
       0.06163047 0.06168558 0.061732512 0.06182295
0002e0 be 36 7d 3d 20 eb 7c 3d 24 92 7c 3d cb 4b 7c 3d
       0.061819784 0.06174767 0.061662808 0.06159572
0002f0 bb 4c 7c 3d d8 f6 7b 3d c4 54 7c 3d ee 78 7c 3d
       0.061596613 0.061514705 0.061604276 0.061638765
000300 45 88 7c 3d 5f df 7c 3d 1f 2c 7d 3d e3 91 7c 3d
       0.061653394 0.06173646 0.061809655 0.061662566
000310 24 79 7c 3d 3c 64 7c 3d e5 5d 7c 3d 0f 5a 7c 3d
       0.061638966 0.06161903 0.061612982 0.061609324
000320 1d 66 7c 3d fa 7a 7c 3d 00 9a 7c 3d 2f 7c 7b 3d
       0.06162082 0.061640717 0.061670303 0.061397728
000330 93 97 7b 3d c0 fe 7b 3d 11 50 7c 3d 85 73 7c 3d
       0.06142385 0.061522245 0.061599795 0.061633606
000340 7f 5b 7c 3d f2 f6 7b 3d 03 8f 7b 3d 57 0e 7b 3d
       0.061610695 0.061514802 0.061415683 0.061292972
000350 11 68 7b 3d db a0 7b 3d 3e f8 7b 3d dc 64 7c 3d
       0.061378542 0.0614327 0.06151604 0.061619624
000360 0b aa 7c 3d 8f 8a 7c 3d d8 d4 7c 3d 87 89 7c 3d
       0.061685603 0.061655577 0.06172642 0.061654594
000370 01 17 7c 3d 18 c9 7b 3d db 97 7b 3d 27 b3 7b 3d
       0.061545376 0.061471075 0.061424118 0.06145015
000380 c7 da 7b 3d 0e 03 7c 3d 5c 30 7c 3d e7 28 7c 3d
       0.06148794 0.06152635 0.061569557 0.061562445
000390 16 03 7c 3d 4d d1 7b 3d d6 b3 7b 3d 0d 62 63 3d
       0.06152638 0.0614789 0.0614508 0.05551343
0003a0 56 1f 63 3d bb 17 63 3d 86 4a 63 3d 06 ac 63 3d
       0.055449806 0.055442553 0.055490993 0.055583976
0003b0 8f 02 64 3d c0 fb 63 3d 5a c2 63 3d 2b 14 63 3d
       0.055666503 0.05566001 0.05560527 0.055439156
0003c0 29 19 63 3d 13 2c 63 3d 46 49 63 3d 4d 56 63 3d
       0.055443916 0.055461954 0.0554898 0.055502225
0003d0 73 79 63 3d 0b aa 63 3d e7 ac 63 3d 6d 9d 63 3d
       0.055535745 0.055582087 0.055584814 0.055570055
0003e0 5d 81 63 3d df 63 63 3d 48 41 63 3d 26 a3 63 3d
       0.055543292 0.055515166 0.05548218 0.055575512
0003f0 fa ba 63 3d 37 b6 63 3d 54 97 63 3d 52 6d 63 3d
       0.055598237 0.055593695 0.05556424 0.055524178

lstm.weight_ih_l0 f4 [128, 309]
000000 a6 8b d6 bc 6e 82 47 3e a1 5a e0 bd 8e ab 6c bd
       -0.026189636 0.19483349 -0.10954786 -0.057780795
000010 9b 68 e8 3d e4 6f 72 bd d0 e3 e9 3c a5 b2 80 3d
       0.11348077 -0.05918874 0.028551012 0.06284074
000020 23 02 64 bd c7 0b 41 3d 7a ab 84 3c 28 1e ac 3d
       -0.0556661 0.047130372 0.016195048 0.08404189
000030 42 44 90 3d e1 de 30 3e 33 c2 b8 bc 6b 7b 00 3e
       0.07044269 0.17272522 -0.022553539 0.1254708
000040 40 77 e1 3d b5 66 35 bd 4a 8c 25 3e c9 20 36 bd
       0.11009073 -0.044287402 0.16166797 -0.04446486
000050 76 61 5d bd fd 64 28 3d 7b 98 d4 3d d0 f2 fe 3c
       -0.054048024 0.041111935 0.10380646 0.031121641
000060 d3 59 bf 3d 50 86 87 3d bd 88 80 3d 66 37 d0 3d
       0.093433045 0.06617415 0.06276081 0.101668164
000070 35 fc 17 3d 91 c5 af 3d 6e 6c af 3d 9f 67 96 3d
       0.037105758 0.08582605 0.08565603 0.07343983
000080 15 57 8c bc e6 a6 24 bc 43 fc 64 3d 05 e9 c1 bc
       -0.017131368 -0.010049557 0.055904638 -0.023670683
000090 d5 aa 7f 3d 8d 39 09 3e a6 64 1a bb f5 e4 f5 bc
       0.062418777 0.1340086 -0.0023558526 -0.030016402
0000a0 9e c8 4b 3e 50 c1 10 3e 69 a1 27 3e b1 f9 13 3e
       0.19900748 0.14136243 0.16370167 0.14450718
0000b0 02 7c a4 3d 82 fb e6 bc 09 3e 93 3c 4e 22 85 3d
       0.08031465 -0.0281961 0.017973917 0.06500684
0000c0 d9 23 1b bc d6 9e 8f 3d 42 2b 2c 3e 98 e4 85 3b
       -0.009468996 0.070127174 0.16813377 0.0040860884
0000d0 4c c3 30 3e 83 e9 2a 3d 8f db 4d bb 6e a8 a4 bc
       0.17262 0.0417266 -0.0031411385 -0.020099845
0000e0 8c 7d 24 3e 83 6d 16 3e 55 d3 0d 3e 1a 4c 94 3d
       0.16063517 0.14690213 0.13850148 0.07241078
0000f0 e9 90 29 3e f8 7d 15 3e f7 20 de 3d 9d f5 91 3d
       0.16559185 0.14598835 0.10846131 0.07126925
000100 27 d2 66 3c 25 33 b7 bc 90 e7 d9 bd 86 ec c9 bd
       0.01408819 -0.022363255 -0.1063987 -0.098595664
000110 47 7d 37 bd 92 52 81 bd f1 51 30 bc 56 48 4e 3d
       -0.04479721 -0.06314577 -0.010761724 0.050361954
000120 1f 6a 76 3d bd 56 87 bd ff 6b fc bd 42 ef c7 bc
       0.0601598 -0.06608341 -0.12325286 -0.02440608
000130 da 23 14 be e7 76 ea bc 74 d1 1c bd 11 86 d7 bd
       -0.14466801 -0.02862115 -0.038285688 -0.10523618
000140 a2 a3 6f 3c d0 31 08 bd cf 30 c0 bd 28 cc 7d 3c
       0.014626415 -0.03325063 -0.093843095 0.015490569
000150 19 d4 89 bb 26 8f 1b 3b 3a 1c f2 bb a8 64 b4 bd
       -0.004206192 0.0023736446 -0.007388619 -0.08808261
000160 e5 43 5a 3c f4 87 8c b8 c7 9f ee bd 9d 53 4e bd
       0.013321851 -6.7010435e-05 -0.11651569 -0.05037271
000170 89 3a 80 bd 1d 2c de bc cc 3b 33 bd 80 06 e9 bc
       -0.06261165 -0.027120644 -0.0437582 -0.028445482
000180 36 9a 86 3d c4 ff b6 3c 40 6c 54 3d c7 15 53 bc
       0.06572382 0.022338755 0.051861048 -0.01288361
000190 e0 c7 1e be 75 57 76 3d a8 5c 00 be 27 04 08 3c
       -0.15505934 0.060142 -0.12535346 0.008301771
0001a0 7f 6f 25 bd 37 36 43 bd 72 36 f7 bd 6e b1 fe bd
       -0.040389534 -0.047659125 -0.120709315 -0.12436186
0001b0 5a 19 d3 3a a5 a8 e5 3c 79 fd 27 3d 03 c9 eb bd
       0.0016105578 0.028034518 0.041013215 -0.11512949
0001c0 ec 1c fb bd a9 ff f7 bd d1 36 b4 bc bf 62 18 be
       -0.12261376 -0.1210931 -0.021998795 -0.14881419
0001d0 8a b3 9d bc af d0 ab bd 31 d7 ba bd 58 bb ba bd
       -0.01925065 -0.083894126 -0.09123076 -0.09117764
0001e0 4b 23 f4 bc 50 cc d2 3d 4e 7d 15 3d 5f 48 62 3d
       -0.029801985 0.10292876 0.036496453 0.0552448
0001f0 50 87 a0 bd e1 b1 95 bd 75 7c c7 3c 7d a9 5d 3c
       -0.07838309 -0.07309318 0.024351338 0.013529179
000200 9c 12 d5 3c 87 3f 00 3e 1e 67 50 bc 27 cc 91 bd
       0.02600985 0.12524234 -0.012719898 -0.07119017
000210 bc bb 69 3d 29 42 11 3e 19 f7 39 bd 20 36 79 bd
       0.057063803 0.14185394 -0.045401666 -0.060842633
000220 2a a7 5d bb e8 4f 98 bd 97 f8 38 3d f2 80 4b 3d
       -0.0033821561 -0.07437116 0.04515895 0.04968352
000230 99 2e f9 3d 18 14 bb 3c 1a 94 20 3d 91 37 01 3d
       0.12167091 0.02283673 0.03920374 0.031547133
000240 69 24 c0 bd 5e 29 a7 3d dd 11 50 bd 47 7a 84 3d
       -0.09381945 0.08162187 -0.050798286 0.06468635
000250 80 8b 9c 3d 2d f0 9a 3c 51 1a 7e 3d d8 23 92 3d
       0.07643795 0.018913353 0.062036816 0.07135743
000260 87 90 06 3e 4c 11 66 3d ab 17 18 bd f2 b2 e1 bc
       0.1314107 0.05616884 -0.037131947 -0.027551148
000270 46 74 41 bb cf 76 ac bb ea 0d fe bc 97 38 e1 3d
       -0.0029518767 -0.0052631865 -0.031012494 0.10997122
000280 c6 79 17 3c 1e 2d ab bd fc b5 c0 bc 2b 00 e9 3d
       0.009245342 -0.08358215 -0.023524277 0.11376985
000290 4f 27 ef 3d 64 65 01 3e f4 0b c4 3c 6e 0a 7a bd
       0.116774194 0.12636334 0.023931481 -0.061045103
0002a0 a9 3c 51 3d 97 e1 ef 3d d4 50 20 3e 5b 7c 08 3e
       0.05108324 0.1171295 0.15655833 0.13328688
0002b0 6b 52 04 3e fe 8c 13 3e 02 de 60 bc 85 d8 b1 3d
       0.12922065 0.14409253 -0.013724806 0.08683876
0002c0 fb e3 ff 3d a2 ff 10 3d e0 16 b1 3d 81 22 6a 3d
       0.12494656 0.03540004 0.08646941 0.05716181
0002d0 3c f5 41 3d b0 ca 46 3d 6b ef aa bc 5a 24 17 3e
       0.047353014 0.04853314 -0.020866117 0.14759961
0002e0 7c f4 0a bd 75 ca 1b 3d cf ee 92 3c 31 ad c6 bc
       -0.033924565 0.038034875 0.017936138 -0.024252506
0002f0 39 08 b4 b8 81 98 08 3d c8 d9 45 3d be f4 ed 3d
       -8.5846004e-05 0.033348564 0.048303396 0.116189465
000300 9d d4 05 bd 70 8e 99 3d 1f b9 9e 3c ec 68 65 3d
       -0.032673467 0.07497871 0.019375382 0.056008264
000310 04 c8 b8 3d 1b 3e 3d bb 33 ad b0 3d 1c 90 dd 3d
       0.09022525 -0.002887613 0.08626785 0.10818502
000320 91 7c e2 3d d6 52 3b bd ea ac 02 3e 9e c9 6d 3d
       0.110589154 -0.045733295 0.12761274 0.058053605
000330 a9 65 da 3d f0 c5 51 3d 38 eb 78 3d 99 6b 6a 3d
       0.106639214 0.05121416 0.060771197 0.05723152
000340 4d 49 fa 3d ca 0f 5e 3d 9f e3 dc 3d 84 9e 42 3d
       0.12221012 0.054214276 0.10785603 0.047514454
000350 02 3b a4 3d b1 8e c9 3d 06 77 52 bd c8 26 2e bd
       0.08019067 0.09841669 -0.05138304 -0.042517453
000360 ea 66 af ba e9 75 9e 3d a9 de ee 3d a0 ef e5 3d
       -0.0013382111 0.07737333 0.11663563 0.112273455
000370 ea 6c 61 3d d3 eb 89 bd 49 05 e2 3d 66 23 05 3e
       0.05503551 -0.06734433 0.11036164 0.13001785
000380 a7 5e 89 bd a3 ce 11 3a d9 47 5c 3d df b9 6f 3d
       -0.067075066 0.00055621023 0.053779457 0.05852687
000390 f9 82 72 bd 03 b1 f4 3d c0 e2 f3 3d 2c 89 d2 bd
       -0.059206937 0.11947825 0.119084835 -0.1028007
0003a0 a1 c0 f6 bd 0c e6 f0 bd e5 bc 35 bd a3 47 a2 bd
       -0.1204846 -0.11762628 -0.044369597 -0.0792382
0003b0 9c ac a3 bd df 65 f7 3c 14 bb 32 be 39 3b 75 3b
       -0.07991907 0.030199943 -0.17454177 0.0037419333
0003c0 2b 5e e6 bd 36 ff be bb f0 56 89 bc 4d 64 f5 bc
       -0.1124843 -0.0058287634 -0.016765088 -0.029955054
0003d0 0c 89 f5 bc 4b df e8 bd 80 0f 37 be c2 ac 40 bd
       -0.029972576 -0.11370715 -0.17877007 -0.047039755
0003e0 71 7d 1c 3c 3f ce c0 bc f4 89 99 bd 94 91 33 be
       0.009551392 -0.023535846 -0.074970156 -0.17536002
0003f0 5a 2a 56 bd 49 14 5c bd c9 a8 83 ba b0 19 88 bd
       -0.052286483 -0.053730283 -0.0010044809 -0.066455245

lstm.weight_hh_l0 f4 [128, 32]
000000 e9 17 f4 bb 07 1b b5 3d 1f 72 49 3d 61 a0 90 3d
       -0.0074491394 0.08843046 0.0491811 0.0706184
000010 27 d9 1f bd 4b 22 25 bd 5d 6f 31 bd b9 5e 35 be
       -0.039025452 -0.040315907 -0.043319095 -0.17711915
000020 91 18 18 3c c2 2f e0 bc d3 de d3 bd ee 58 55 3c
       0.009283201 -0.027366523 -0.10345235 0.013021691
000030 5f f9 52 3d 9a 23 fa bd a3 5d cd 3d 1a d8 02 be
       0.05150735 -0.12213822 0.100276254 -0.12777749
000040 d7 05 23 3d 93 72 8a bd 22 47 ad 3d d1 a9 06 be
       0.03980049 -0.067601345 0.08460833 -0.13150717
000050 35 b6 c3 3c 92 b4 a9 bd 31 a2 4b bd 73 d4 f5 3b
       0.023890594 -0.08286394 -0.049715225 0.0075021326
000060 43 4c 65 bd d7 e3 30 bd b0 4c c0 bd 79 31 2b bd
       -0.055980932 -0.043186035 -0.09389627 -0.041795228
000070 92 e9 35 bd 8a 65 34 3d 9b 18 be 3d 93 3a 11 3c
       -0.044412203 0.044042148 0.09282037 0.008864063
000080 2d 98 91 3d fe f4 9d bc 30 cd ea 3d c6 d0 9c bb
       0.07109103 -0.01928186 0.11464918 -0.00478563
000090 fb e7 d5 3c ac da 36 bd 6b 2a b5 3c 1b f8 61 bd
       0.026111593 -0.044642136 0.022114953 -0.055168252
0000a0 6d 9b 73 bd 71 39 96 3d 3d c3 51 bc b8 51 98 bc
       -0.059474397 0.07335175 -0.012802896 -0.018593654
0000b0 b2 d0 0d 3d a3 ae c1 bc 1d b2 a5 bc da 21 0b 3c
       0.034622855 -0.023642844 -0.020226533 0.008491958
0000c0 e2 3e 93 bb 29 54 45 3d 52 4f 1a bd c5 61 f4 3b
       -0.00449358 0.048175965 -0.037673302 0.007457944
0000d0 ea c1 40 bd df 3a 71 3d cb 99 21 bd 0e 5d f2 3b
       -0.04705993 0.058894034 -0.03945331 0.007396347
0000e0 25 36 59 3d ef bb 8c bc 9c 26 7a 3d 27 53 a8 bb
       0.053030152 -0.017179457 0.061071977 -0.0051368657
0000f0 7a 05 03 bc 01 1d a5 bd 9b 8e 99 3d 1c 0d 02 bd
       -0.007996911 -0.08062173 0.07497903 -0.031750783
000100 7e 80 f6 3d f1 2d ac bd 03 15 8c 3d aa d2 d6 bd
       0.12036227 -0.084072 0.06839945 -0.104894
000110 4b 7f 00 be 6e c6 58 3d f9 d9 83 bd c7 6c 4a 3d
       -0.12548558 0.052923612 -0.06438059 0.049420144
000120 04 1f be bc 35 88 d3 bd d0 76 0d be 9e 0e d1 3d
       -0.023208149 -0.10328714 -0.13814855 0.10207866
000130 e0 71 12 3e d1 58 45 3e a5 f5 84 bd ab 0b 8d 3d
       0.14301252 0.19272162 -0.064921655 0.06886991
000140 f9 5c 24 bc 95 89 fb 3d cb 58 5e bd 09 79 2b 3d
       -0.010031932 0.12282101 -0.0542839 0.041863475
000150 73 09 74 3d 11 c3 1d 3d 95 15 36 3e 14 fd e2 3c
       0.059579324 0.038516108 0.1778167 0.027708568
000160 5c 95 50 bb a0 df 81 3d a1 7b aa 3d 22 a4 a4 3d
       -0.0031827306 0.06341481 0.083243616 0.08039118
000170 d3 ca 55 bd b8 03 91 3d 1a 0b 0a be 8a f8 1f bd
       -0.05219538 0.070807874 -0.13480797 -0.039055385
000180 d1 79 34 bc c0 a8 c4 3c 4b 55 fc bb 78 a1 ae ba
       -0.011015371 0.024006248 -0.0077005974 -0.0013323268
000190 ae f4 47 3d c0 d7 55 3d ed f5 e0 bc 29 d7 a7 3d
       0.04881733 0.05220771 -0.027461017 0.081953354
0001a0 52 20 e5 3c 8d a3 d5 bb 73 f6 c7 bd 43 2e 64 3e
       0.027969513 -0.006519741 -0.09763803 0.22283272
0001b0 d7 88 61 bd 79 82 5e 3d 78 46 0c 3d 2c ad e7 bd
       -0.05506214 0.054323647 0.03424689 -0.11312327
0001c0 8c f3 27 be 2c b5 76 bd 04 43 40 3d 36 e1 ce 3d
       -0.164015 -0.060231373 0.04693891 0.10101549
0001d0 e5 c5 ae b9 41 2c 28 be 6e 62 05 3d 28 f2 16 bd
       -0.0003333531 -0.16423132 0.032564573 -0.036852032
0001e0 33 c9 d4 bd 8f cc da 3d 02 7f 0e 3e 20 51 3e 3d
       -0.10389938 0.10683548 0.13915637 0.046464086
0001f0 a4 53 12 bd 03 eb 98 3c 7a c2 10 bd 25 57 59 3c
       -0.035724297 0.01866675 -0.035341717 0.013265406
000200 1f 9e ad bc 3e 6f 08 bd 79 cb 8e bd cc 87 78 3d
       -0.021193562 -0.033309214 -0.06972403 0.06067638
000210 bc 79 66 bd cf 22 08 3d 97 91 54 bd 62 ff 30 3d
       -0.05626844 0.03323632 -0.051896658 0.043212302
000220 83 5e 58 bc 3d 00 81 bd cb 4f 2a bd 18 55 69 3d
       -0.013206127 -0.062988736 -0.041580003 0.056965917
000230 61 cd 9d 3d e5 8f 29 bc e7 f5 9a 3d 0c d5 52 3d
       0.077051885 -0.010349249 0.075664334 0.05147271
000240 38 f6 7d bc 88 5e 75 bd 4c ae d3 3d 5c a5 b7 3c
       -0.015500598 -0.059904605 0.10335979 0.022417717
000250 a0 1b 23 bc 50 d5 64 3c 83 27 ab bb 4a e9 e2 3c
       -0.009955317 0.013966873 -0.005223216 0.027699132
000260 ad 73 f5 bd 0d 66 7d bd 8c c7 89 3d 4d 45 18 be
       -0.11984954 -0.0618649 0.06727514 -0.14870186
000270 3b 02 f6 3d 22 84 d8 bd 93 12 7d 3d 4f a5 23 be
       0.12012144 -0.10572077 0.061785292 -0.15981029
000280 34 17 d7 3d 83 3f 8c bc c4 7a d3 3d b3 c3 c6 bd
       0.105024725 -0.017120128 0.1032615 -0.097052954
000290 9e 90 03 be de 66 78 3c 3d 4b 3f bc 14 a1 39 bd
       -0.12848136 0.015161244 -0.011675653 -0.04531963
0002a0 6a 66 38 bd b0 81 14 3e 8f 2b 8a 3d 10 4d 28 3d
       -0.045019545 0.14502597 0.067465894 0.041089118
0002b0 0c 3b 45 3c ba 95 06 bc 9b d2 92 3c 16 49 91 bd
       0.012038004 -0.0082144085 0.01792269 -0.07094018
0002c0 22 e3 32 3c 44 b2 96 3c 2b b9 c2 ba 21 54 c5 bd
       0.0109184105 0.01839555 -0.001485621 -0.09635187
0002d0 0c e0 fd 3d 83 f5 3c 3d d5 b6 ae 3d 92 e2 4a bd
       0.12396249 0.046132576 0.08530966 -0.04953248
0002e0 df cc bf bd 53 ea 8f bb 4a 26 90 bd 06 ed bc bc
       -0.09365248 -0.0043919473 -0.07038553 -0.02306224
0002f0 ea b6 8f bc 6e 7e 81 bc 3d e8 e1 bc c7 cc 8b bb
       -0.017543275 -0.015807357 -0.02757656 -0.0042663547
000300 cf 61 a7 bd 6d 8b a8 bc bf 74 02 3a 43 eb 6f 3b
       -0.081729524 -0.020574296 0.0004976503 0.0036608733
000310 a3 a5 ae bd 57 f2 d9 bc 4d 6d b4 3d 96 77 9f bc
       -0.085276864 -0.026604814 0.0880991 -0.019466203
000320 b5 f0 75 3d e2 28 24 bd f9 a6 cb 3d 67 6d 9d bd
       0.06004401 -0.04007805 0.09943957 -0.076868825
000330 9c 7a ab bd c0 23 b4 3c 93 1e 59 bd e4 fb 57 bd
       -0.08372995 0.021989703 -0.053007673 -0.052730456
000340 8c 0b 50 bd f5 d3 84 bb 94 20 86 3d 6c 5a fd bd
       -0.050792262 -0.0040535876 0.065491825 -0.12370762
000350 3e 63 8f 3b 26 18 a9 3d a4 c0 88 3c ab ba f7 bd
       0.0043758443 0.08256559 0.01669342 -0.12096151
000360 af 3c 36 3d 58 0f 8b 3c fc d0 30 3d 6e e7 b4 bd
       0.044491466 0.01697509 0.043168053 -0.08833204
000370 24 ad aa 39 1a fe 32 bd fa 6e cd 3d ac be b3 3c
       0.00032553927 -0.04369936 0.10030933 0.021941505
000380 87 f9 94 3c e0 fe 1d 3d d1 3b 36 bd de cd 89 bc
       0.01818539 0.038573146 -0.04449064 -0.016821798
000390 d1 dc 96 bd 8f 36 48 3c 85 f3 9c bd 9c 4c 3f bd
       -0.07366336 0.012220039 -0.07663635 -0.04670392
0003a0 17 39 0e 3d bc 4e ee bc ed be 13 3d 9a 49 d4 bb
       0.034722414 -0.029090278 0.036070753 -0.0064785006
0003b0 7f dd 00 bd 7b 24 f5 3c f0 cb 77 bd 34 75 fd 3c
       -0.031461235 0.029924622 -0.060497224 0.030939676
0003c0 34 fb 38 3d c4 36 a7 3c 25 66 fb bd 89 a9 19 bd
       0.04516144 0.020411856 -0.12275342 -0.037515197
0003d0 14 bf 45 3c a0 c6 64 bc 46 f0 1a bc e0 9d 5b bd
       0.012069482 -0.0139633715 -0.0094567 -0.05361736
0003e0 d9 0a 65 bd fb c8 c3 bd ff 03 44 3c 69 9a 69 bc
       -0.05591855 -0.09559818 0.011963843 -0.014258006
0003f0 b5 86 a3 bd c4 34 fe bc 0a b2 5c 3d c2 b6 21 3b
       -0.07984678 -0.03103102 0.05388073 0.0024675583

lstm.bias_ih_l0 f4 [128]
000000 d9 08 d0 bd e0 8b c1 3d 2e d2 8b 3c ff 6b 99 3d
       -0.101579376 0.09450507 0.017067995 0.07491302
000010 9d d0 05 3d 30 39 18 3d 94 58 15 be bb c3 a8 3c
       0.032669652 0.037163913 -0.14584571 0.020601144
000020 d9 54 ce bd f2 9a 1e bd da 6c 6c 3c 87 db dc bd
       -0.10074777 -0.038721986 0.014430249 -0.10784059
000030 6b 7c 34 bd 59 0f ac b9 e0 76 07 bd 25 6b c1 bd
       -0.044063967 -0.0003281783 -0.033072352 -0.09444264
000040 9a bd ab 3d 7e d6 56 3a ac 6f 18 3d cf aa e6 bd
       0.08385773 0.0008195414 0.037215874 -0.11263048
000050 49 51 d8 bc 77 2b 5a bc 2d 4f b3 3c 08 3d 59 3d
       -0.026405947 -0.013316027 0.02188834 0.05303672
000060 ed 99 a6 bd 8f 8b 18 3d 1f 30 93 3d 0c 2f 80 bc
       -0.08134828 0.03724247 0.07186913 -0.015647434
000070 4c 34 de bd db d2 fc 3c f1 f6 a4 bd 63 60 bc bd
       -0.108498186 0.030862262 -0.08054913 -0.09198072
000080 5e 15 ed 3c 2f 5f 89 3c d4 63 88 3d 10 42 54 3e
       0.028940853 0.01676902 0.06659666 0.20728326
000090 c4 ca 99 3d 0d 19 c6 3d a6 6a 09 3e d2 27 e0 bc
       0.075093776 0.09672747 0.1341959 -0.027362738
0000a0 87 33 02 be 4d ef de 3c f2 d6 04 3e 7a 72 aa bc
       -0.12714969 0.027213717 0.1297262 -0.02080654
0000b0 00 4a 88 3d db 4d 09 3e e2 00 85 3d 67 4e 99 bc
       0.066547394 0.13408606 0.06494309 -0.018714143
0000c0 e7 00 a2 3d 94 3b 64 3d 13 f7 aa bd 94 60 39 3e
       0.07910328 0.05572088 -0.08347907 0.18103248
0000d0 7d 71 c3 bd 7f f0 32 3d d8 54 9c 3d 50 45 96 3c
       -0.095431305 0.043686386 0.0763337 0.018343598
0000e0 62 cc 19 3e 25 89 c9 bc 4e f5 c0 3d 29 85 8f bd
       0.15019372 -0.024601528 0.09421788 -0.0700782
0000f0 b5 f7 9f bd 0c 05 d4 3d 22 0a 2a bc 80 34 8c 3b
       -0.07810918 0.10352525 -0.010378392 0.0042787194
000100 e9 18 34 be fd b2 b1 bc 79 fe a8 3d 68 f7 0f be
       -0.17587627 -0.021691794 0.08251662 -0.14059222
000110 85 e0 ac 3d e2 54 37 3d 3d 0f 11 3e f8 e8 f4 bd
       0.08441261 0.044758685 0.14165969 -0.11958498
000120 87 a7 50 bc af 23 a5 3d 19 a9 2f 3e 6d ca da 3c
       -0.012735254 0.08063447 0.1715435 0.026707852
000130 d9 d8 e6 bd 11 6b c8 bd f3 92 82 3b 5b 33 29 3d
       -0.11271829 -0.09786046 0.003984803 0.041308742
000140 3f 4d 91 3d 62 74 13 be 2a 32 c0 3d 59 8e a4 3d
       0.07094812 -0.14399865 0.09384568 0.08034963
000150 32 2f 4a bc 4e 36 84 bd 6a 7f 34 3e b4 a8 ef 3d
       -0.012340354 -0.0645567 0.1762673 0.117020994
000160 ae 91 43 3d 6b 0a c0 3d 5b c9 f4 bd 1e cd e1 3d
       0.047746353 0.09376987 -0.11952468 0.11025451
000170 1b 82 89 bd 26 6f 65 bd 8b e9 e4 3b 52 38 08 3e
       -0.06714269 -0.056014203 0.0069858483 0.13302734
000180 eb d8 c4 bc ca 09 21 bc ae 34 58 3c e7 4a ea 3c
       -0.024029216 -0.009828994 0.013196154 0.02860017
000190 4a 93 40 3b 4a bc ea bd b7 26 80 3c e5 72 c3 bd
       0.0029384666 -0.114616945 0.01564346 -0.09543399
0001a0 12 ad 10 3d 13 bb e5 3d 6c 49 d6 bd c0 d5 a5 bd
       0.035321303 0.11217322 -0.10463223 -0.0809741
0001b0 12 9c aa bb ef 24 85 bd 66 7e 90 3c d6 69 98 bd
       -0.0052065933 -0.06501185 0.017638396 -0.074420616
0001c0 d5 e8 cd 3d 2a 99 fe 3d 7e f5 64 3d 71 62 16 3d
       0.10054175 0.124315575 0.055898182 0.036714975
0001d0 e4 f4 ca bc e8 f4 88 3d 9d e9 93 3c f9 99 e9 bc
       -0.024774976 0.06687337 0.018055731 -0.028515803
0001e0 76 c2 fe 3a 35 d4 0f 3d eb cc d9 3d 69 b1 98 3c
       0.0019436616 0.035114486 0.10634788 0.018639283
0001f0 c7 d2 89 3d 2a 10 26 3d a5 11 14 3e be 79 7c bd
       0.06729656 0.04054276 0.14459856 -0.06163954

lstm.bias_hh_l0 f4 [128]
000000 e6 78 de bd 00 fa 16 3d 49 5a dc bc ef c7 81 3c
       -0.10862903 0.036859512 -0.02689852 0.015842406
000010 d7 a5 fa 3c 63 f1 9f 3b 44 df f2 bd 8d b5 d1 bc
       0.030596657 0.0048810705 -0.11858991 -0.025599265
000020 70 7b d4 bc 26 7b 64 bd 5e b6 79 3d f9 c2 18 be
       -0.025937766 -0.055781506 0.060964935 -0.14918126
000030 1a 00 c8 bd 87 e0 9f 3c 80 9f b5 bc 8f ec e7 bd
       -0.09765644 0.019516243 -0.022170782 -0.11324417
000040 e2 5a b6 3d 16 03 bc 3d 6d 5e 02 bc 25 05 a6 bd
       0.08904053 0.09180276 -0.007957083 -0.0810645
000050 a9 64 ee bb d2 92 41 b9 50 a0 82 3d 39 4e 35 3e
       -0.007275183 -0.00018460609 0.063782334 0.17705621
000060 8b e9 80 bd 5c c2 f2 3c 3a e9 98 bd 2d 3c 31 bd
       -0.06294545 0.029633693 -0.074663594 -0.04327028
000070 0d 86 55 bd 54 50 b6 3d 05 d9 08 be 5d 0a 98 bd
       -0.052129794 0.0890204 -0.13364036 -0.07423852
000080 88 fd c6 3c 88 b2 ac 3d 40 e3 4a 3b a3 96 07 3e
       0.024290815 0.0843249 0.0030958205 0.13241057
000090 62 49 f1 3c dd 90 b4 bc 2b 71 a1 3d 48 ae 94 bd
       0.029453937 -0.022041732 0.07882913 -0.07259804
0000a0 b3 c7 92 bd a9 75 0b 3e 76 1a 6d 3e 9e c7 4c 3c
       -0.07166996 0.13619103 0.23154625 0.012498764
0000b0 63 f6 33 3e da e3 a3 3d 5a 50 b6 3d d3 ee c2 bc
       0.17574458 0.080024436 0.089020446 -0.02379552
0000c0 70 69 9c 3d 51 27 69 3d 1b 05 f9 bd 74 43 09 3d
       0.07637298 0.05692226 -0.12159177 0.033511594
0000d0 97 c2 59 bc f2 aa 83 3c 4c bc 4d 3d e4 4d a4 3d
       -0.013291023 0.016072724 0.050228402 0.08022669
0000e0 21 ae 12 3e 8f 61 89 3d be 50 26 bd 42 dd ff bd
       0.14324237 0.06708061 -0.040604346 -0.124933735
0000f0 45 68 22 3d e5 8b fa 3c 36 3f 39 be d5 10 00 bd
       0.03965022 0.030584285 -0.1809052 -0.031266052
000100 b6 a2 77 3d b8 b1 0e be 1d 72 37 3e f4 f8 89 bb
       0.060457908 -0.13934982 0.17914625 -0.0042105857
000110 30 ea e0 bd c8 25 12 be f0 63 be bd 06 84 7c bd
       -0.10982168 -0.14272225 -0.09296405 -0.061649345
000120 92 ad 84 3c 11 36 c7 bc 5b b2 47 bc 6e 89 02 3d
       0.016196046 -0.024317773 -0.012188519 0.031869344
000130 3c 36 9b bc b0 b9 16 3e 03 fb cc bd a6 c1 a9 3d
       -0.01894676 0.14719272 -0.10008814 0.08288889
000140 fb 61 ad bc c2 bf 16 be 52 1e 1d 3e 59 7b a4 3d
       -0.021164885 -0.14721587 0.15343598 0.08031339
000150 82 70 a8 3d ad 45 a8 bc 00 19 c3 3c 40 99 18 bd
       0.08224584 -0.020541037 0.023815632 -0.037255526
000160 ed 7a 1f 3e 24 82 7b bd 6c 5c 11 bd be 12 b3 3d
       0.15574236 -0.06140341 -0.03548853 0.08743809
000170 dd e3 3e 3d cd c2 15 bc 03 fc 6d bc 66 64 02 3e
       0.046604026 -0.009140682 -0.014525416 0.12733611
000180 4e f7 f4 3d d2 29 52 bd f8 0e 9c 3c 58 ad d9 3d
       0.11961232 -0.051309414 0.019050106 0.10628766
000190 8a f4 c7 3d e1 b0 a4 3b 78 33 31 bd 7c db 41 bd
       0.09763439 0.0050259684 -0.043261975 -0.047328457
0001a0 3b 25 4d 3d 22 e3 cf 3b 4c c4 be bd 4c c5 02 3d
       0.050084334 0.006344215 -0.093147844 0.03192644
0001b0 ba aa e2 3d 0a f7 a5 3c 58 fe 1f bd 42 0e 06 3e
       0.1106772 0.020259399 -0.03906092 0.13091376
0001c0 b3 62 8c bc 94 f9 47 3d 7b 3f 9d 3d 18 08 bf 3d
       -0.017136907 0.048822 0.076781236 0.09327716
0001d0 94 76 31 3d cf a0 11 ba 74 22 2d bd dd 1a 29 bd
       0.043325976 -0.00055552734 -0.042269185 -0.041285384
0001e0 74 37 64 bc 0b 86 fa 3d 06 66 12 3e 98 7d 8e 3d
       -0.013929237 0.12232598 0.14296731 0.06957549
0001f0 0a 6d ba 3d 01 45 31 3c 3e 78 f2 bd e3 5d 42 3c
       0.09102829 0.0108196745 -0.118393406 0.011863205
