checkpoints/2023-09-08_16-37-47_checkpoint.pth (torch, 428251 bytes, 39 tensors)

lstm.weight_ih_l0 f4 [128, 309]
0	0xbcafded3	-0.021468556
1	0x3e036514	0.12831527
2	0x3de3099a	0.11085816
3	0xbcb4b8dd	-0.022060806
4	0xbd96794f	-0.073473565
5	0x3db21b9d	0.08696673
6	0xbd1b407f	-0.037903305
7	0xbdf57ab1	-0.11986292
8	0xbdf8a2f0	-0.12140453
9	0xbe485265	-0.19562681
10	0xbe411af9	-0.18857946
11	0xbe48abd0	-0.19596791
12	0xbe0cd847	-0.13754378
13	0xbde9130d	-0.11380587
14	0xbe12be78	-0.1433047
15	0xbdf6cb16	-0.12050454
16	0xbde56ee9	-0.11202795
17	0xbe1d381d	-0.15353437
18	0xbe30e43b	-0.17274563
19	0xbe2e1b96	-0.1700271
20	0xbe1d92e9	-0.15388073
21	0xbe40e0e7	-0.18835793
22	0xbe204159	-0.15649928
23	0xbe0fe75f	-0.14053105
24	0xbdee08ac	-0.11622748
25	0xbe32292f	-0.17398523
26	0xbe176166	-0.14783248
27	0xbe3b8e70	-0.18316054
28	0xbe35451b	-0.17702143
29	0xbe258319	-0.16163291
30	0xbe425cab	-0.18980663
31	0xbe49681d	-0.19668622
32	0xbe419679	-0.18905057
33	0xbe36f6a2	-0.1786752
34	0xbe1514cc	-0.14558715
35	0xbe6e2ecc	-0.23260039
36	0xbe5fc52e	-0.21852562
37	0xbe61f8d1	-0.22067572
38	0xbe860f18	-0.2618339
39	0xbe7713d6	-0.2412866
40	0xbe59b2ec	-0.2125966
41	0xbe54b5d8	-0.20772493
42	0xbe579aee	-0.21055195
43	0xbe26f9c4	-0.16306216
44	0xbe6de8ab	-0.23233287
45	0xbe73fb3c	-0.23826307
46	0xbe636f37	-0.22210394
47	0xbe6088f8	-0.2192725
48	0xbe85aa27	-0.26106378
49	0xbe5b4dce	-0.21416399
50	0xbe5f03d6	-0.21778807
51	0xbe8437c3	-0.25823793
52	0xbe8abbde	-0.27096456
53	0xbe6bf739	-0.23043527
54	0xbe5ca95a	-0.21548977
55	0xbe63cdb4	-0.22246438
56	0xbe50651c	-0.2035107
57	0xbe5511bc	-0.20807546
58	0xbe78affa	-0.2428588
59	0xbe6c65d5	-0.23085721
60	0xbe71fa35	-0.23630603
61	0xbe5bfc04	-0.21482855
62	0xbe7f4ec6	-0.24932393
63	0x3db6bef6	0.08923142
64	0x3d3f59c0	0.04671645
65	0x3d03dc3f	0.032192465
66	0x3ce17894	0.027523316
67	0x3dc7eed5	0.097623505
68	0xbbea6d64	-0.0071541537
69	0x3d8b4baa	0.06801541
70	0x3d2dd531	0.042439643
71	0x3be3c5c9	0.006951068
72	0xbc12e53c	-0.008965787
73	0x3d194689	0.037420783
74	0x3d5f09d1	0.05445272
75	0x3cf74580	0.030184507
76	0x3dd4ae2e	0.10384785
77	0xbcfbfdc4	-0.030760653
78	0xbd1a6c16	-0.037700735
79	0x3dc8304f	0.09774839
80	0x3ddce509	0.107858725
81	0xbd18374c	-0.03716211
82	0xbc8070ad	-0.015678728
83	0xbd11665b	-0.035498004
84	0x3ceb01af	0.028687326
85	0x3bcd17df	0.006258949
86	0x3cb84535	0.022493938
87	0x3d41454b	0.047185224
88	0x3bde58f5	0.006785507
89	0x3cf92bde	0.030416425
90	0x3da21610	0.07914364
91	0x3dba451e	0.09095214
92	0xbc1fd269	-0.0097547555
93	0x3d294c1e	0.041332357
94	0xbd4bd8ea	-0.049767412
95	0x3c9de620	0.019274771
96	0xbce04bf5	-0.02737997
97	0x3d56a9de	0.05240809
98	0x3cf56bf7	0.029958708
99	0x3d8a50f0	0.06753719
100	0xbc8df72a	-0.017329771
101	0x3cbe0f1b	0.023200562
102	0x3caace88	0.020850435
103	0x3d541c31	0.051784698
104	0xbd1abc52	-0.037777252
105	0xbca2a2e2	-0.01985306
106	0xbc021a76	-0.007940879
107	0x3ced636e	0.028978076
108	0xbd74e3eb	-0.059787672
109	0x3d8cb6a2	0.06870772
110	0x3d7ecba8	0.06220594
111	0xbc38e3ca	-0.011284778
112	0xbc79750c	-0.01522566
113	0xbd62d31c	-0.05537711
114	0xbb61968b	-0.0034422006
115	0xbb9ade07	-0.0047261748
116	0x3bc3e648	0.0059783794
117	0x3c43fb21	0.011961729
118	0xbcefc853	-0.029270327
119	0x3bdac64b	0.0066764704
120	0xbc816b1d	-0.015798146
121	0xbabbbe47	-0.0014323675
122	0xbd7b9744	-0.061423555
123	0xbc817220	-0.01580149
124	0xbd0f585b	-0.03499637
125	0x3b0c2ba1	0.002138831
126	0xbd3e2ae9	-0.04642764
127	0xbd6a5d01	-0.0572176
128	0xbd757503	-0.059926044
129	0xbd7c0483	-0.06152774
130	0xbd5b0fda	-0.053481914
131	0xbb944730	-0.004525088
132	0xbd6e1f59	-0.058135364
133	0xbd20daf7	-0.03927132
134	0xbd0710e8	-0.032975107
135	0x3c25a99a	0.010111237
136	0xbd52e42f	-0.051487144
137	0xbd62936b	-0.05531637
138	0xbca7e5c2	-0.0204953
139	0x3bb12467	0.005405951
140	0xbbcdf0dc	-0.006284816
141	0x3c28974f	0.010289981
142	0x3c17ecf7	0.009272805
143	0xbd3b8748	-0.04578331
144	0xbd88d203	-0.066806816
145	0xbd5ba7ea	-0.053626932
146	0xbd7aa2b0	-0.061190307
147	0xbdb46f3f	-0.08810281
148	0xbd4144d0	-0.047184765
149	0xbd92cfb1	-0.0716852
150	0xbd8e8ceb	-0.06960472
151	0xbdb96c15	-0.09053818
152	0xbddacba6	-0.10683374
153	0xbda60c9e	-0.08107875
154	0xbd73254c	-0.05936174
155	0xbdbc04b6	-0.09180586
156	0xbdabab1e	-0.083822474
157	0xbda236be	-0.079205975
158	0xbda30b97	-0.07961195
159	0xbd8b69fc	-0.06807324
160	0xbdc2440e	-0.09485637
161	0xbd8ad5b5	-0.06779043
162	0xbdbefeba	-0.09325929
163	0xbdece837	-0.11567729
164	0xbd633bd2	-0.05547697
165	0xbdbf3e7e	-0.09338091
166	0xbd95db13	-0.07317176
167	0xbd671cd4	-0.056423977
168	0xbda827bd	-0.082107045
169	0xbd467ce6	-0.048458956
170	0xbce1bd49	-0.027556079
171	0xbd82bb50	-0.06383383
172	0xbd6798c2	-0.056542166
173	0xbd5e4682	-0.05426646
174	0xbd56fd27	-0.05248752
175	0xbc9ffa4f	-0.019528536
176	0x3c98dd78	0.018660292
177	0xbbf53a88	-0.007483784
178	0x3cc2fc24	0.02380187
179	0xbd7e307b	-0.062057953
180	0x3b9ad737	0.0047253626
181	0xbd0f0985	-0.034921188
182	0x3d0e56d8	0.03475079
183	0xbcb057c2	-0.021526221
184	0x3cb6c335	0.022309879
185	0xbcad6aa2	-0.02116901
186	0x3ccd67ff	0.025074003
187	0xbc2bd10c	-0.010486852
188	0x3c1615ba	0.009160453
189	0xbd349fa1	-0.044097546
190	0x3cae9507	0.021311296
191	0x3cfa8de9	0.030585246
192	0x3d75ed2b	0.060040634
193	0xbd2b7cc4	-0.041867033
194	0x3d094ad3	0.033518624
195	0xbd4f97f5	-0.050682027
196	0xbd049a5a	-0.032373764
197	0x3da9d007	0.08291631
198	0x3d7f922f	0.06239527
199	0xbca30132	-0.01989803
200	0x3cb4ecea	0.022085626
201	0x3d5d4f95	0.054030973
202	0x3d9783b3	0.073981665
203	0xbe08c71c	-0.13357204
204	0xbe129024	-0.14312798
205	0xbdf36a60	-0.11885524
206	0xbda0c785	-0.07850555
207	0xbdc0ca26	-0.09413557
208	0xbd0a11ce	-0.033708386
209	0xbd96c2a2	-0.07361342
210	0xbd8333d8	-0.06406373
211	0xbdd6feb4	-0.104977995
212	0xbd4d0443	-0.050052892
213	0xbd9fe0ac	-0.07806525
214	0xbd8af1e2	-0.06784417
215	0xbd6f284d	-0.058388043
216	0xbcd6668c	-0.026171945
217	0xbdc38e73	-0.095486544
218	0xbdc8fcbb	-0.098138295
219	0xbdd40da6	-0.10354166
220	0xbd9d6130	-0.07684553
221	0xbd3ac148	-0.045594484
222	0xbd848577	-0.06470769
223	0xbe0e4401	-0.13893129
224	0xbdaf7bb7	-0.085685186
225	0xbe12496b	-0.14285819
226	0xbc9601cc	-0.018311404
227	0xbdce00ec	-0.100587696
228	0xbe15e808	-0.14639294
229	0xbe11c9c0	-0.14237118
230	0xbc39e0c5	-0.011345093
231	0x3cdc5a4b	0.026898524
232	0xbccf8fd7	-0.025337143
233	0x3cb4e8bd	0.022083635
234	0x3db9fc4b	0.09081324
235	0xbc8c0100	-0.01709032
236	0xbc086995	-0.008325954
237	0x3d0bf423	0.034168374
238	0x3d9f0647	0.07764869
239	0x3d29f014	0.041488722
240	0x3cc3f08f	0.023918418
241	0x3db2f9fe	0.087390885
242	0xbd33f388	-0.04393342
243	0x3d75d0ba	0.06001351
244	0x3c95bebc	0.018279426
245	0xbcb99b17	-0.02265696
246	0x3da8a2cb	0.08234175
247	0xbc1d7d84	-0.009612445
248	0x3ddf4204	0.10901263
249	0x3dda2c83	0.10653021
250	0xbaa11091	-0.0012288262
251	0x3c52b994	0.012861628
252	0xbc599f64	-0.013282631
253	0x3c2e3b38	0.010634236
254	0x3d819110	0.063264966
255	0xbc8effe2	-0.017455999

lstm.weight_hh_l0 f4 [128, 32]
0	0x3d23ddb7	0.040006366
1	0x3d21942d	0.039447952
2	0x3d6b6266	0.057466887
3	0xbd6d5aaf	-0.05794781
4	0x3dd4553c	0.1036782
5	0x3de93a42	0.11388065
6	0xbde3021c	-0.11084387
7	0x3db02130	0.0860008
8	0xbd6b115b	-0.0573896
9	0x3d34c6c2	0.044134863
10	0x3e381360	0.17976141
11	0xbcf1200e	-0.02943423
12	0xbd02d199	-0.03193817
13	0x3d973f2d	0.07385097
14	0x3d33193f	0.04372525
15	0x3dc0087b	0.093766175
16	0x3c7eafb1	0.015544818
17	0xbc89a503	-0.016802317
18	0xbe140821	-0.14456226
19	0x3db5bc99	0.08873863
20	0xbd8d318a	-0.068942145
21	0xbec15826	-0.37762564
22	0xbd1a7099	-0.037705038
23	0x3da0a6d7	0.07844322
24	0xbc639595	-0.013890644
25	0xbca40ca3	-0.020025557
26	0xbc76830e	-0.015045894
27	0x3cf2814c	0.02960267
28	0xbd4c61cf	-0.049897965
29	0xbd5463b1	-0.051852886
30	0xbdeae8b8	-0.11470169
31	0xbd6f8886	-0.05847981
32	0x3be48306	0.006973627
33	0x3b907a92	0.004409143
34	0x3c324636	0.010880997
35	0x3b0271a0	0.0019904152
36	0x3aba1e10	0.0014199633
37	0x3c3372d4	0.01095267
38	0x3c2e4b32	0.010638045
39	0xbb46046f	-0.0030215045
40	0xbb51216a	-0.0031910785
41	0x3b5aff4e	0.0033416334
42	0xbc093dd7	-0.00837656
43	0xbcb0aeee	-0.021567788
44	0x3c3123b3	0.010811734
45	0xb9b49579	-0.0003444364
46	0x3c404a9d	0.011736539
47	0x3c1744f6	0.00923275
48	0xbb1e87b3	-0.002418977
49	0xba8b140a	-0.001061083
50	0xbc632627	-0.013864077
51	0x3cb81725	0.022471974
52	0x3c45ac39	0.012064987
53	0x3d276250	0.040865242
54	0xbb42e8a8	-0.0029740725
55	0x3c2ad6fb	0.010427232
56	0xbbd24e89	-0.0064180535
57	0x3c0b7b6a	0.008513311
58	0xbb8780cd	-0.0041352273
59	0xba635f01	-0.00086735195
60	0xbcea260b	-0.028582593
61	0xbc0b94c1	-0.008519352
62	0xbb8bb2ad	-0.004263243
63	0x399e7b67	0.0003022805
64	0xba81e05e	-0.0009908786
65	0x3c8ff32c	0.017572008
66	0x3d25228a	0.040316142
67	0xbc568124	-0.013092313
68	0xbc5596a7	-0.013036407
69	0x3cbc7b13	0.023007905
70	0xbcfcc739	-0.030856716
71	0xbc7f9933	-0.01560049
72	0xbc697964	-0.014250133
73	0x3c7b41a8	0.015335478
74	0xbd151eb5	-0.036406238
75	0xbd3716e0	-0.04469955
76	0x3d2c7f64	0.042113677
77	0xbc8a5c98	-0.016889855
78	0x3cd9badd	0.026578361
79	0xbc1b7e92	-0.009490626
80	0xbcb99503	-0.022654062
81	0xbbb41490	-0.0054956153
82	0xbcecac72	-0.028890822
83	0x3d4f8357	0.050662365
84	0x3d0882ea	0.033327974
85	0xbbd12a0c	-0.006383186
86	0xbc366b45	-0.0111339735
87	0x3d7b6b2d	0.061381508
88	0xbcee1bd8	-0.029066011
89	0x3c9536b3	0.01821456
90	0x3c0ee470	0.008721456
91	0xbcf8a3df	-0.030351577
92	0xbccde79d	-0.025134856
93	0xbd1a2844	-0.037636057
94	0x3c4b43e1	0.01240632
95	0x3c217219	0.009853863
96	0x3e75a968	0.23990405
97	0x3e6cb037	0.23114096
98	0x3e6b521d	0.22980542
99	0x3e544bca	0.20732036
100	0xbdfb6358	-0.12274808
101	0x3e15e60f	0.14638542
102	0xbe904f17	-0.2818534
103	0x3e40deff	0.18835066
104	0xbe351bf2	-0.17686442
105	0x3dc5360a	0.09629448
106	0x3e01ec07	0.12687694
107	0x3daf33ac	0.085547775
108	0x3e0f0a5b	0.13968794
109	0xbe0ecadc	-0.13944572
110	0xbc35c9c8	-0.011095472
111	0xbc3d5fa7	-0.01155845
112	0x3d43822b	0.04773156
113	0x3df9b97b	0.12193581
114	0xbe253538	-0.16133583
115	0xbc80f4a5	-0.015741656
116	0x3dba675b	0.09101745
117	0x3e619be8	0.2203213
118	0xbc98600f	-0.018600492
119	0xbda83144	-0.08212522
120	0xbcac0dfc	-0.021002762
121	0xbe2bf420	-0.16792345
122	0x3da520b8	0.08062881
123	0xbcb12fab	-0.021629175
124	0xbec85aed	-0.3913187
125	0x3d19882c	0.03748338
126	0x3e784b5c	0.24247497
127	0xbd153dc3	-0.036435854
128	0x38c57f2c	9.4173796e-05
129	0xbc008831	-0.007844971
130	0xbd53b6a6	-0.05168786
131	0x3d6bf81b	0.05760966
132	0xbb2069c7	-0.002447711
133	0xbcae7ef3	-0.021300768
134	0xbdb48017	-0.08813494
135	0x3c424262	0.011856647
136	0xba8db1b8	-0.0010810411
137	0x3c6e68df	0.01455137
138	0x3c6857c6	0.014181083
139	0x3d41599c	0.0472046
140	0xbd734f0e	-0.059401564
141	0xb8c1b800	-9.23723e-05
142	0xbccd556a	-0.025065143
143	0xbd32b66c	-0.043631002
144	0xbcd354d9	-0.025797294
145	0x3b226be4	0.0024783546
146	0xbbebe7ed	-0.0071992786
147	0xbcb37d69	-0.021910386
148	0xbcef8712	-0.029239211
149	0xbd24f97e	-0.040276997
150	0xbc614722	-0.01374987
151	0xbd26d03c	-0.04072593
152	0xbc8d5be5	-0.017255733
153	0x3cb6e20c	0.022324584
154	0xbc639d03	-0.013892415
155	0xbbeaa07a	-0.0071602436
156	0xbb806bbf	-0.0039190943
157	0x3c6f3ca3	0.014601859
158	0x3cc2249a	0.023699094
159	0xbc9df4db	-0.019281795
160	0xbb23e894	-0.0025010454
161	0x3c044e84	0.00807536
162	0x3bff8260	0.0077975243
163	0xbba70dc8	-0.0050980784
164	0xbb1507f6	-0.002274034
165	0xb9df43e0	-0.00042584445
166	0x3ca257dc	0.019817285
167	0x3c2367d7	0.009973488
168	0x3a172ffd	0.00057673437
169	0xbae4b8c1	-0.001745008
170	0xbc8307e6	-0.015994977
171	0xbc2321da	-0.009956801
172	0x3a32ce4e	0.0006820903
173	0x3a69e2c6	0.00089220365
174	0x3b8b3eaa	0.0042494135
175	0xba7ebc0c	-0.0009717352
176	0x3a23f6e7	0.0006254748
177	0xb9c72c34	-0.00037989172
178	0xba2b6941	-0.00065388164
179	0x3ce62816	0.028095286
180	0x3b24b604	0.0025132904
181	0x3d263db8	0.040586203
182	0x3b003c76	0.0019567288
183	0x3bc0d20a	0.0058844136
184	0x3b355f43	0.0027675189
185	0xbb47db96	-0.0030495874
186	0x3b41fcc5	0.0029600125
187	0x3b2f5cdf	0.0026758236
188	0xbc7ad232	-0.0153089035
189	0xbb15cf3f	-0.0022859124
190	0xba5c3e47	-0.0008401614
191	0xbbb1aaa6	-0.005421954
192	0x3d30544b	0.043049138
193	0x3cd772ed	0.026299918
194	0xbc5ce503	-0.013482335
195	0xbc668a00	-0.014070988
196	0xbd820613	-0.06348815
197	0x3d3de22b	0.04635827
198	0x3d3ea2d9	0.046542022
199	0x3cec0d86	0.028815042
200	0xbbfd7679	-0.0077350703
201	0x3bcdf430	0.006285213
202	0xbd04728a	-0.032335795
203	0xbd06bf23	-0.032897126
204	0x3cc5c35c	0.024141006
205	0xbcc56475	-0.024095753
206	0x3d7702e7	0.060305502
207	0xbc92e2ef	-0.017930476
208	0x3cd9f0e9	0.026604133
209	0x3af3e891	0.0018608739
210	0xbd84c298	-0.06482428
211	0x3d3b563e	0.045736544
212	0x3cf3c2fe	0.029756065
213	0xbce4ae51	-0.027915152
214	0xbc104c9a	-0.008807326
215	0x3d0f3c33	0.03496952
216	0xbc75e0af	-0.015007182
217	0xbcae880a	-0.021305103
218	0x3c1a72e5	0.009426807
219	0xbc0b8718	-0.008516096
220	0xbd818baa	-0.06325467
221	0xbd003dc0	-0.03130889
222	0x3d0313e8	0.032001406
223	0x3d97b387	0.07407289
224	0xbd334c2c	-0.043773815
225	0x3b39cf4c	0.0028352318
226	0x3cb61b0c	0.022229694
227	0xbbc8fb2c	-0.0061334576
228	0xbc2dfa7a	-0.0106188
229	0x3ce50247	0.027955187
230	0xbb89642f	-0.004192851
231	0xbbaf1b4d	-0.0053438307
232	0xbb7cfea1	-0.003860392
233	0x3c9ec78d	0.019382263
234	0x3d4b6c3f	0.04966378
235	0xbda236b8	-0.07920593
236	0x3d0d471a	0.034491636
237	0xbc8273c6	-0.015924346
238	0x3cfdc58a	0.030977983
239	0xbc16415b	-0.009170855
240	0xbcb1dfbf	-0.021713136
241	0xbbcda8c2	-0.006276221
242	0xbc881093	-0.016609466
243	0x3c9b6a57	0.018971605
244	0x3d7167e8	0.058936983
245	0xb95f65d4	-0.00021304871
246	0xbca0688d	-0.019581104
247	0x3c9a7b0e	0.018857505
248	0xbccb89c5	-0.024845967
249	0xbcf784a6	-0.030214619
250	0xbc0296f1	-0.007970558
251	0xbc4cd96a	-0.012503007
252	0xbcb5b35e	-0.022180256
253	0xbc3502de	-0.011048047
254	0xbb26107b	-0.0025339413
255	0xb9c47c2f	-0.00037476557

lstm.bias_ih_l0 f4 [128]
0	0x3dcbe900	0.099565506
1	0x3ce71398	0.028207585
2	0x3dd1c21c	0.102421016
3	0x3c7c43c5	0.015397017
4	0xbcdbf62c	-0.026850782
5	0x3caf5af6	0.021405678
6	0x3d815fcc	0.063171
7	0x3da9ff05	0.08300594
8	0x3c9fc65b	0.019503763
9	0x3d1a238c	0.037631556
10	0xbe10fa7a	-0.14158049
11	0x3ccc0411	0.024904283
12	0x3d583b53	0.05279095
13	0x3cc14d5a	0.023596454
14	0x3cfe7205	0.031060228
15	0xbd4c38c9	-0.049858842
16	0x3c182a6a	0.009287456
17	0xbc56edbe	-0.013118206
18	0x3da68cb0	0.08132303
19	0x3db23002	0.08700563
20	0x3d7220c0	0.059113264
21	0xbd90737d	-0.07053278
22	0xbca94051	-0.020660551
23	0x3d475e97	0.048674192
24	0x3d9b836a	0.075934246
25	0x3d7287de	0.059211604
26	0x3d522045	0.051300306
27	0x3cfae366	0.03062601
28	0x3de2cb40	0.11073923
29	0x3d4ed443	0.050495397
30	0x3c85114c	0.0162436
31	0x3c937afd	0.018002981
32	0x3c92c4df	0.017916141
33	0x3d222908	0.03958991
34	0x3d949e12	0.07256712
35	0x3ddd4a77	0.10805219
36	0xbb840f47	-0.0040301415
37	0x3cc4d46f	0.024027077
38	0x3d063224	0.03276266
39	0xbc170324	-0.009217057
40	0xbd7641e4	-0.060121432
41	0x3d90a4a3	0.07062652
42	0x3e360d73	0.17778568
43	0x3dc0254d	0.093821146
44	0x3d1f7a12	0.038934775
45	0xb9da0f16	-0.0004159144
46	0x3dea8a20	0.114521265
47	0xbccafd9d	-0.024779135
48	0x3d1b36ac	0.037893936
49	0xbd1972fd	-0.037463177
50	0x3da199b7	0.07890647
51	0x3c977767	0.018489553
52	0x3bc2b501	0.0059419875
53	0x3d8f9867	0.0701149
54	0x3d1f2a0d	0.038858462
55	0xbd9eebc7	-0.07759815
56	0x3de7d371	0.11319626
57	0x3d3d9679	0.04628608
58	0x3d7a5600	0.061117172
59	0x3d88e140	0.06683588
60	0x3da32275	0.079655565
61	0xbc5838ec	-0.013197165
62	0x3dc7a1f7	0.09747689
63	0x3d6f513e	0.058427088
64	0xbd689962	-0.056786902
65	0xbc2acb75	-0.0104244845
66	0x3dfcc354	0.123419434
67	0x3dbc0ee5	0.091825284
68	0xbdd80835	-0.1054844
69	0x3c9a7048	0.018852368
70	0x3d9042db	0.07044002
71	0x3ca84be3	0.020543998
72	0xbcb3ae74	-0.021933772
73	0x3dc25f84	0.094908744
74	0x3ccfa607	0.025347723
75	0xbe296942	-0.16544059
76	0x3d79740e	0.060901694
77	0xbdb89b11	-0.090139516
78	0xbb4fb930	-0.0031696074
79	0x3ba0d2bc	0.004907934
80	0xbce8abc8	-0.028402224
81	0xbb802e1f	-0.003911748
82	0xbe29c437	-0.16578756
83	0xbc45a36c	-0.012062889
84	0x3df13671	0.11777962
85	0xbdf1d066	-0.11807327
86	0xbe131b61	-0.14365913
87	0x3e49152f	0.19636987
88	0xbe2da3d9	-0.16957034
89	0xbde5e895	-0.11226002
90	0xbda0b6cf	-0.07847368
91	0xbd8e5a9e	-0.069508776
92	0xbdb3fe44	-0.08788732
93	0x3cebb2a4	0.028771706
94	0x3cc0cee8	0.02353616
95	0x3c182313	0.009285706
96	0x3e497a90	0.1967566
97	0xbd056911	-0.032570902
98	0xbc87803a	-0.016540635
99	0xbd244f47	-0.040114667
100	0xbd19ac29	-0.0375177
101	0x3d090286	0.033449672
102	0xba90a3d6	-0.0011035155
103	0x3dab9e6e	0.083798274
104	0x3d4f08d5	0.050545532
105	0xbd2ad204	-0.041704193
106	0xbdb635c5	-0.088969745
107	0x3d20b96b	0.03923933
108	0x3d1479c9	0.036248956
109	0xbcaa016c	-0.020752631
110	0x3e010314	0.1259883
111	0xbd896a9e	-0.06709789
112	0xbcacc237	-0.021088703
113	0xbd0447b2	-0.032294936
114	0x3db1aa2b	0.08675035
115	0x3e00d661	0.12581779
116	0xbaf453a8	-0.0018640654
117	0x3dd8a31e	0.10577987
118	0x3cc5f1e4	0.024163194
119	0xbd058a96	-0.03260287
120	0x3d745366	0.059649847
121	0x3d3ca86e	0.046059065
122	0x3bcb1ad6	0.0061982675
123	0xbdaab0d6	-0.0833451
124	0x3e0d090f	0.13772987
125	0x3de8951a	0.11356564
126	0x3d6ad851	0.0573352
127	0xbd724f83	-0.05915786

lstm.bias_hh_l0 f4 [128]
0	0x3d5e8767	0.05432835
1	0x3cf0710f	0.029350786
2	0x3dd4919a	0.10379334
3	0x3d4b1c72	0.049587674
4	0xbcdd4040	-0.027008176
5	0x3ca1eacd	0.019765282
6	0x3d2c5cd6	0.042080723
7	0x3de90c9a	0.11379357
8	0xbd8991a2	-0.067172304
9	0x3d1bfa2f	0.03808039
10	0xbe987ccb	-0.2978271
11	0x3ce834d8	0.02834551
12	0x3d5cd6a9	0.053915653
13	0x3cd0b3f3	0.025476431
14	0x3cd06b56	0.025441807
15	0xbda47a3b	-0.08031126
16	0x3bd99689	0.0066402596
17	0xbc8daf77	-0.017295582
18	0x3da592b8	0.08084625
19	0x3de5029f	0.111821406
20	0x3d7288af	0.059212383
21	0x3d317f8a	0.04333452
22	0xbc98f1ff	-0.01867008
23	0x3d19f2b5	0.03758498
24	0x3d9de47c	0.077095956
25	0x3d73b4e0	0.059498668
26	0x3d5392ed	0.05165379
27	0x3d05bd28	0.032651097
28	0x3d84ac22	0.06478144
29	0x3d4eddc6	0.05050447
30	0x3d46f04f	0.04856902
31	0x3c9383a9	0.018007116
32	0x3d2bf5a7	0.04198232
33	0x3d0f59fe	0.034997933
34	0x3d165f98	0.03671226
35	0x3cc25bf2	0.023725484
36	0xbb48cec8	-0.003064083
37	0x3cce7103	0.025200373
38	0x3d784828	0.06061569
39	0x3cffebe8	0.031240419
40	0xbb6b3376	-0.0035888827
41	0x3d9afff2	0.07568349
42	0x3e33fb32	0.17576292
43	0x3dc168bc	0.094438046
44	0x3cf92864	0.030414768
45	0x3c89bd68	0.016813949
46	0x3dd686ec	0.10474953
47	0xbc570c76	-0.0131255295
48	0x3d2048f6	0.03913208
49	0xbd15e1ac	-0.03659217
50	0x3da97497	0.08274191
51	0x3d604d26	0.054761074
52	0xbcbb39af	-0.022854654
53	0x3c8cda6d	0.017193997
54	0x3d218d39	0.03944132
55	0xbd85c5be	-0.06531857
56	0x3dd4f2d7	0.103978805
57	0x3d3b97e9	0.04579917
58	0x3d7dc91a	0.061959364
59	0x3d804911	0.06263936
60	0x3de8c4da	0.113656715
61	0xbb7af0fe	-0.0038290615
62	0x3dd6543b	0.104652844
63	0x3d6f69ac	0.058450386
64	0xbd0b90d9	-0.034073684
65	0x3d30743e	0.043079607
66	0x3e0e9d17	0.13927113
67	0xbdeb8d58	-0.115015686
68	0xbdca62b1	-0.09882105
69	0x3d01732b	0.031603973
70	0xbd2760cc	-0.040863797
71	0x3da7c995	0.081927456
72	0xbe1b98ec	-0.15195054
73	0x3e22ac17	0.1588596
74	0xbe66b62c	-0.2253043
75	0xbe24f401	-0.16108705
76	0x3dcc6ab2	0.09981288
77	0xbd3a9c86	-0.04555943
78	0x3d9c7b5f	0.07640719
79	0x3e3b12b2	0.1826885
80	0xbd1a079e	-0.03760492
81	0x3af693cc	0.0018812357
82	0xbe1f6ba6	-0.15568408
83	0x3d80ce24	0.06289318
84	0x3e034cb8	0.12822235
85	0x3d4b5869	0.04964486
86	0xbdb2c0d5	-0.08728186
87	0x3de6d09c	0.11270258
88	0xbe406e00	-0.18791962
89	0xbd8057b4	-0.06266728
90	0xbda98f66	-0.08279304
91	0xbdffab6f	-0.1248387
92	0xbdf42b8e	-0.1192237
93	0xbd70361e	-0.05864536
94	0x3df1d228	0.11807662
95	0x3db50074	0.08837977
96	0x3e32abfe	0.17448422
97	0xbd62737a	-0.05528591
98	0xb999d287	-0.0002933929
99	0xbd3156ed	-0.04329579
100	0xbd503285	-0.05082943
101	0x3d21da5f	0.039514896
102	0x3d11a404	0.035556808
103	0x3e05b667	0.13057862
104	0x3d045e52	0.032316513
105	0x3d39049a	0.045170404
106	0x3d39c5a2	0.045354493
107	0x3d9341ad	0.07190261
108	0x3d18efce	0.03733807
109	0xbd69e50c	-0.0571032
110	0x3db94e4d	0.09048138
111	0x3c4bdd9e	0.012442974
112	0x3c6da44a	0.014504502
113	0xbd8e48be	-0.06947468
114	0xbcbae773	-0.022815442
115	0x3deaf816	0.114731
116	0x3e19dee2	0.1502643
117	0x3d7dfaac	0.062006637
118	0x3cc9022c	0.024537168
119	0x3ca31a88	0.019910112
120	0xbd1e1c5b	-0.03860126
121	0x3c8fc565	0.01755018
122	0x3d5a0c8e	0.05323463
123	0x3d339b28	0.04384914
124	0x3e01b002	0.12664798
125	0x3e2bb974	0.16769964
126	0x3dcf7a27	0.101307206
127	0xbd66c9a6	-0.05634465

lstm.weight_ih_l1 f4 [128, 32]
0	0xbcd0c877	-0.025486214
1	0x3c8d4f8d	0.017249847
2	0xbd0e47f5	-0.034736592
3	0x3c4e99bf	0.012609898
4	0xbc324cf7	-0.010882608
5	0x3cccbdee	0.02499291
6	0xbd0872ed	-0.033312727
7	0x3d062235	0.032747466
8	0x3a82ff0f	0.0009994226
9	0x39009a3c	0.00012264488
10	0xb78a99d9	-1.6522523e-05
11	0x3d064119	0.032776926
12	0x3d68845e	0.05676686
13	0xbb95c1d6	-0.004570226
14	0x3ccfa597	0.025347514
15	0x3d3579fa	0.04430578
16	0x3b788d0f	0.0037925874
17	0xbb73e197	-0.003721332
18	0xbd82ab40	-0.063803196
19	0x3d197a9f	0.037470456
20	0x3a388e38	0.0007040235
21	0xbd4e2b85	-0.050334472
22	0x38612a68	5.3683674e-05
23	0x3c2d83a1	0.010590465
24	0xbba3aea0	-0.004995182
25	0xbd4a85a0	-0.04944384
26	0x3bd0f058	0.0063763075
27	0x3c63ba6b	0.013899426
28	0xbd2980dc	-0.041382656
29	0xbc133ca6	-0.008986628
30	0xbd34ab9c	-0.044108972
31	0xbcac1f98	-0.021011159
32	0xbc35871f	-0.011079579
33	0x3b05c346	0.0020410581
34	0xbbd21402	-0.0064110765
35	0x3c497200	0.012295246
36	0x3b225cef	0.002477463
37	0xbb52530f	-0.0032092964
38	0xbba206ee	-0.0049446737
39	0x3ba2d44e	0.0049691563
40	0x3a441cd2	0.0007481101
41	0x3988a22d	0.00026060772
42	0xbce0aa36	-0.027424913
43	0x3c83ce56	0.0160896
44	0xbc2d86ee	-0.010591252
45	0x3a1656e5	0.0005734994
46	0xbbdf15bf	-0.0068080123
47	0xbbb9cafc	-0.0056699496
48	0xbc88a184	-0.01667858
49	0x384b52b4	4.8475995e-05
50	0x3b29b8c5	0.0025897485
51	0xbbb8e83a	-0.005642918
52	0xbb3d6964	-0.002890193
53	0x3b00e362	0.001966678
54	0xb8834ac9	-6.2604966e-05
55	0xbc534d0c	-0.012896787
56	0x38c2f96c	9.297099e-05
57	0x3c804ae4	0.01566071
58	0xba63386e	-0.00086677715
59	0x39da64b8	0.00041655242
60	0x3781f3a9	1.5491461e-05
61	0x3b2b6b79	0.0026156588
62	0xbb9ff384	-0.0048813242
63	0xbb2f72de	-0.0026771347
64	0xbba9d4ab	-0.0051828227
65	0xbb2363ce	-0.0024931314
66	0xbc7c6cd8	-0.01540681
67	0xbc99c6eb	-0.01877161
68	0x3a0a0863	0.0005265532
69	0xbbaf1523	-0.005343096
70	0xbc175ca8	-0.0092384
71	0x3b93953b	0.0045038736
72	0x39feb998	0.00048584933
73	0x38342a86	4.2954947e-05
74	0x3c7577f0	0.014982209
75	0x3cad2ff1	0.021141024
76	0xbcb6d7a8	-0.02231963
77	0x3b06c93c	0.0020566722
78	0xbc162af9	-0.009165519
79	0xbb8c1ef3	-0.0042761504
80	0xbca8f2c2	-0.020623568
81	0xba1b1748	-0.000591625
82	0x3be56f16	0.007001768
83	0xbca2c75e	-0.019870456
84	0xbc495add	-0.01228973
85	0x3b869568	0.004107166
86	0xb8754370	-5.8475358e-05
87	0xbc8dca42	-0.017308358
88	0x39be1e12	0.00036262028
89	0x3cc642da	0.0242018
90	0xbb6d7f01	-0.003623903
91	0x3a3120b1	0.00067568856
92	0x3c787832	0.015165376
93	0x3a8c0933	0.0010683894
94	0xbbe60c06	-0.0070204763
95	0xbbb0e1b0	-0.005397998
96	0x3b7d06d6	0.003860881
97	0xba6af3c7	-0.0008962717
98	0xbc4e88c5	-0.012605851
99	0x3c00daf0	0.007864699
100	0x3a25afd1	0.0006320449
101	0xbb96b53d	-0.004599242
102	0xbbbeecac	-0.0058265533
103	0x3aab4970	0.0013068151
104	0x3824431a	3.916314e-05
105	0x38ae5516	8.312815e-05
106	0xbbda85bd	-0.006668775
107	0x3cb17b4f	0.021665243
108	0xbc498962	-0.012300821
109	0x3a15db0d	0.000571654
110	0xbb9a35b0	-0.004706107
111	0xb9ccfbaa	-0.00039097416
112	0xbc8393a6	-0.016061615
113	0x37c427c1	2.3383533e-05
114	0x3ba6761c	0.0050799977
115	0xbcb1d290	-0.02170685
116	0xbc101f4c	-0.008796524
117	0x3c35f91b	0.011106755
118	0xb915cc85	-0.00014285937
119	0xbc72997e	-0.014807103
120	0xb88ac633	-6.61727e-05
121	0x3c769755	0.015050729
122	0xbacda0ed	-0.0015688218
123	0x3a0bc828	0.0005332255
124	0x3b83c4a5	0.0040212446
125	0x3b96bd7c	0.004600225
126	0xbaa035b7	-0.001222304
127	0xbb5c06ce	-0.0033573392
128	0xba0026d3	-0.0004888598
129	0xbb06a48c	-0.0020544855
130	0xbc318a54	-0.010836203
131	0xbc5bd9bb	-0.01341861
132	0x3a3821af	0.0007024062
133	0xbb6b2dee	-0.003588553
134	0xbc1ab2f7	-0.009442083
135	0x3bae6655	0.0053222575
136	0x3a44cd27	0.0007507377
137	0xb8cd8a9a	-9.800978e-05
138	0x3c3e82b6	0.011627844
139	0x3c869117	0.016426606
140	0xbc5684b8	-0.013093166
141	0x3aef57d9	0.0018260434
142	0xbbee8070	-0.0072784945
143	0xbbdc5f18	-0.0067252032
144	0xbc8fe80c	-0.017566703
145	0xb98cfc65	-0.0002689093
146	0x3b9656ec	0.0045879986
147	0xbc813379	-0.015771614
148	0xbc0aedda	-0.00847956
149	0x3bb35b68	0.005473543
150	0xb83d7e87	-4.517895e-05
151	0xbc6402b6	-0.013916662
152	0x398d7d29	0.00026986867
153	0x3c93cec3	0.018042928
154	0xbb9ea99d	-0.004841997
155	0x3a6511d4	0.00087383133
156	0x3bccb461	0.006247089
157	0xb71bdaf6	-9.289701e-06
158	0xbba160ae	-0.004924855
159	0xbbf452cd	-0.0074561597
160	0xbb253c70	-0.0025213026
161	0xba834886	-0.001001612
162	0xbc0f1294	-0.008732457
163	0x3bbf44ee	0.0058370745
164	0xb8d19da6	-9.995261e-05
165	0xbb0a7296	-0.0021125427
166	0xbb9ad865	-0.0047255033
167	0x3a0e57a0	0.0005429927
168	0xb7c9225c	-2.3977067e-05
169	0x37ba082d	2.2176735e-05
170	0x3b1b2951	0.002367575
171	0x3c8b1717	0.016978784
172	0xbc793a34	-0.015211631
173	0x3964200f	0.00021755717
174	0xbb9bbf37	-0.004753019
175	0xbb2c3c14	-0.0026280927
176	0xbc37cd84	-0.011218432
177	0xb8f113e0	-0.000114954775
178	0x3afa116f	0.0019078682
179	0xbc529ac7	-0.012854285
180	0xbb4d4f1d	-0.0031327673
181	0xbb26ee54	-0.0025471644
182	0xb86d7765	-5.6616398e-05
183	0xbc5cf4e5	-0.013486122
184	0xb8d3687c	-0.00010080726
185	0x3c9a0920	0.01880318
186	0xba3e8fc5	-0.0007269348
187	0x386fdb5e	5.7186342e-05
188	0x3ba633a9	0.0050720763
189	0x3aeea42e	0.0018206888
190	0xb96d8abe	-0.00022653767
191	0xbaed2ec2	-0.00180956
192	0xbd29f2c4	-0.041491285
193	0xb9eb5fd7	-0.000448941
194	0xbc4c50aa	-0.012470404
195	0xbd1206b3	-0.03565092
196	0xbc3fa9bb	-0.011698182
197	0xbcac6970	-0.02104637
198	0xbcc5e6f4	-0.024157979
199	0x3c82d222	0.01596934
200	0xbb5a4b46	-0.0033309027
201	0x3b4ebd51	0.0031545947
202	0xbdcbc2f2	-0.09949292
203	0x3bf6dee9	0.007533897
204	0xbc23dbc1	-0.010001124
205	0xbb5448d7	-0.0032392049
206	0xbb5ebdca	-0.0033987635
207	0xbc4c569b	-0.01247182
208	0xbd67980e	-0.056541495
209	0xba90d86d	-0.0011050828
210	0xbd0d2cf8	-0.034466714
211	0x3d1f83d4	0.03894408
212	0xbc5d4083	-0.01350415
213	0xbd3d2aa5	-0.046183247
214	0xbb0f3a19	-0.0021854697
215	0xbbb4f3b1	-0.0055222143
216	0xbc0e5313	-0.008686799
217	0x3c2437e6	0.010023093
218	0x3c2cc429	0.010544815
219	0x3b2f6cf9	0.0026767834
220	0x3ac326e9	0.0014888915
221	0x3bf3752d	0.00742974
222	0x3b34fd57	0.0027616823
223	0xbce06a53	-0.02739445
224	0xbd953da8	-0.072871506
225	0x3cc2b9a1	0.023770155
226	0xbcd84486	-0.026399862
227	0xbc055d1b	-0.008139874
228	0x3b1f143e	0.002427354
229	0x3d6e6718	0.058203787
230	0xbd3aadeb	-0.045576017
231	0x3d5bde1c	0.053678617
232	0xbb4e89f5	-0.0031515334
233	0xbb7193df	-0.003686182
234	0xbc99c336	-0.018769842
235	0xbc858f8f	-0.016303806
236	0x3d119137	0.03553888
237	0xbc9e682f	-0.019336788
238	0x3dae622c	0.085148185
239	0xbcae968c	-0.02131202
240	0x3960043f	0.00021363886
241	0x394d95c3	0.00019606114
242	0xbdd260c1	-0.102723606
243	0x3bb2a60a	0.0054519223
244	0x3da44f3d	0.08022926
245	0xbd918efd	-0.07107351
246	0x3b8697a8	0.0041074343
247	0xb98c56c8	-0.00026767538
248	0xbb416f47	-0.002951579
249	0xbbdd3442	-0.0067506144
250	0x3c39196d	0.011297566
251	0x3cd2df62	0.025741283
252	0xbd8af96f	-0.06785857
253	0xbd24f12a	-0.040269054
254	0xbd6ec149	-0.0582898
255	0xbc1541b4	-0.009109903

lstm.weight_hh_l1 f4 [128, 32]
0	0xbc89dce2	-0.016828958
1	0xbba6c6b7	-0.0050896066
2	0xbb7deeb5	-0.0038747017
3	0xbba78234	-0.005111957
4	0xbbd1f322	-0.0064071575
5	0x3b82a9e0	0.003987536
6	0xbc0d8a75	-0.008638968
7	0xbcaa66b2	-0.020800922
8	0x3c56d1d1	0.013111548
9	0x3bd7474b	0.006569778
10	0xbbfb9083	-0.0076771392
11	0x3ba40912	0.005005964
12	0xbcb16d85	-0.021658668
13	0xbc68be8b	-0.014205585
14	0x3bca816d	0.0061799795
15	0x3c34b498	0.011029385
16	0xbc145af8	-0.009054892
17	0x3c662b98	0.0140484795
18	0xbc060821	-0.008180649
19	0x3a0116f5	0.00049243803
20	0x3c9098f3	0.017651057
21	0xbc72c56d	-0.014817578
22	0xbc1f71af	-0.009731694
23	0x3c8fe8e9	0.017567115
24	0x3c2bd321	0.010487349
25	0x3c396112	0.011314647
26	0xbcb90cb5	-0.022589067
27	0x3a97bd2e	0.0011576766
28	0x3c6625aa	0.014047066
29	0xbc780f0c	-0.015140306
30	0x3c3799a6	0.011206066
31	0x3c4622fe	0.012093304
32	0xbab73648	-0.0013977969
33	0xba46a08b	-0.00075770234
34	0x3a8b5b9d	0.0010632161
35	0x38a57896	7.890274e-05
36	0x3a970f1f	0.0011524892
37	0x375c1fec	1.3120454e-05
38	0x3ab153ff	0.0013529061
39	0xbaf29741	-0.0018508212
40	0x3afa1149	0.0019078638
41	0x3a879b31	0.0010345933
42	0xba62cafe	-0.0008651464
43	0x39807596	0.0002450167
44	0x3b5d7f8c	0.0033797948
45	0xb95f7b06	-0.00021312767
46	0xba60883d	-0.0008565223
47	0x3af5925f	0.0018735639
48	0x3a7df3c3	0.00096875074
49	0x382d4607	4.1311632e-05
50	0xba90e5ae	-0.0011054778
51	0xb9ddfacb	-0.0004233926
52	0x3b6610df	0.003510527
53	0xba930bbf	-0.001121871
54	0xbb88d9b5	-0.0041763433
55	0xb94a0ab0	-0.00019268203
56	0xba9c8188	-0.0011940459
57	0x3adf0ed1	0.0017017965
58	0xbb1b6ac8	-0.002371477
59	0xb6fa8943	-7.46656e-06
60	0x3b005474	0.0019581588
61	0xbaf0343b	-0.0018326113
62	0x3a72ef95	0.0009267268
63	0x3b961ebb	0.0045813
64	0xbb2416e3	-0.0025038056
65	0xba0387af	-0.0005017472
66	0x3a66106f	0.00087762525
67	0x3a5cc741	0.0008422025
68	0x3aa1b819	0.001233819
69	0xb88ac4a6	-6.6169814e-05
70	0x3b1d4a11	0.0024000446
71	0xbb84863f	-0.0040443237
72	0x3b04c430	0.0020258538
73	0x39de8844	0.00042444665
74	0xba2f1582	-0.0006678925
75	0x39d29135	0.0004016251
76	0x3bb4937e	0.0055107465
77	0xba730faf	-0.00092720514
78	0xba2d0503	-0.0006600173
79	0x3b2a1a2f	0.0025955548
80	0x3b563d95	0.0032690514
81	0xbac70e62	-0.0015186782
82	0xb9865ae7	-0.000256262
83	0x3b1c9096	0.002388989
84	0x3b6d747a	0.0036232756
85	0x39c91175	0.00038350714
86	0x3ac08fd4	0.0014691302
87	0xbae1e127	-0.0017233238
88	0xbb5d6cc6	-0.0033786758
89	0x3ab03550	0.0013443623
90	0xbb78cdce	-0.0037964466
91	0xb9b680dd	-0.00034809756
92	0x3a9cbcfb	0.0011958176
93	0xbabab2d0	-0.0014243964
94	0x3a66626a	0.00087884685
95	0x3c0115d2	0.0078787375
96	0x391207c8	0.00013926544
97	0xb90e199d	-0.00013551717
98	0x3a6ebcac	0.0009107094
99	0x39f5a328	0.00046851602
100	0x3a2cb053	0.00065875537
101	0xb8e94c0a	-0.00011124469
102	0x3a3a0f3b	0.00070976064
103	0xb942d897	-0.00018581968
104	0x3973f04e	0.00023263806
105	0xb9f8ab8c	-0.00047430058
106	0x3840cc3f	4.5966586e-05
107	0xb991b962	-0.00027794676
108	0x3b661ad1	0.0035111199
109	0xb9de3903	-0.00042385617
110	0xb810af6b	-3.4495646e-05
111	0x3a9ac42c	0.0011807731
112	0x3a452597	0.0007520555
113	0xb9dfb759	-0.0004267048
114	0x39e1b1b6	0.0004304775
115	0x3aa9122f	0.0012899096
116	0x3a42983d	0.0007423198
117	0x393a0e6e	0.00017743718
118	0xba4aaadf	-0.000773115
119	0xb726f2e4	-9.950923e-06
120	0xba99e30e	-0.0011740641
121	0xba4ac44c	-0.0007734939
122	0xb9902116	-0.0002749047
123	0x378767d4	1.6141603e-05
124	0xb9688585	-0.00022174984
125	0xb9b5f6f6	-0.0003470701
126	0xb8ff8446	-0.000121839854
127	0x3b89b982	0.0042030225
128	0xbb137c85	-0.002250464
129	0xba2d6b39	-0.00066154037
130	0x3a987a02	0.0011633041
131	0x396987ae	0.00022271156
132	0x3a9ca6bb	0.0011951545
133	0xba0f2f32	-0.000546205
134	0x3b125740	0.0022329837
135	0xbb3eb858	-0.0029101577
136	0x3b203f88	0.002445193
137	0x39fcf146	0.00048244948
138	0xba3007a4	-0.0006715006
139	0x39243a88	0.00015662063
140	0x3bac62f2	0.0052608186
141	0x38e79593	0.00011042799
142	0xba5d6123	-0.00084449555
143	0x3b2d6556	0.0026458106
144	0x3b3092e6	0.0026943027
145	0xba668706	-0.0008793924
146	0xb9db4531	-0.00041822487
147	0x3b120f4a	0.0022286945
148	0x3b3ef556	0.002913793
149	0x3873ba1f	5.8109053e-05
150	0x3acef181	0.0015788527
151	0xba94ee8b	-0.0011362595
152	0xbb515fa5	-0.0031947878
153	0x3ac3c792	0.0014936796
154	0xbb567489	-0.003272327
155	0x38ead54b	0.000111977184
156	0x3a8c76cd	0.0010716558
157	0xbb1f8664	-0.0024341578
158	0xb8dd8814	-0.00010563448
159	0x3bbfa4fa	0.005848524
160	0x38ce4281	9.835233e-05
161	0x3814d785	3.5486668e-05
162	0x3981aacc	0.0002473205
163	0x37c4cb91	2.3459814e-05
164	0x3a2f35e0	0.0006683748
165	0xb9ad087e	-0.00033003459
166	0x3aa3a6bd	0.0012485605
167	0x39707e91	0.00022935333
168	0xb9856c8c	-0.0002544861
169	0xb9e59a0f	-0.00043793066
170	0x39f0b4d1	0.00045911086
171	0xb89a219c	-7.3495525e-05
172	0x3b256a00	0.0025240183
173	0x392286a1	0.00015499677
174	0xb9aa35fd	-0.0003246515
175	0xb9a5554a	-0.00031534798
176	0x3ad82277	0.0016489764
177	0xba88997c	-0.0010421718
178	0x39863ba6	0.00025602913
179	0xba8becb4	-0.0010675401
180	0xb759694b	-1.2958723e-05
181	0x3a0b87c9	0.0005322663
182	0xbafa9ab9	-0.0019119597
183	0xba9dc0a9	-0.0012035567
184	0xba7f3db6	-0.00097366737
185	0xb9f6f1b5	-0.00047100862
186	0x39f1feee	0.0004615704
187	0x386bf167	5.625319e-05
188	0xb96e93da	-0.00022752528
189	0x38c727bd	9.496461e-05
190	0xb7b070ac	-2.1033302e-05
191	0x3b92c7c9	0.0044793827
192	0xbc3fe038	-0.011711173
193	0xb992e909	-0.00028020915
194	0xbb2070ef	-0.0024481376
195	0x3a96e550	0.0011512432
196	0xbb8d9108	-0.0043202676
197	0x39c05d0c	0.0003669042
198	0x3b372ada	0.0027949126
199	0xbc084f77	-0.008319727
200	0x3ba072f6	0.004896517
201	0x3ae6a80f	0.0017597693
202	0x3a487fe6	0.0007648453
203	0x3ab83c9b	0.0014056148
204	0xbc7d9fa3	-0.015479955
205	0xbc58dad2	-0.013235765
206	0xbaeefcc8	-0.0018233294
207	0x3b90cbc7	0.0044188234
208	0xbb0c61d3	-0.0021420612
209	0x3b6a96fe	0.0035795565
210	0xbb73cd54	-0.0037201243
211	0x3923494d	0.00015572198
212	0x3b6e9f5c	0.0036410904
213	0xbbe70e5a	-0.0070512714
214	0x3c4c6c01	0.012476922
215	0x3b7e7452	0.0038826657
216	0x3c0939f9	0.008375638
217	0x3c042d22	0.008067401
218	0xbc30cb36	-0.010790637
219	0xbb3bb32d	-0.0028640733
220	0x3bd63521	0.006537095
221	0xbb9bcaf3	-0.004754418
222	0x3c1512f2	0.009098755
223	0xb9a4e215	-0.00031448962
224	0xbd03f870	-0.03221935
225	0xbc01d345	-0.007923906
226	0x394edb48	0.0001972738
227	0xbb8e5265	-0.0043433183
228	0xbb7f488d	-0.0038953156
229	0x3b516bbe	0.0031955088
230	0xbc901165	-0.01758642
231	0xbce0b3e4	-0.027429529
232	0x3c866a29	0.016408043
233	0x3be882ee	0.007095686
234	0xbc127b38	-0.00894051
235	0x3b83b949	0.0040198904
236	0xbd286aaf	-0.041117366
237	0xbce322b3	-0.027726507
238	0x3baa886d	0.0052042515
239	0x3ca75088	0.020424142
240	0xbc96b78f	-0.018398074
241	0x3c5c944c	0.013463091
242	0xbc1dcba7	-0.009631074
243	0x3c43d1a0	0.011951834
244	0x3cc044d1	0.023470314
245	0xbc4e4026	-0.012588536
246	0x3cdf647e	0.027269598
247	0x3c601af3	0.0136783
248	0x3cab9ea1	0.020949664
249	0x3c779194	0.015110392
250	0xbcdff6d5	-0.027339378
251	0x3a572230	0.00082066935
252	0x3ca22695	0.019793788
253	0xbca2e8f3	-0.01988647
254	0x3c90d58e	0.017679956
255	0xbcac9413	-0.021066701

lstm.bias_ih_l1 f4 [128]
0	0x3d020714	0.03174503
1	0xbca98b12	-0.020696197
2	0xbcb9a9eb	-0.022664031
3	0xbcca5098	-0.024696633
4	0xbc9c4d08	-0.0190797
5	0xbca3695e	-0.019947704
6	0xba074b23	-0.00051610376
7	0x3ced053a	0.028933156
8	0xbcc10e8a	-0.023566503
9	0xbd39dabb	-0.045374613
10	0xbd2b8bf5	-0.04188152
11	0xbc9747f9	-0.018466936
12	0xbd49fcd2	-0.049313374
13	0x3c373851	0.0111828605
14	0xbc9f13e4	-0.019418664
15	0xbd0343e0	-0.032047153
16	0xbd2cac10	-0.04215628
17	0xbc6561fb	-0.014000411
18	0xbd1f469b	-0.038885694
19	0xbc788e4d	-0.015170646
20	0xba6be8e2	-0.0008999241
21	0xbca61ae5	-0.020276496
22	0x3ca9a451	0.020708235
23	0xbca6f91c	-0.020382456
24	0xbd0e1a8c	-0.034693286
25	0xbd5cac81	-0.05387545
26	0x3c5c97df	0.013463943
27	0xbc695e18	-0.014243625
28	0xbcdf6943	-0.027271872
29	0xbcc4e073	-0.024032807
30	0xbc454384	-0.012040023
31	0x3baf2659	0.0053451476
32	0x3c8e4229	0.017365532
33	0xbcb8648c	-0.022508882
34	0xbcadbcfd	-0.02120828
35	0xbca97f0e	-0.020690467
36	0xbc974353	-0.01846472
37	0xbc9473ef	-0.018121688
38	0x3c802abc	0.015645377
39	0xbcec9d45	-0.028883586
40	0xbcdc8b06	-0.02692176
41	0xbd44e0d8	-0.04806599
42	0xbd5411a2	-0.05177463
43	0xbc8f7cfe	-0.017515656
44	0x3d27f5d7	0.041005936
45	0x3cd2cdc1	0.025732877
46	0xbc977faa	-0.018493492
47	0xbcca3e7f	-0.024688004
48	0x3c0bef46	0.008540934
49	0xbd2ab0f3	-0.04167266
50	0xbd1fdfa3	-0.039031636
51	0x3bfcd4e9	0.0077158106
52	0xbd487e83	-0.048948776
53	0xbc987207	-0.01860906
54	0x3e544a29	0.20731415
55	0xbd10aacd	-0.03531914
56	0xbcd68ad3	-0.026189243
57	0xbd7e93d5	-0.062152702
58	0xbc411e63	-0.01178703
59	0xbc565334	-0.013081361
60	0xbd10bd9a	-0.03533707
61	0xbcbbb357	-0.022912664
62	0x3d3798cc	0.044823453
63	0x3c9c4306	0.019074928
64	0x3e16294c	0.14664191
65	0xbbf5b498	-0.007498335
66	0x3cfbd836	0.030742746
67	0x3bf7f83a	0.0075674327
68	0x3c6510e2	0.013981076
69	0x3d163b16	0.036677442
70	0x3cdc212e	0.02687129
71	0x3dc458bb	0.095872365
72	0xbd8349c1	-0.06410552
73	0x3d4aedcf	0.0495432
74	0xba311526	-0.00067551655
75	0xbb097368	-0.0020973329
76	0x3dd2d49d	0.10294459
77	0x3d0d2960	0.034463286
78	0xbc33b1ab	-0.010967652
79	0x3c575780	0.01314342
80	0x3d42231c	0.047396764
81	0xbddafecc	-0.1069313
82	0x3c6bf99a	0.014402771
83	0x3bb9e9c3	0.0056736185
84	0xbe0b10a5	-0.13580568
85	0x3c604144	0.013687436
86	0xbe35a9cb	-0.17740552
87	0xbc037e94	-0.008025784
88	0x3cfdf0fc	0.0309987
89	0xbd70a232	-0.05874843
90	0x3c86fcde	0.016477998
91	0xbd068244	-0.032839075
92	0xbd41d287	-0.047319915
93	0xbc935861	-0.017986478
94	0xbd9721ed	-0.07379518
95	0xbdd96824	-0.106155664
96	0x3c41a8d6	0.011820039
97	0xbcae723c	-0.021294706
98	0xbcbb71e6	-0.02288146
99	0xbccf592a	-0.025311071
100	0xbc9e18f8	-0.019299015
101	0xbca397ad	-0.019969786
102	0xbba4bcf7	-0.005027409
103	0x3c8f873b	0.017520538
104	0xbccc144a	-0.024912018
105	0xbd3d3968	-0.046197325
106	0xbd316929	-0.04331318
107	0xbc97f0c9	-0.018547432
108	0x3cbc3970	0.022976607
109	0xbd1d9d05	-0.038479824
110	0xbc9ff1a5	-0.019524405
111	0xbcddb36b	-0.027063092
112	0x3cae63c9	0.021287816
113	0xbd0d34ab	-0.034474056
114	0xbd1fb5e3	-0.03899182
115	0xbcf125b9	-0.029436933
116	0xbc734585	-0.014848118
117	0xbca9da53	-0.020733988
118	0x3dc06eee	0.09396158
119	0xbd05f2d7	-0.032702293
120	0xbd0a7c4c	-0.033809945
121	0xbd630732	-0.055426784
122	0x3c4e46eb	0.01259015
123	0xbc6fad94	-0.014628787
124	0xbce00055	-0.027343908
125	0xbcca4623	-0.024691647
126	0xbd29291b	-0.041298967
127	0xbd95ceb6	-0.073148176

lstm.bias_hh_l1 f4 [128]
0	0x3cfefac3	0.031125432
1	0xbca989bd	-0.020695562
2	0xbcb9a605	-0.022662172
3	0xbcca4913	-0.024693048
4	0xbc9c487b	-0.01907753
5	0xbca2cf9e	-0.01987439
6	0xb9f32731	-0.00046377772
7	0x3ca7f780	0.02050376
8	0xbcc31ba8	-0.023816898
9	0xbd39c426	-0.045353077
10	0xbd2b4776	-0.041816197
11	0xbc9747fb	-0.01846694
12	0xbd8ae5a9	-0.067820854
13	0xbd77149c	-0.06032239
14	0xbc9f13b9	-0.019418584
15	0xbcc299ad	-0.023754919
16	0xbd8dfa2c	-0.06932482
17	0xbc7ea59d	-0.015542415
18	0xbd1f7613	-0.038930964
19	0x3bc52568	0.006016422
20	0x3ae98d20	0.0017818548
21	0xbca61cd6	-0.020277422
22	0x3d896dda	0.06710406
23	0xbd25f4e6	-0.040516756
24	0xbd1e5a0b	-0.03866009
25	0xbd718e85	-0.058973808
26	0x3cbc474d	0.022983218
27	0xbc6945e0	-0.014237851
28	0xbcf6988a	-0.030102033
29	0xbcccc48f	-0.02499607
30	0xbd8bd8a5	-0.06828431
31	0x3c4e86f7	0.01260542
32	0x3d53214c	0.051545426
33	0xbcb86853	-0.022510683
34	0xbcadbddf	-0.021208702
35	0xbca97e5b	-0.020690134
36	0xbc9743d3	-0.018464958
37	0xbc9458a5	-0.018108675
38	0x3c80ce5f	0.015723405
39	0xbc5151df	-0.012775867
40	0xbce37516	-0.027765792
41	0xbd44dda2	-0.048062928
42	0xbd540d7c	-0.051770672
43	0xbc8f7cfb	-0.01751565
44	0x3e7514ba	0.23933688
45	0x3ca0dbd5	0.019636074
46	0xbc977f79	-0.0184934
47	0xbcb42712	-0.021991286
48	0x3d2509c7	0.040292528
49	0xbd41db52	-0.0473283
50	0xbd1fd309	-0.03901962
51	0x3cbaf07b	0.022819748
52	0xbd58ae4b	-0.052900594
53	0xbc986c7a	-0.018606413
54	0x3e540fa4	0.20709091
55	0xbd0230d8	-0.031784862
56	0x3b234c88	0.0024917442
57	0xbd586e9a	-0.052839853
58	0xbcae47ff	-0.021274565
59	0xbc5651f5	-0.0130810635
60	0xbd0912ee	-0.03346532
61	0xbcbf84fc	-0.023378842
62	0x3d139f27	0.03604045
63	0x3e2280b0	0.15869403
64	0x3db68645	0.08912329
65	0x3c756fd0	0.014980271
66	0x3ca28285	0.019837627
67	0xbb6fadac	-0.0036572022
68	0xbccd9815	-0.025096932
69	0x3b94361f	0.0045230533
70	0xbcd1e2b9	-0.025620805
71	0x3dfdacdd	0.12386487
72	0xbc83cb44	-0.016088136
73	0xbc79fa71	-0.015257464
74	0x3c349eb7	0.011024169
75	0xbbf7c19a	-0.007560921
76	0xbb2e65ce	-0.0026610973
77	0x3d8e4c20	0.069481134
78	0xbc092435	-0.008370449
79	0xbc310aed	-0.010805828
80	0xbc37bbb8	-0.011214189
81	0x3d68d4a4	0.056843415
82	0xbc441598	-0.011968039
83	0xbd797ab1	-0.060908023
84	0x3bcf74db	0.006331069
85	0x3d0297e6	0.031883143
86	0xbd9cea9b	-0.07661935
87	0xbde32a4e	-0.11092053
88	0x3db618c3	0.08891442
89	0x3c552e3f	0.013011514
90	0x3e0956f9	0.13412084
91	0xbc6c9c61	-0.0144415805
92	0xbd56b0d1	-0.05241472
93	0x3d61387c	0.05498551
94	0xbdcf5b11	-0.101247914
95	0xbdb66574	-0.089060694
96	0x3b2bee9c	0.0026234752
97	0xbcae79bc	-0.021298282
98	0xbcbb702e	-0.02288064
99	0xbccf5658	-0.025309727
100	0xbc9e1e96	-0.019301694
101	0xbca3b8bc	-0.01998555
102	0xbbb5f308	-0.005552653
103	0x3c29ed1a	0.010371471
104	0xbcc13139	-0.023583042
105	0xbd3d3a0b	-0.046197932
106	0xbd31802a	-0.043335117
107	0xbc97f069	-0.018547254
108	0x3dd9b583	0.10630324
109	0xbd67518b	-0.05647425
110	0xbc9ff176	-0.019524317
111	0xbd130506	-0.035893463
112	0x3cd913a2	0.02649862
113	0xbd3f32f8	-0.046679467
114	0xbd1f8d98	-0.038953394
115	0x3cd89501	0.026438238
116	0xbcb0902a	-0.021553118
117	0xbca9c75f	-0.02072495
118	0x3c76bdcf	0.015059902
119	0xbcb1d3cd	-0.02170744
120	0xbd5f75aa	-0.054555573
121	0xbd6a840e	-0.057254843
122	0x3c77176f	0.015081271
123	0xbc6fc191	-0.014633552
124	0xbcfe7259	-0.031060385
125	0xbcc896d1	-0.024485977
126	0xbdc44b9d	-0.095847346
127	0xbd54643a	-0.051853396

lstm.weight_ih_l2 f4 [128, 32]
0	0xbcd391a0	-0.025826275
1	0xbbf4aa33	-0.0074665784
2	0x3b508e2f	0.003182303
3	0x3a952d61	0.0011381322
4	0x39a878f8	0.00032133586
5	0x3af09da8	0.0018357532
6	0xbc45778a	-0.012052426
7	0xbcee1e60	-0.029067218
8	0x3c5b5766	0.013387537
9	0x3c085ff0	0.0083236545
10	0xbc23fbe2	-0.010008784
11	0x3b51f5ad	0.0032037303
12	0xbcf301fb	-0.02966403
13	0xbc8b86f5	-0.017032126
14	0xbb209fd9	-0.002450934
15	0x3c6b033c	0.014344033
16	0xbc0c3302	-0.008557083
17	0x3c4be9df	0.012445896
18	0xbbe57945	-0.007002982
19	0x3c8f4c2c	0.017492376
20	0x3cc9a589	0.024615066
21	0xbbf94eb0	-0.0076082572
22	0x3d016e92	0.03159959
23	0x3c5ad40c	0.01335622
24	0x3c089663	0.008336636
25	0x3c6c0d43	0.014407459
26	0xbce35ca7	-0.027754141
27	0xbb7b95fe	-0.0038388963
28	0x3c6afc8d	0.014342439
29	0xbc2c51e7	-0.010517574
30	0x3c23ebbc	0.010004934
31	0xbc85d477	-0.016336663
32	0xbad88a23	-0.001652066
33	0xb83e995f	-4.5442368e-05
34	0xb8e0ac37	-0.0001071323
35	0x399355a7	0.0002810184
36	0x38f0cc5f	0.00011482159
37	0x395404b4	0.00020219648
38	0xba374cb4	-0.00069923257
39	0xbac4e341	-0.001502134
40	0x393f1938	0.00018224574
41	0x3927caf8	0.00016001973
42	0xb9967957	-0.00028700635
43	0x3984ec4f	0.00025353066
44	0xbaf4b254	-0.0018668869
45	0xba92a2c3	-0.0011187423
46	0xb9843a4e	-0.00025220442
47	0x39a1e338	0.00030877604
48	0xb9926aeb	-0.0002792695
49	0x39337658	0.00017114857
50	0xb8895b17	-6.549636e-05
51	0x3a70248f	0.0009160721
52	0x39d80b3e	0.00041207107
53	0xb7d0e6f9	-2.4903087e-05
54	0x3ab51a1c	0.0013816985
55	0x3a06769f	0.000512937
56	0x39d85f88	0.00041269907
57	0x39f74191	0.00047160362
58	0xba8c5436	-0.0010706249
59	0xb8911b9e	-6.919283e-05
60	0x3a241f87	0.00062608015
61	0x398edad3	0.00027247387
62	0x3a5ab479	0.00083429326
63	0xb95d2d40	-0.0002109306
64	0xb929c8d8	-0.00016191916
65	0x38083b4f	3.2480162e-05
66	0xb91bd8b9	-0.00014862687
67	0x396823f1	0.00022138633
68	0xb99202c6	-0.00027849356
69	0x393a7a02	0.00017783794
70	0x3945945b	0.00018842651
71	0xb97ba3d3	-0.00023998255
72	0x38f192ac	0.00011519095
73	0x39388059	0.0001759542
74	0xb8d16365	-9.98441e-05
75	0x38d2a446	0.000100441786
76	0x38407470	4.5884808e-05
77	0xb709a3b7	-8.203954e-06
78	0xb71d9de2	-9.394689e-06
79	0x38de85e2	0.000106107225
80	0x35d6f109	1.6014393e-06
81	0x382f6809	4.182014e-05
82	0xb94ce093	-0.00019538616
83	0x38f4c72e	0.00011671927
84	0x39c8e465	0.0003831714
85	0xb7fa0d1d	-2.9808429e-05
86	0xb9c8b716	-0.00038283382
87	0x38896f5b	6.553411e-05
88	0xb8fcac67	-0.00012048409
89	0x39640708	0.00021746394
90	0xb99ec39a	-0.00030281843
91	0xb8539ecc	-5.045421e-05
92	0x38f996a8	0.00011901307
93	0x37813252	1.540143e-05
94	0x385ba73a	5.236941e-05
95	0x39eb5b1b	0.00044890572
96	0xb7ca4f6f	-2.4117266e-05
97	0xb790c913	-1.725977e-05
98	0x39054ae4	0.00012711767
99	0xb8d80fbf	-0.000103026156
100	0x3916ba79	0.00014374581
101	0xb8401c4e	-4.5802728e-05
102	0x38714f77	5.7532885e-05
103	0xb9092d00	-0.00013082102
104	0x38986c4e	7.268098e-05
105	0xb8b0755c	-8.414194e-05
106	0x383af205	4.4571254e-05
107	0xb82096cc	-3.8287413e-05
108	0x3a125bde	0.0005583147
109	0x3856172b	5.1043153e-05
110	0xb89386c0	-7.0346054e-05
111	0x38f947c5	0.00011886613
112	0x39a43cae	0.00031325727
113	0xb90ccd6e	-0.00013427969
114	0x388e407a	6.783097e-05
115	0x38cc455a	9.740396e-05
116	0x39008070	0.00012254878
117	0x378e71ba	1.6980677e-05
118	0x3984c042	0.00025320245
119	0xb98e66f3	-0.00027161054
120	0xb92554a3	-0.00015767156
121	0xb75b9253	-1.3087486e-05
122	0xb8cc01a7	-9.727786e-05
123	0xb87b3697	-5.9893904e-05
124	0xb862b3d8	-5.405009e-05
125	0xb7e64d97	-2.7454267e-05
126	0xb8b0c313	-8.4286694e-05
127	0x3a048916	0.0005055828
128	0xba05510f	-0.0005085626
129	0xb8ec2dd7	-0.00011261895
130	0xb8cf2e53	-9.879158e-05
131	0x39a51d22	0.00031492958
132	0xb96a847c	-0.00022365333
133	0x39344ff5	0.00017195924
134	0xb8cecc0c	-9.860852e-05
135	0xba50a738	-0.0007959488
136	0x3934fcd7	0.00017260328
137	0x396546db	0.00021865538
138	0xb91d3f12	-0.00014996182
139	0x38be55de	9.0759e-05
140	0xba31a5cf	-0.00067767216
141	0xb906146a	-0.0001278684
142	0xb90b4baa	-0.0001328426
143	0x38c0d6db	9.1952934e-05
144	0x39350a1b	0.0001726527
145	0x38c35194	9.31352e-05
146	0xb93c146e	-0.00017936688
147	0x39f1e9d3	0.00046141315
148	0x3a2482a9	0.00062755734
149	0xb89454c0	-7.072976e-05
150	0xb80aea1c	-3.3119795e-05
151	0x396ba3d6	0.0002247238
152	0xb782b330	-1.5580648e-05
153	0x398f340e	0.0002731387
154	0xba285458	-0.00064212596
155	0xb8e26c45	-0.000107966865
156	0x39a3d6fe	0.00031249964
157	0x38ecc9ec	0.00011290968
158	0xb709c3c6	-8.211418e-06
159	0x39fe80ee	0.00048542715
160	0xb9f30abd	-0.00046356572
161	0x37f8e1f8	2.9669129e-05
162	0xb6bc56fa	-5.612962e-06
163	0x39006795	0.00012245619
164	0x38b845f1	8.786831e-05
165	0x38a6cbf0	7.953483e-05
166	0xb884aa41	-6.325963e-05
167	0xba7f198c	-0.0009731285
168	0x39840222	0.0002517859
169	0x38a51621	7.871935e-05
170	0xb91457fb	-0.00014147155
171	0x38ee514e	0.000113638685
172	0x399d5897	0.00030011378
173	0x3881ec7a	6.1952465e-05
174	0xb92f86a3	-0.00016739457
175	0x399e583d	0.0003020185
176	0x39fdd488	0.00048414269
177	0xb8fefe62	-0.00012159046
178	0xb88b9f57	-6.657716e-05
179	0x3a293f8e	0.0006456309
180	0x3a16f027	0.00057578314
181	0x36874204	4.0309988e-06
182	0x3a7e25ee	0.0009694983
183	0xb9934324	-0.0002808805
184	0xba3879d9	-0.00070371997
185	0x3933ad1d	0.0001713526
186	0xba5d7c61	-0.0008449015
187	0x381e7a6e	3.7784157e-05
188	0x38f08744	0.00011469287
189	0x38b236f7	8.4979394e-05
190	0x381fe66f	3.8123162e-05
191	0x3a30ccd8	0.0006744391
192	0xb8bcd0be	-9.00342e-05
193	0x37939998	1.7595288e-05
194	0x38f24444	0.00011552175
195	0xb820b1e6	-3.8312653e-05
196	0x397c914a	0.00024086717
197	0xb8ca1464	-9.635909e-05
198	0xb86cf211	-5.6492227e-05
199	0xb9aac98b	-0.00032575088
200	0x37b8a363	2.2010592e-05
201	0xb90c0657	-0.00013353802
202	0x38c7a0fc	9.519045e-05
203	0xb82220cf	-3.8654365e-05
204	0x3a3f09da	0.000728754
205	0x3952bff8	0.00020098675
206	0xb96ba3a7	-0.00022472312
207	0x38bef5c5	9.105684e-05
208	0x3a243f7a	0.0006265562
209	0xb990e29e	-0.00027634663
210	0x38d58151	0.000101807185
211	0x389fc6c0	7.618731e-05
212	0x3977afe1	0.00023621276
213	0x380986de	3.278895e-05
214	0x39a098d8	0.00030631456
215	0xb9f356d7	-0.00046413273
216	0xb9f2a6a2	-0.00046281988
217	0xb83d20d5	-4.509169e-05
218	0xb983e3f9	-0.0002515612
219	0x390f8219	0.00013686008
220	0xb8bfd6ab	-9.147575e-05
221	0x38cc5e79	9.745075e-05
222	0xb8e29e74	-0.00010806034
223	0x3a7eb032	0.0009715586
224	0xbcf238c9	-0.029568093
225	0xbc41cc8e	-0.011828555
226	0xb8a6ed10	-7.959653e-05
227	0xba86c36d	-0.001028163
228	0xbb6c7586	-0.0036080792
229	0x3b9ca6d7	0.004780631
230	0xbc952ba4	-0.018209286
231	0xbd2b07d1	-0.0417555
232	0x3cc6e787	0.024280323
233	0x3c590d01	0.013247729
234	0xbc81617b	-0.015793553
235	0x3c05c886	0.008165484
236	0xbd40bc33	-0.04705448
237	0xbcc85005	-0.024452219
238	0x3a4826d0	0.0007635178
239	0x3cc45dc8	0.0239705
240	0xbcb2c653	-0.021823084
241	0x3ca88104	0.020569332
242	0xbc67a726	-0.014138972
243	0x3caeaf61	0.021323862
244	0x3d1f087f	0.038826462
245	0xbc821b16	-0.015882056
246	0x3c80fc23	0.015745228
247	0x3cc45be4	0.023969598
248	0x3caa67cb	0.020801445
249	0x3cabd40f	0.02097514
250	0xbd25c588	-0.040471584
251	0xbb49c565	-0.0030787822
252	0x3cca8bd4	0.024724878
253	0xbcb8541c	-0.022501044
254	0x3c8af4bf	0.016962407
255	0xbc966e80	-0.018363237
